Modeling eMNS/checkpoint.pt (torch, 35620 bytes, 8 tensors)

total_net.0.net.0.fc.weight f4 [100, 15]
0	0x3e3de90d	0.18545933
1	0x3e52d456	0.20588812
2	0xbeecfcfd	-0.46286765
3	0xbe9f3b33	-0.31099853
4	0xbe69bb27	-0.22825299
5	0x3ead222d	0.33815137
6	0xbd9354b9	-0.07193894
7	0xbd48cdd7	-0.04902443
8	0xbca100d8	-0.019653723
9	0x3ebe1a25	0.37129322
10	0x3ee3ff1d	0.44530573
11	0x3e27790b	0.16354768
12	0xbf7ef504	-0.99592614
13	0xbe4d76e1	-0.2006488
14	0x3ea3ba34	0.31978
15	0xbe57df90	-0.21081376
16	0x3f5ff9a8	0.8749032
17	0x3b81dbe0	0.0039629787
18	0x3e2464d5	0.1605409
19	0xbdfbebde	-0.123008475
20	0xbe9ebeec	-0.31005037
21	0x3da9f566	0.08298759
22	0x3d96c594	0.07361904
23	0x3e0f1577	0.13973032
24	0xbd86c80f	-0.06581127
25	0xbc29e7ff	-0.010370254
26	0x3dbda9b8	0.09260887
27	0x3f8d9046	1.1059654
28	0xbe6275e0	-0.22115278
29	0x3e1d73ca	0.15376201
30	0x3ecac42f	0.396028
31	0x3ea8e9e4	0.32990944
32	0xbda65a4f	-0.08122694
33	0xbe3f526d	-0.18683787
34	0xbefe86b6	-0.4971215
35	0xbe47595f	-0.19467686
36	0x3e247288	0.16059315
37	0xbf03f727	-0.51549
38	0x3eac42aa	0.3364461
39	0x3ee029ab	0.4378179
40	0x3e24f602	0.1610947
41	0x3e584d86	0.21123323
42	0x3e8de714	0.2771536
43	0xbe5bad07	-0.21452723
44	0x3db3903d	0.08767746
45	0xbee77c05	-0.45211807
46	0x3d9670b1	0.07345713
47	0xbe53b3f4	-0.20674115
48	0x3f006441	0.50152975
49	0xbe500987	-0.20316134
50	0x3e8a3694	0.26994765
51	0x3e477bd1	0.19480826
52	0xbe90e8f0	-0.28302717
53	0xbd8a621b	-0.067569934
54	0x3e0320ef	0.12805532
55	0xbe1c297d	-0.15250202
56	0x3ea4e068	0.32202458
57	0xbe2f979d	-0.1714768
58	0xbe930433	-0.2871414
59	0xbf302d4a	-0.68819106
60	0xbe860bb7	-0.26180813
61	0x3af6ffb1	0.0018844513
62	0xbe799064	-0.24371487
63	0x3e1dea46	0.154214
64	0x3da42caa	0.080163315
65	0xbe509723	-0.20370154
66	0xbe604dba	-0.2190465
67	0x3e83f08e	0.25769466
68	0xbe0d9e15	-0.13829835
69	0xbe54f492	-0.20796421
70	0x3ca99cfb	0.020704737
71	0x3f408bf2	0.7521354
72	0x3f49ef07	0.7888035
73	0xbf20ee09	-0.6286321
74	0x3f0bd42a	0.5462061
75	0xbdc4c41d	-0.09607718
76	0x3ddb84e7	0.107187085
77	0xbeb4fb4b	-0.3534797
78	0xbe863579	-0.2621267
79	0xbe840362	-0.2578383
80	0xbe8475c7	-0.25871107
81	0x3e031e54	0.12804538
82	0xbebaa2ac	-0.36452234
83	0xbe301fc3	-0.17199616
84	0x3f00a53a	0.50252116
85	0xbe98ebc7	-0.29867384
86	0xbe45c47a	-0.19313231
87	0xbc1b0c6a	-0.009463409
88	0xbd87d428	-0.066322625
89	0x3db60999	0.08888549
90	0xbe4b5971	-0.19858338
91	0x3e8b28ea	0.27179652
92	0xbee5146d	-0.44742146
93	0x3e450829	0.19241394
94	0xbe620af4	-0.22074491
95	0x3e201d41	0.1563616
96	0x3e926ff1	0.2860103
97	0x3e7f8772	0.24954012
98	0xbd2c3d77	-0.042050805
99	0xbe34ae82	-0.17644694
100	0x3e236cc0	0.15959454
101	0x3f05a575	0.5220559
102	0xbf919133	-1.1372436
103	0x3f41aaf3	0.7565147
104	0xbf043588	-0.5164418
105	0xbf053ec8	-0.5204892
106	0x3d94cd3c	0.07265708
107	0x3dcd6e3d	0.10030792
108	0x3e7d54a1	0.24739315
109	0xbeec448e	-0.46146053
110	0x3e0d17c8	0.13778603
111	0x3f135535	0.5755189
112	0xbdde47e4	-0.10853556
113	0xbe23cadd	-0.15995355
114	0x3de43426	0.11142759
115	0x3e624ba8	0.22099173
116	0xbc5c937b	-0.013462896
117	0xbe8da30c	-0.27663457
118	0x3de82311	0.113348134
119	0x3f12e3f0	0.57379055
120	0x3db372c7	0.087621264
121	0xbe892bf4	-0.26791346
122	0x3ef347f2	0.47515827
123	0x3ec7f9f0	0.39057875
124	0xbcc37937	-0.02386151
125	0x3ed3eb19	0.41390303
126	0x3ecb66b1	0.39726785
127	0xbde73493	-0.112893246
128	0x3ebf376e	0.37346977
129	0x3f5db8c8	0.8661008
130	0xbd1d641d	-0.038425554
131	0x3cb592e3	0.022164768
132	0xbf5e3962	-0.8680631
133	0xbea56bbc	-0.32308757
134	0x3f4951f5	0.7864068
135	0x3dfd6ae8	0.123739064
136	0x3ec94ab2	0.393148
137	0xbe61003e	-0.21972749
138	0xbe2d4731	-0.16921689
139	0xbf163f21	-0.5869008
140	0xbe976988	-0.295727
141	0x3cc28cab	0.023748716
142	0x3eb19497	0.34683678
143	0xbe61751f	-0.22017334
144	0x3ebdb43b	0.37051567
145	0x3db8bb9a	0.09020157
146	0xbd10dcf5	-0.03536697
147	0x3ea7920e	0.32728618
148	0xbf601cfc	-0.87544227
149	0xbf1eb1d2	-0.6199008
150	0x3f3a65a7	0.7281136
151	0x3de8a5ce	0.1135975
152	0xbeb93168	-0.36170506
153	0xbed1a2d1	-0.40944532
154	0xbc8a36a1	-0.016871752
155	0x3e1afcaf	0.15135454
156	0xbd97337d	-0.073828675
157	0x3e5f5183	0.21808438
158	0xbeee3e7b	-0.46532044
159	0x3d95d3b5	0.073157705
160	0xbd01d3b6	-0.031696044
161	0x3e8e6ced	0.2781748
162	0x3eb8ff16	0.36132115
163	0x3f27f583	0.65608996
164	0xbf897ea0	-1.0741768
165	0x3e467446	0.19380292
166	0xbde11a74	-0.10991374
167	0x3ee53462	0.44766527
168	0xbdcd8f87	-0.10037141
169	0x3e1adc6e	0.1512315
170	0x3ec0bc71	0.3764377
171	0x3f031048	0.5119672
172	0x3ec4fae5	0.38472667
173	0x3e67fbd0	0.22654653
174	0xbe1f766e	-0.15572521
175	0x3e8b912a	0.2725919
176	0xbe917861	-0.28412154
177	0x3f4a680d	0.7906502
178	0xbdcdf949	-0.10057313
179	0xbd83dcb3	-0.064385794
180	0xbd5dbf7d	-0.054137696
181	0x3de911a8	0.11380321
182	0x3cb731fb	0.0223627
183	0xbe7bf637	-0.24605642
184	0x3dc7de9d	0.09759257
185	0x3e4a0ec7	0.197322
186	0x3e65122d	0.22370215
187	0x3e9e4c25	0.3091747
188	0xbf00552c	-0.5012996
189	0x3e2d579f	0.16927956
190	0x3eae8331	0.34084466
191	0xbefd3b72	-0.49459416
192	0x3f03821e	0.5137042
193	0x3fabaa02	1.3411257
194	0x3ea2cfa3	0.3179904
195	0x3e9e618d	0.309338
196	0x3ceb7d79	0.028746353
197	0xbed015a3	-0.40641508
198	0x3e1003f0	0.14064002
199	0xbe5deba4	-0.21671921
200	0x3e7afa26	0.24509487
201	0x3efe745a	0.49698144
202	0xbe9aa2f4	-0.30202448
203	0x3cdff6c2	0.027339343
204	0x3e2213dd	0.1582789
205	0x3ec21b33	0.37911376
206	0xbe3c6836	-0.18399128
207	0xbf2f5e26	-0.68503034
208	0x3f9fff8b	1.249986
209	0xbe02ad7d	-0.12761493
210	0xbdd68d23	-0.104761384
211	0xbe1334d0	-0.14375615
212	0x3ec82c9a	0.39096528
213	0x3f225592	0.6341182
214	0x3f00b328	0.5027337
215	0x3e8a4e33	0.27012786
216	0xbe8e7615	-0.27824464
217	0x3ef829c6	0.4846937
218	0x3d8ee324	0.069769174
219	0xbe664a98	-0.22489393
220	0x3e84c5a3	0.25932035
221	0x3e230d30	0.15923
222	0xbfd1b64e	-1.638376
223	0xbdf708af	-0.12062203
224	0x3f2d879f	0.67785066
225	0x3ca17631	0.019709678
226	0xbdbbe956	-0.09175365
227	0xbe9211a7	-0.28529093
228	0x3f13e292	0.57767594
229	0x3ee6ddbe	0.4509105
230	0xbf1e6ceb	-0.61884946
231	0x3d94e8d4	0.07270971
232	0xbe0ddc96	-0.13853678
233	0x3dc8fd64	0.098139554
234	0x3c5fa8fa	0.013651127
235	0x3d8f52ed	0.06998239
236	0x3eafac99	0.3431137
237	0x3e8057eb	0.25067076
238	0xbf42d5e3	-0.76107615
239	0x3f9a746b	1.2066778
240	0x3e00c276	0.12574181
241	0xbedab084	-0.42712796
242	0xbd02bd33	-0.031918716
243	0x3e68dce8	0.22740519
244	0x3da13841	0.07872058
245	0xbdfda550	-0.123850465
246	0x3d40d8a7	0.047081616
247	0x3e5c473a	0.21511546
248	0x3d4c4d33	0.04987831
249	0x3e1384a1	0.14406063
250	0x3eac7fdc	0.336913
251	0xbe06f64d	-0.13179894
252	0x3f53abdf	0.8268413
253	0xbf3f79e8	-0.7479539
254	0xbf81bf0e	-1.013643
255	0x3ecbbc36	0.3979203

total_net.0.net.0.fc.bias f4 [100]
0	0x3e7ea195	0.24866326
1	0xbe15a37d	-0.14613147
2	0xbd985979	-0.074389406
3	0x3da8a8a8	0.082352936
4	0xbe5c1bd1	-0.21494986
5	0x3e421832	0.18954542
6	0xbe74dfaa	-0.23913446
7	0xbd9c36e2	-0.076276556
8	0xbf0338d5	-0.51258594
9	0xbe1d8e31	-0.15386273
10	0xbe8aff80	-0.27148056
11	0x3e8f8c96	0.28036946
12	0xbe8a0fea	-0.26965266
13	0x3b9d70aa	0.0048046904
14	0xbefde025	-0.4958507
15	0xbead7d2e	-0.33884567
16	0x3ece8dc0	0.40342522
17	0xbdd797c6	-0.10526995
18	0xbd573751	-0.05254299
19	0xbdd746ba	-0.10511537
20	0xbebfe0c1	-0.3747616
21	0x3e4154d7	0.1888002
22	0xbd3e5d11	-0.046475474
23	0xbe9c9a64	-0.3058654
24	0x3df65bb6	0.12029211
25	0xbe2d1d11	-0.16905619
26	0xbec4857a	-0.38383085
27	0xbea08695	-0.31352678
28	0xbedb9d53	-0.42893466
29	0x3dd774c9	0.10520322
30	0xbecbbae5	-0.39791027
31	0x3e156c7a	0.14592162
32	0xbf12929b	-0.5725495
33	0xbd799f6b	-0.06094305
34	0x3d36fca9	0.04467455
35	0x376a4839	1.39643025e-05
36	0xbd8eeea2	-0.06979109
37	0xbe5366b3	-0.20644645
38	0xbe969afa	-0.29415113
39	0x3e39b7d5	0.18136533
40	0xbe11acf7	-0.14226137
41	0xbe2ecbfe	-0.17070004
42	0xbe9af567	-0.30265352
43	0xbe683f47	-0.22680388
44	0xbc37531e	-0.01118925
45	0xbec4f5d6	-0.38468808
46	0x3e1d78d2	0.1537812
47	0xbeafc1b2	-0.34327465
48	0xbe658fbb	-0.2241811
49	0xbde55529	-0.11197884
50	0xbb97f1c5	-0.0046369755
51	0x3eb05c5e	0.3444547
52	0xbef12ff4	-0.47106898
53	0xbe004f92	-0.12530354
54	0xbe779a4e	-0.24179956
55	0xbe20b7ba	-0.15695086
56	0x3cd981ad	0.026551092
57	0x3e8016b5	0.25017324
58	0xbe9e8855	-0.30963388
59	0xbd98e3b1	-0.07465304
60	0xbd3eecad	-0.04661243
61	0xbf15caa4	-0.5851233
62	0xbea18460	-0.31546307
63	0xbe180986	-0.14847383
64	0x3d1cc4ad	0.038273502
65	0xbd96223d	-0.07330749
66	0x39211ffb	0.0001536607
67	0xbd2ec3ff	-0.042667385
68	0xbebc5401	-0.3678284
69	0xbdca7e00	-0.09887314
70	0xbe5db489	-0.216509
71	0xbe8bee6b	-0.27330336
72	0xbeeca940	-0.46222878
73	0xbc29434a	-0.010330984
74	0xbe4adb23	-0.19810157
75	0xbea49552	-0.32145172
76	0xbe3ee7dc	-0.18643135
77	0xbea67d6a	-0.32517558
78	0xbd12a328	-0.03580013
79	0xbed29801	-0.41131595
80	0xbe6d7e8f	-0.2319281
81	0x3c8a8421	0.016908707
82	0x3e4fedf1	0.20305611
83	0x3e59360a	0.2121202
84	0xbdb97d93	-0.090571545
85	0xbeedf141	-0.46473125
86	0x3e7405c9	0.23830332
87	0x3dbd897c	0.09254739
88	0xbe93ba1b	-0.28852925
89	0xbde19930	-0.11015546
90	0xbc9298ad	-0.017895067
91	0xbf02e37f	-0.5112838
92	0xbe93b782	-0.28850943
93	0xbca5a0cc	-0.020218275
94	0xbf0c7e9b	-0.54880685
95	0xbe1714a6	-0.1475397
96	0xbe72f543	-0.23726372
97	0xbef5e5a4	-0.48026764
98	0xbeca94e6	-0.39566725
99	0xbee10821	-0.43951514

total_net.1.net.0.fc.weight f4 [50, 100]
0	0x3d2d48d8	0.042305797
1	0x3e04689a	0.12930527
2	0xbcd73349	-0.026269572
3	0xbdfa5ac5	-0.12224344
4	0xbe01532d	-0.12629385
5	0x3e050a5c	0.12992233
6	0x3d902f21	0.07040239
7	0x3d9f072f	0.07765042
8	0xbd1c528e	-0.038164668
9	0x3d7331f0	0.059373796
10	0xbda51df3	-0.08062353
11	0x3cbef3e5	0.023309657
12	0xbcd128b3	-0.025532102
13	0xbe5c3f23	-0.2150846
14	0xbe0d7de3	-0.13817553
15	0x3e3b86a1	0.18313076
16	0x3cce5c8d	0.025190616
17	0x3d7c3f4c	0.061583802
18	0xbcdba0fa	-0.026810158
19	0xbd9533bc	-0.07285258
20	0x3da63e81	0.081173904
21	0xbde42cdd	-0.111413695
22	0xbe1c9423	-0.15290885
23	0xbe61994a	-0.22031131
24	0xbdfc9f42	-0.123350635
25	0xbe259d2e	-0.1617324
26	0xbe3f17c5	-0.18661411
27	0x3e85d60d	0.2613987
28	0x3dd41880	0.103562355
29	0xbe05cad5	-0.13065656
30	0xbe84dd61	-0.2595015
31	0x3d8fc126	0.07019262
32	0xbe050e79	-0.12993802
33	0x3c982e79	0.018576847
34	0xbea8ce59	-0.3296993
35	0xbdb94895	-0.09047047
36	0x3eb21f4c	0.34789503
37	0xbc653031	-0.0139885405
38	0x3e2d6b94	0.16935569
39	0x3e3bab24	0.18327004
40	0xbddb9b7a	-0.10723014
41	0x3e351964	0.17685467
42	0x3df58935	0.11989061
43	0xb9426ee2	-0.00018542589
44	0xbd29aacc	-0.04142265
45	0xbdbf7d5f	-0.093500845
46	0x3e71fa1e	0.23630568
47	0xbc0fe54f	-0.008782699
48	0xbd292d60	-0.04130304
49	0xbd75ce74	-0.060011342
50	0xbabf919f	-0.0014615542
51	0x3a8cf91a	0.001075539
52	0x3da7794b	0.08177432
53	0xbe103b03	-0.14085011
54	0x3b813b05	0.0039438033
55	0x3dc197f4	0.09452811
56	0xbcfdbc02	-0.030973438
57	0x3de0d037	0.10977214
58	0xbd824f0d	-0.06362734
59	0x3e27be76	0.16381249
60	0xbbd58c30	-0.006516956
61	0xbe51e5da	-0.20497838
62	0xbe36674a	-0.17812839
63	0x3df60d7c	0.12014291
64	0xbe09c5f7	-0.13454424
65	0x3e49aca9	0.19694771
66	0xbd8cce46	-0.06875281
67	0xbda8e218	-0.08246249
68	0x3c1b8a39	0.009493404
69	0x3d9cdb5b	0.07659026
70	0x3a685aed	0.00088636467
71	0x3d3a8097	0.04553279
72	0x3d67880f	0.05652624
73	0x3df5aeda	0.11996241
74	0x3e283b9b	0.16428988
75	0x3d5d8f05	0.054091472
76	0x3e2ba2b6	0.16761288
77	0xbe08dda7	-0.13365804
78	0xbdde4610	-0.10853207
79	0x3c8a60b3	0.016891813
80	0xbe23c9c1	-0.15994932
81	0xbd8ac659	-0.06776113
82	0x3c39e7ea	0.0113467965
83	0xbdda35f4	-0.10654822
84	0xbea9d0c0	-0.33167076
85	0xbd7b8ec0	-0.061415434
86	0xbdf34d2d	-0.118799545
87	0xbd5a3e43	-0.053282034
88	0x3e70c3fd	0.23512264
89	0x3e02ab85	0.12760742
90	0xbe67fab0	-0.22654223
91	0xbe955012	-0.2916265
92	0x3e901f98	0.28149104
93	0xbe0c9adb	-0.13730948
94	0xbd816d80	-0.063197136
95	0x3cd15260	0.025551975
96	0xbc5b9158	-0.013401352
97	0x3cd7bead	0.026336038
98	0xbd699a98	-0.057032198
99	0xbe44a1da	-0.19202366
100	0xbcd7ce4c	-0.026343487
101	0xbddda6a5	-0.108228005
102	0xbef52157	-0.47877
103	0x3cdac218	0.02670388
104	0x3dc09f9d	0.09405444
105	0xbd79f195	-0.061021406
106	0xbd00cfee	-0.031448297
107	0x3e2637df	0.1623225
108	0x3d11f664	0.035635367
109	0xbc468dae	-0.01211874
110	0x3c9cf6cf	0.019160656
111	0xbd6a4c00	-0.057201385
112	0x3d35c57b	0.044377785
113	0xbdf62099	-0.12017936
114	0xbe3dca01	-0.1853409
115	0x3d3f1457	0.046650257
116	0x3d0ef063	0.03489722
117	0xbc6e23fe	-0.014534948
118	0xbe10cbc4	-0.1414023
119	0x3d9f91fa	0.07791515
120	0x3e1589c0	0.14603329
121	0xbe83bd37	-0.25730297
122	0x3e307aac	0.17234296
123	0xbe27bcf7	-0.16380678
124	0xbd944d26	-0.072412774
125	0xbe91b850	-0.28460932
126	0x3d1f7c6f	0.03893703
127	0x3c196d93	0.009364503
128	0xbe8e5268	-0.27797246
129	0xbddd7a13	-0.108142994
130	0x3cd06305	0.025437841
131	0x3d4cfcaf	0.050045665
132	0x3dca7951	0.098864205
133	0xbedad2a6	-0.42738837
134	0xbded75fc	-0.11594769
135	0x3b1e2b0a	0.002413454
136	0xbe6ed3f1	-0.23323037
137	0x3d087471	0.033314172
138	0xbd4e3a59	-0.050348613
139	0xbd9fb69a	-0.077985
140	0x3e2c169b	0.16805498
141	0x3e6c510d	0.23077793
142	0xbdf6482a	-0.12025483
143	0xbe777508	-0.24165738
144	0xbdfbe3f8	-0.12299341
145	0xbccaee5a	-0.024771858
146	0x3d060e69	0.032728586
147	0xbdb230d4	-0.087007195
148	0xbe095599	-0.13411559
149	0x3d9f6597	0.077830486
150	0x3ce57334	0.028009035
151	0x3dca405d	0.098755576
152	0xbe6b7cd6	-0.2299684
153	0xbea48659	-0.3213375
154	0xbddbada2	-0.10726477
155	0xbca16d1b	-0.019705346
156	0xbee569f6	-0.44807404
157	0x3d915726	0.070967
158	0x3e454cdb	0.192676
159	0xbbffc6da	-0.0078056874
160	0x3de93faf	0.113891
161	0x3dea616b	0.11444362
162	0x3de27f9a	0.11059494
163	0x3dc05abc	0.09392306
164	0xbe04d586	-0.12972078
165	0x3d2ce501	0.042210583
166	0x3e148373	0.14503269
167	0x3ea1ef26	0.31627768
168	0xbd472418	-0.048618406
169	0xbe2b0a0f	-0.16703056
170	0xbe3e47a3	-0.18582015
171	0x3c9e7321	0.019342007
172	0xbdc9f061	-0.09860302
173	0xbec2e7c4	-0.38067448
174	0xbe998747	-0.2998602
175	0xbe98e863	-0.29864797
176	0x3e1d7f21	0.15380527
177	0xbe3d7b7e	-0.1850414
178	0xbbfde46e	-0.007748178
179	0xbe030500	-0.12794876
180	0x3e092fdc	0.13397163
181	0x3cc66196	0.024216454
182	0x3e165aaa	0.14683023
183	0xbbf897aa	-0.007586439
184	0xbe0ec496	-0.13942179
185	0xbcfa6ade	-0.030568536
186	0x3dd21b1b	0.10259076
187	0xbd91e318	-0.07123393
188	0xbe724af3	-0.23661403
189	0x3d0d81c4	0.034547582
190	0x3c87a7c4	0.01655949
191	0xbea66f36	-0.32506722
192	0x3b9abb6e	0.0047220504
193	0xbda94801	-0.08265687
194	0x3d082e0f	0.03324705
195	0xbde36fea	-0.1110533
196	0xbdb43091	-0.08798326
197	0xbd9239a1	-0.07139898
198	0x3dfad50c	0.12247667
199	0x3d87212a	0.065981224
200	0x3dec4968	0.11537439
201	0x3d39b0be	0.04533457
202	0xbd146040	-0.036224604
203	0xbeb1f7fc	-0.3475951
204	0xbca7be02	-0.020476345
205	0xbd4c1321	-0.04982293
206	0xbd04dea5	-0.032438893
207	0x3e254c83	0.16142468
208	0x3cc1f222	0.023675028
209	0x3d82ed93	0.0639297
210	0xbe830999	-0.2559326
211	0xbe76e5ad	-0.24111052
212	0x3da9fe37	0.08300441
213	0x3e72e99d	0.23721929
214	0xbd581440	-0.052753687
215	0x3e7183bb	0.23585407
216	0x3d9fcc32	0.07802619
217	0x3d658a3f	0.056040045
218	0xbde92344	-0.113836795
219	0xbe083bb4	-0.13304025
220	0xbd417c68	-0.047237784
221	0x3b3f53e1	0.0029194283
222	0x3e141554	0.14461261
223	0x3d8de0d8	0.06927651
224	0x3b5556aa	0.0032552877
225	0xbc445fe9	-0.011985757
226	0x3c2dd547	0.010609931
227	0xbd0f00e9	-0.034912977
228	0x3dff6285	0.12469963
229	0x3e1cedab	0.15325038
230	0xbe402b51	-0.18766524
231	0x3df0152a	0.11722787
232	0x3e0f6190	0.14002061
233	0x3e6b8526	0.23000011
234	0x3e2ba6d6	0.16762862
235	0xbe3a8216	-0.18213686
236	0xbcd38e98	-0.02582483
237	0xbc875468	-0.01651974
238	0xbdc9181c	-0.098190516
239	0x3df969bd	0.12178371
240	0x3c9c9a36	0.019116502
241	0x3da89e94	0.082333714
242	0xbd9d6c3e	-0.07686661
243	0xbe8021b9	-0.25025728
244	0x3c1029c6	0.008799022
245	0x3daa519f	0.08316349
246	0x3e5b8145	0.21436031
247	0x3e117f1a	0.14208642
248	0x3ddae4c8	0.10688168
249	0xbbb567a4	-0.0055360366
250	0x3e0143f5	0.1262358
251	0xbea955c6	-0.33073252
252	0x3dfc47c9	0.123183794
253	0xbdad0971	-0.084490664
254	0x3db618bd	0.08891437
255	0x3e303b81	0.17210199

total_net.1.net.0.fc.bias f4 [50]
0	0xbd22b458	-0.03972277
1	0xbd5bcd0d	-0.05366235
2	0x3d9d491f	0.07679962
3	0xbdfb1c4b	-0.12261256
4	0xbc953779	-0.018214928
5	0xbd3bd703	-0.045859348
6	0xbe06092b	-0.13089435
7	0xbcc5b474	-0.024133898
8	0x3d91f976	0.07127659
9	0xbda5327e	-0.08066271
10	0xbdc35b53	-0.09538903
11	0x3cddd12d	0.027077282
12	0xbdc82d5e	-0.09774278
13	0x3e1b1deb	0.15148132
14	0x3e1088a3	0.14114623
15	0xbddc096d	-0.10743985
16	0xbd37ae1d	-0.04484378
17	0xbda0a887	-0.07844644
18	0x3cc25e41	0.023726584
19	0x3c8672fa	0.016412247
20	0xbd99e5f0	-0.0751456
21	0xbd239b84	-0.039943233
22	0xbd32dd58	-0.04366812
23	0xbcb7a91a	-0.022419501
24	0xbd50e31b	-0.050997835
25	0xbd125c94	-0.03573282
26	0xbd350221	-0.044191483
27	0xbd67f1a4	-0.05662693
28	0x3d9b1379	0.075720735
29	0xbdb2a5d2	-0.08723034
30	0xbd3487cc	-0.04407482
31	0xbd3b337e	-0.045703404
32	0xbc1c97fe	-0.009557722
33	0x3b94b84a	0.0045385705
34	0x3deffd1b	0.11718198
35	0xbd30a663	-0.04312743
36	0xbd225ee5	-0.03964128
37	0xbc347e1c	-0.011016395
38	0x3d2c534b	0.042071622
39	0x3bacb323	0.005270378
40	0xbd0352f2	-0.032061525
41	0xbd342516	-0.04398068
42	0xbdd8a06b	-0.10577472
43	0x3df785e5	0.12086085
44	0xbd83d037	-0.06436198
45	0x3db0d0a1	0.08633543
46	0xbda34de8	-0.07973844
47	0xbd33084a	-0.043709077
48	0x3d240f11	0.04005343
49	0x3dee83a2	0.11646201

total_net.2.net.0.fc.weight f4 [25, 50]
0	0xbe010330	-0.12598872
1	0x3db1dfcb	0.08685263
2	0x3e7809d8	0.24222505
3	0x3dd4c39c	0.10388872
4	0x3dc68c6c	0.09694752
5	0x3e9d43e4	0.3071586
6	0x3e0a5175	0.13507636
7	0x3cff9a2e	0.031201448
8	0x3dd73da4	0.10509804
9	0xbcec6470	-0.028856486
10	0xbe3942aa	-0.18091837
11	0x3d069110	0.032853186
12	0x3db112be	0.08646153
13	0x3e171884	0.14755446
14	0x3de3273e	0.11091469
15	0x3e8b5be6	0.2721855
16	0xbce5d141	-0.028053882
17	0x3e228612	0.15871456
18	0xbeea01f2	-0.4570461
19	0x3eaf2bd7	0.34213135
20	0xbdb662a1	-0.08905531
21	0x3d0babcd	0.03409939
22	0x3e7ea08e	0.24865934
23	0xbe2e22b9	-0.17005433
24	0xbd93f072	-0.07223596
25	0xbd256a53	-0.0403846
26	0xbe486354	-0.1956914
27	0x3e38768f	0.18013977
28	0x3df56a54	0.11983171
29	0xbce72671	-0.028216572
30	0xbbd7178b	-0.006564086
31	0x3d1a1e2b	0.037626427
32	0x3dbdc106	0.09265332
33	0x3d666100	0.05624485
34	0x3ecc80af	0.39941928
35	0x3e8bea84	0.2732736
36	0x3c8a6f50	0.016898781
37	0x3dbf0296	0.09326665
38	0x3ec6c662	0.3882323
39	0x3eaa3b54	0.3324839
40	0xbda08b95	-0.07839123
41	0xbc78e44d	-0.01519115
42	0xbe33e00a	-0.17565933
43	0xbe2fd512	-0.17171124
44	0x3d9cdd29	0.076593705
45	0x3e7a2803	0.24429326
46	0xbeba6639	-0.36406115
47	0x3e9476e9	0.2899697
48	0xbe11066f	-0.1416261
49	0x3e05d9c4	0.13071352
50	0xbe0aa7a9	-0.1354052
51	0xbdd381f6	-0.103275225
52	0xbdeb16a2	-0.11478926
53	0x3e8464b1	0.2585807
54	0x3cf4ed36	0.029898267
55	0x3e5e9792	0.21737507
56	0xbd529a7d	-0.051416863
57	0x3e8f75d8	0.28019595
58	0xbd902003	-0.07037356
59	0x3daad3b4	0.083411604
60	0x3d8ceb81	0.06880856
61	0xbe09cf1d	-0.13457914
62	0xbd359cd5	-0.04433902
63	0xbe56d247	-0.20978652
64	0x3e82667a	0.25468808
65	0x3e513ae0	0.20432615
66	0xbeae1da2	-0.34006983
67	0x3ca90e45	0.020636687
68	0xbeddd62e	-0.4332747
69	0xbdde049f	-0.10840725
70	0xbe3e377a	-0.1857585
71	0x3e94a59c	0.290326
72	0xbdbf0544	-0.09327176
73	0xbd65190e	-0.055932097
74	0x3e0845f3	0.13307934
75	0xbda138e9	-0.07872183
76	0x3e0bbce0	0.13646269
77	0x3d8b32a1	0.06796766
78	0xbc788b1f	-0.015169888
79	0x3dace76a	0.08442576
80	0x3da5e87d	0.08100984
81	0xbe003728	-0.1252104
82	0xbe8f3212	-0.27967888
83	0x3d0d01ee	0.03442567
84	0xbd96dfbb	-0.07366892
85	0xbb4f211a	-0.0031605423
86	0xbeedd4f9	-0.46451548
87	0xbd8bb437	-0.06821483
88	0x3ea3f5a7	0.32023355
89	0x3dee0065	0.11621169
90	0xbd28450f	-0.041081484
91	0xbde289fa	-0.11061473
92	0x3d60126c	0.05470507
93	0xbd88a593	-0.06672206
94	0xbe194e66	-0.14971313
95	0x3e6fc811	0.23416163
96	0x3d00dfc1	0.03146339
97	0xbe1cb95b	-0.15305082
98	0x3d6397c4	0.055564657
99	0x3d4fc735	0.050727088
100	0x3d8d83ef	0.0690993
101	0x3e94d1ad	0.2906622
102	0xbe49de4e	-0.19713709
103	0x3e28d2ca	0.1648666
104	0xbe1ddaea	-0.1541554
105	0xbe8da917	-0.27668068
106	0x3deda45d	0.116036154
107	0x3de58f4e	0.11208974
108	0xbec623e9	-0.38699272
109	0x3e948216	0.29005498
110	0x3da0b5d3	0.0784718
111	0x3e359fcc	0.17736739
112	0xbd7183e2	-0.058963664
113	0xbe4fe633	-0.20302658
114	0xbd4a816a	-0.049439825
115	0x3e6edbdd	0.23326059
116	0x3e84eb46	0.2596075
117	0xbd1b14f2	-0.037861772
118	0xbe8bfea8	-0.27342725
119	0x3d1cf0a3	0.038315427
120	0x3e1e7715	0.15475114
121	0x3e960e7f	0.29307935
122	0xbdb82a6b	-0.089924656
123	0xbe1079d2	-0.14108971
124	0xbe569895	-0.20956643
125	0x3e2f6101	0.17126848
126	0xbde1cecb	-0.11025771
127	0x3d4ce795	0.05002554
128	0xbea2bfb3	-0.3178688
129	0xbe2cc910	-0.16873574
130	0xbe5ee08b	-0.21765344
131	0xbe9ba41a	-0.30398637
132	0x3d404e14	0.04694946
133	0x3c7a131e	0.015263347
134	0xbe859b46	-0.26095027
135	0xbdfba2c8	-0.122869074
136	0x3c18549d	0.009297517
137	0x3db506c3	0.0883918
138	0x3b8f2632	0.004368567
139	0xbdbfb7db	-0.093612395
140	0x3e9636c5	0.2933866
141	0xbe86dd6a	-0.263408
142	0xbde550a8	-0.111970246
143	0xbe42583a	-0.18978968
144	0xbe0a65eb	-0.13515441
145	0xbd46b560	-0.048512816
146	0xbea51d89	-0.32249096
147	0xbe1233c4	-0.1427756
148	0x3e088e63	0.13335566
149	0xbe2e4c25	-0.17021234
150	0x3ea4bcc7	0.32175276
151	0x3e1ca430	0.15297008
152	0x3dd8d9bf	0.10588407
153	0xbe841716	-0.25798863
154	0x3e27ba9d	0.16379781
155	0xbd6c5966	-0.057702444
156	0x3e461a23	0.19345908
157	0x3b90b7e3	0.0044164523
158	0xbe74bde5	-0.23900564
159	0xbe9a9aa6	-0.30196112
160	0x3de01ee3	0.10943391
161	0x3ebb7325	0.36611286
162	0x3e478acf	0.19486545
163	0xbd115e9e	-0.035490625
164	0xbde60f25	-0.11233357
165	0xbd0ac845	-0.0338824
166	0xbdb93fe1	-0.09045387
167	0xbe6e5c25	-0.23277338
168	0x3dcc489f	0.09974789
169	0x3eb237d4	0.34808218
170	0xbea9ec7a	-0.3318823
171	0xbdfd1789	-0.123580046
172	0xbf63a555	-0.8892415
173	0xbe05e817	-0.13076816
174	0xbe3bd637	-0.18343435
175	0x3e8e0330	0.27736807
176	0x3e0b2a66	0.13590392
177	0xbdc41015	-0.0957338
178	0xbe8f8329	-0.28029755
179	0xbe22a13b	-0.15881817
180	0xbe146432	-0.14491346
181	0xbec21f8d	-0.37914696
182	0x3d1d7449	0.038440976
183	0xbf2407e8	-0.64074564
184	0xbf8feb60	-1.1243706
185	0x3e633fb2	0.22192267
186	0x3e0ded35	0.13860019
187	0xbe95da81	-0.29268268
188	0xbaa8805c	-0.0012855637
189	0xbe0de50a	-0.13856903
190	0xbc98a60c	-0.018633865
191	0xbe7a023a	-0.24414912
192	0xbe44f981	-0.19235803
193	0xbd50c254	-0.050966576
194	0xbf39cc5d	-0.7257746
195	0xbb7824a2	-0.0037863632
196	0x3cd33699	0.02578287
197	0x3e1852ef	0.14875387
198	0xbd429852	-0.047508545
199	0xbdf02f0a	-0.11727722
200	0x3dc37af5	0.095449366
201	0xbe0376bd	-0.12838264
202	0x3e3612a0	0.17780542
203	0xbe15bb2f	-0.14622186
204	0xbe22e554	-0.15907794
205	0x3d35abc3	0.044353258
206	0xbe756235	-0.23963244
207	0x3e067a9c	0.1313271
208	0xbe97a357	-0.29616806
209	0x3dc959a5	0.098315515
210	0x3d17ca12	0.037057944
211	0xbd09bd92	-0.033628054
212	0xbe0c21d4	-0.1368478
213	0xbe8955cf	-0.2682328
214	0xbe17d75b	-0.14828245
215	0xbe64c0bf	-0.22339152
216	0xbe834790	-0.25640535
217	0xbe08e397	-0.13368069
218	0xbed2e9c3	-0.4119397
219	0xbd378ab6	-0.04481002
220	0xbe9ff504	-0.3124162
221	0xbdc3ae84	-0.095547706
222	0x3ee3e758	0.4451244
223	0xbdac07f9	-0.08399958
224	0xbc5a7ef9	-0.013335937
225	0xbdd89498	-0.10575217
226	0x3e772071	0.24133469
227	0xbe140642	-0.14455512
228	0xbdbfa4a9	-0.09357578
229	0x3f160b65	0.58611137
230	0x3e3e3908	0.18576443
231	0xbe4d0eb1	-0.20025136
232	0xbbb7f09f	-0.005613401
233	0xbdb0f904	-0.08641246
234	0xbdb37a97	-0.087636165
235	0x3ec76435	0.3894364
236	0xbe28110c	-0.16412753
237	0x3eaef1ef	0.34168956
238	0x3ea33630	0.3187728
239	0xbe5ca9d0	-0.21549153
240	0x3e5e5317	0.21711384
241	0xbd9132ae	-0.070897445
242	0x3ec4bc98	0.38425136
243	0xbe629d87	-0.22130404
244	0x3c913a70	0.01772806
245	0xbe9c336d	-0.30507985
246	0x3e751186	0.23932466
247	0xbcc8f8dd	-0.02453273
248	0xbe2c04fa	-0.16798773
249	0xbe53d2a9	-0.20685829
250	0x3e76f203	0.24115758
251	0xbd89ce0a	-0.06728752
252	0xbe5044bb	-0.20338719
253	0xbe428fb4	-0.19000131
254	0x3d1d4064	0.038391486
255	0xbd0a0b35	-0.033702094

total_net.2.net.0.fc.bias f4 [25]
0	0x3c962301	0.018327238
1	0xbdd8bc77	-0.10582822
2	0xbe1c783e	-0.15280244
3	0xbcc43860	-0.023952663
4	0xbd9d2b7a	-0.07674308
5	0xbde666ca	-0.11250074
6	0xbddc03e1	-0.10742927
7	0xbe220886	-0.15823564
8	0x3c923d9d	0.017851645
9	0x3dd52760	0.10407901
10	0x3bca6ac8	0.00617728
11	0xbe37d9a3	-0.17954116
12	0xba54adcb	-0.00081130554
13	0xbdd52da9	-0.104090996
14	0xbd08596f	-0.033288416
15	0xbe68ed59	-0.22746791
16	0xbe20a705	-0.15688713
17	0xbe4512d3	-0.19245462
18	0xbda2e2c2	-0.07953407
19	0xbe2b07d5	-0.16702206
20	0xbe1583f3	-0.14601116
21	0xbd1dd3ef	-0.038532194
22	0xbdab4e14	-0.083645016
23	0xbe1146ed	-0.14187212
24	0xbb6ebabf	-0.0036427227

total_net.3.weight f4 [3, 25]
0	0xbd591a4d	-0.053003598
1	0x3e6c8ced	0.23100634
2	0x3ec3a49e	0.3821153
3	0x3cfd74ba	0.030939449
4	0x3db945f0	0.09046543
5	0xbe87b2f4	-0.26503718
6	0xbdcecbe4	-0.10097483
7	0x3d804757	0.06263607
8	0xbcf0defa	-0.029403199
9	0xbd6d8a5c	-0.057993278
10	0xbb9755c2	-0.0046183774
11	0x3ea3bd4f	0.31980368
12	0xbd2125a0	-0.039342523
13	0xbe5b7302	-0.21430591
14	0xbdba6448	-0.091011584
15	0xbcb48af1	-0.022038909
16	0xbcdbadb2	-0.026816223
17	0x3e46e03f	0.1942148
18	0xbee785b9	-0.4521921
19	0x3ce12b9a	0.027486611
20	0x3cad7b13	0.02117685
21	0x3e09e701	0.13467027
22	0xbdad5b80	-0.08464718
23	0xbe8f901d	-0.28039637
24	0x3df1aa0f	0.11800014
25	0xbd18598a	-0.037194766
26	0x3d225e44	0.03964068
27	0x3db9511f	0.09048676
28	0xbb116400	-0.0022184849
29	0xbeb809d4	-0.35944998
30	0xbd82aaee	-0.063802585
31	0xbeffc145	-0.4995214
32	0x3dc1092c	0.094255775
33	0xbd57625e	-0.052584045
34	0xbdab9d82	-0.083796516
35	0xbbf48316	-0.0074619157
36	0xbe202f21	-0.15642978
37	0xbd2f186e	-0.042747907
38	0x3eb69cd2	0.3566652
39	0xbdbb82fa	-0.09155841
40	0x3dee29f2	0.11629094
41	0xbd2f4a53	-0.04279549
42	0xbdedca11	-0.11610807
43	0xbe56316a	-0.20917287
44	0xbd181f11	-0.037139002
45	0x3d3ead50	0.046552002
46	0xbe023184	-0.12714201
47	0xbe32e246	-0.17469129
48	0x3e95aa38	0.2923143
49	0x3e0fb92a	0.14035478
50	0xbd035f4c	-0.032073304
51	0xbe67df01	-0.22643663
52	0xbe9fa5fb	-0.3118132
53	0x3c9275f2	0.017878506
54	0xbf1def2e	-0.61693084
55	0x3e639211	0.22223689
56	0xbcd65fe8	-0.026168779
57	0xbec6eb93	-0.38851604
58	0xbd2df8b9	-0.04247353
59	0xbd403855	-0.046928722
60	0xbd1ce92b	-0.038308304
61	0x3e92e98b	0.28693804
62	0xbce6ff60	-0.028197944
63	0x3c7396ce	0.014867498
64	0xbde43212	-0.11142363
65	0xbd6b6579	-0.05746982
66	0xbe5eb884	-0.21750075
67	0xbd875dc8	-0.06609684
68	0x3e120593	0.14259939
69	0xbe98e32c	-0.29860818
70	0xbd5425b9	-0.051793788
71	0x3df51604	0.1196709
72	0xbea7ada9	-0.3274968
73	0x3e802cf7	0.25034305
74	0x3e065603	0.13118748

total_net.3.bias f4 [3]
0	0x3c82e33a	0.01597749
1	0x3bce0faa	0.0062884884
2	0x36c379eb	5.825646e-06
