Modeling eMNS/checkpoint.pt (torch, 35620 bytes, 8 tensors)

total_net.0.net.0.fc.weight f4 [100, 15]
0	0xbde82174	-0.11334506
1	0x3ec6f44d	0.38858262
2	0xbf24a311	-0.6431132
3	0xbe934aae	-0.28767914
4	0xbf1e5bf3	-0.61859053
5	0xbd8b1834	-0.06791726
6	0x3d40aee4	0.04704179
7	0x3e90b841	0.28265575
8	0x3ec36f11	0.38170674
9	0x3eb10394	0.34573042
10	0x3f188acb	0.5958678
11	0xbef64245	-0.48097435
12	0xbe159bc0	-0.14610195
13	0x3dd228eb	0.10261711
14	0x3f93192d	1.1492058
15	0x3be473c3	0.0069718077
16	0x3c350f29	0.011050978
17	0xbed6e3cc	-0.4197067
18	0x3ddebd52	0.10875954
19	0x3d8bab42	0.06819774
20	0xbe382068	-0.17981112
21	0xbf0472e9	-0.5173784
22	0x3f341bb2	0.7035476
23	0xbf1c6cc6	-0.61103475
24	0xbd7678c5	-0.06017377
25	0x3e3f20c0	0.18664837
26	0x3db3d8e7	0.08781605
27	0xbd885ded	-0.0665854
28	0xbe809c9c	-0.25119483
29	0xbd7c4092	-0.061585017
30	0xbdde8aab	-0.108662926
31	0x3f01e8c2	0.50745785
32	0x3dc39695	0.095502056
33	0xbe85ecd6	-0.26157254
34	0xbed89dd4	-0.42307913
35	0x3f50b7c6	0.81530416
36	0xbd98463d	-0.07435272
37	0x3e11bf41	0.14233114
38	0xbe25bec5	-0.16186054
39	0x3e868c3b	0.26278862
40	0xbf6a0864	-0.91419053
41	0x3e8718c4	0.26386082
42	0xbe9df64f	-0.3085198
43	0x3f064e5f	0.52463335
44	0xbe8921e0	-0.26783657
45	0x3e95f733	0.2929016
46	0x3de84b0f	0.11342441
47	0xbe5b0149	-0.21387209
48	0xbcf8befd	-0.030364508
49	0xbdc663c4	-0.096869975
50	0xbe65cbdc	-0.22441047
51	0x3f0eb75b	0.5574853
52	0x3dec22d0	0.115300775
53	0x3e7688d3	0.24075632
54	0xbe842c34	-0.25814974
55	0xbed74954	-0.42048132
56	0x3e9f719c	0.31141365
57	0xbdcd9fe4	-0.10040262
58	0xbf13663b	-0.57577866
59	0x3ec19e3b	0.37816033
60	0x3e701917	0.23447071
61	0x3f1175c9	0.5682035
62	0x3dac5d88	0.08416277
63	0xbe1cb946	-0.15305051
64	0x3e7ac575	0.24489386
65	0xbe25aad9	-0.16178454
66	0x3f0bcca3	0.54609126
67	0x3edd3fd2	0.43212754
68	0xbf0b0bf4	-0.54315114
69	0xbdd44f46	-0.10366683
70	0x3eb24e1f	0.34825227
71	0x3eb37c57	0.350558
72	0x3e744864	0.2385574
73	0xbebff52a	-0.37491733
74	0x3e6083b1	0.21925236
75	0x3cc5a86f	0.024128167
76	0xbe620076	-0.22070488
77	0xbe9f2f4a	-0.31090766
78	0x3ec48f11	0.383904
79	0x3eeb0c5c	0.45907867
80	0xbe5a2c74	-0.2130602
81	0x3f180d25	0.59395057
82	0xbe97c93e	-0.29645723
83	0x3f105d83	0.5639269
84	0xbf2cd99d	-0.6751955
85	0x3f2f2c78	0.6842723
86	0x3ee77e85	0.45213714
87	0x3ede3795	0.4340178
88	0x3caf686c	0.021412097
89	0x3d740ce4	0.059582606
90	0x3f1c2238	0.60989714
91	0xbe50346f	-0.20332502
92	0xbd118a28	-0.035532147
93	0x3ecf250b	0.4045795
94	0x3ea516ab	0.32243857
95	0xbed583ab	-0.41702017
96	0xbe34869d	-0.17629476
97	0x3f72ed8f	0.94893736
98	0xbdfebb7a	-0.12438102
99	0x3e0ccf4c	0.13750952
100	0x3ecaf997	0.39643547
101	0xbf11e532	-0.5699035
102	0xbe91dbd1	-0.2848802
103	0xbe4608f5	-0.19339354
104	0xbe1840fb	-0.14868538
105	0xbea8510c	-0.32874334
106	0xbe5a3515	-0.21309312
107	0xbee342ce	-0.44386905
108	0x3ec759a4	0.38935578
109	0xbed3096e	-0.41218132
110	0x3ea31610	0.3185277
111	0x3e55ce5d	0.20879503
112	0xbc51dedb	-0.012809481
113	0xbdf4b4d1	-0.119485505
114	0x3edd123b	0.4317797
115	0x3ca5baa8	0.020230606
116	0x3f0c2a39	0.54751927
117	0xbe9ff06f	-0.31238124
118	0x3d4ddfab	0.050262135
119	0x3d245c8d	0.040127326
120	0x3e976634	0.29570162
121	0xbe3b95ab	-0.18318813
122	0xbea03a5b	-0.31294522
123	0xbe53b68b	-0.20675103
124	0x3d6fbfa3	0.05853237
125	0x3ed75ee9	0.42064598
126	0x3eed6d78	0.4637258
127	0xbea7b671	-0.3275638
128	0x3ee3d65b	0.44499478
129	0xbed699c7	-0.41914198
130	0xbea65389	-0.32485607
131	0x3eb7b0ee	0.35877174
132	0x3ed359b0	0.41279364
133	0xbd5ef5d0	-0.054433644
134	0x3e0a4d57	0.13506065
135	0x3c8c2163	0.017105764
136	0xbe64a884	-0.22329909
137	0xbea001bb	-0.3125132
138	0xbf2bb266	-0.6706909
139	0x3f2ecbc2	0.6827966
140	0xbeab4504	-0.33451092
141	0xbd3b2d21	-0.045697335
142	0x3d76ba33	0.060236167
143	0xbda483fd	-0.08032987
144	0x3efeb4c1	0.4974728
145	0x3f159a5a	0.58438647
146	0x3f10b55c	0.5652673
147	0x3ec6e389	0.3884547
148	0x3d4d74f3	0.05016036
149	0x3f27fefb	0.65623444
150	0xbf050677	-0.5196299
151	0x3e01a1cf	0.12659381
152	0xbde42d8e	-0.11141501
153	0x3d9f3de3	0.07775476
154	0x3e01f7d7	0.126922
155	0x3e9894c7	0.29801008
156	0xbe3fe44e	-0.18739435
157	0x3e8ff55d	0.28116885
158	0x3eb68645	0.35649315
159	0xbed08076	-0.40723008
160	0xbc6b3fbb	-0.014358456
161	0xbde6dcd7	-0.112725906
162	0xbf1572b4	-0.5837815
163	0x3c929250	0.017892033
164	0x3e2440d7	0.1604036
165	0xbd09119b	-0.033464056
166	0xbeffac3b	-0.4993609
167	0x3d2ca98f	0.04215389
168	0x3ebe49ae	0.37165588
169	0x3eed03db	0.46292004
170	0x3e515bc0	0.20445156
171	0xbde530bd	-0.11190937
172	0x3ebef62e	0.37297195
173	0x3e2182a7	0.15772496
174	0x3f022ad7	0.5084662
175	0x3d504cbc	0.05085443
176	0x3bf71124	0.007539885
177	0x3d269838	0.04067251
178	0xbc5c1dc2	-0.013434829
179	0xbf29ab63	-0.6627714
180	0xbeb36b89	-0.3504298
181	0x3f17ccd4	0.5929692
182	0x3f0a0265	0.53909904
183	0xbe1a6748	-0.15078461
184	0x3c2f2679	0.010690325
185	0x3e14ae8f	0.14519714
186	0x3e56a931	0.20962979
187	0x3f34f7d0	0.7069063
188	0x3d87c747	0.06629806
189	0x3e1a005c	0.150392
190	0x3dc4cc4c	0.09609279
191	0x3dfada43	0.12248661
192	0xbebdc772	-0.37066227
193	0xbc9a2c78	-0.018820032
194	0xbe788422	-0.24269155
195	0x3f110788	0.56652117
196	0xbeee10fd	-0.46497336
197	0x3f1a57f1	0.6029044
198	0xbdfb9a9d	-0.122853495
199	0xbf48bda3	-0.7841436
200	0x3e96966e	0.29411644
201	0xbf35198d	-0.7074211
202	0xbda0e4ae	-0.07856117
203	0xbea64880	-0.32477188
204	0x3e57288f	0.21011566
205	0x3ed5ef6b	0.41784224
206	0xbec83eb0	-0.39110327
207	0xbe961236	-0.2931077
208	0x3eeecb34	0.46639407
209	0x3bb4c6f9	0.0055168835
210	0x3e66589b	0.22494738
211	0x3ec37690	0.38176394
212	0xbea87647	-0.32902738
213	0xbe32136c	-0.17390221
214	0x3f1023d2	0.5630466
215	0x3d8a92c8	0.067662776
216	0x3ea8ab0e	0.32943004
217	0xbd3a7be1	-0.045528296
218	0xbef91c05	-0.4865419
219	0x3e858d88	0.26084542
220	0x3f041936	0.5160097
221	0x3e9c4f7b	0.3052939
222	0xbe0db216	-0.13837466
223	0x3ea19819	0.31561354
224	0xbe0c2cb9	-0.13688935
225	0x3d994886	0.07484536
226	0x3e8acffe	0.2711181
227	0xbe29cc8e	-0.16581938
228	0xbdb36694	-0.087597996
229	0xbe10503c	-0.14093107
230	0x3d0b98d1	0.034081284
231	0xbe1c28b9	-0.1524991
232	0x3f2d4f8d	0.6769951
233	0xbd66d8a8	-0.056358963
234	0x3e6dc938	0.2322129
235	0x3ddeba3e	0.10875367
236	0x3e984023	0.29736432
237	0x3d589055	0.05287202
238	0x3e91690d	0.2840046
239	0xbf02a59d	-0.51033956
240	0xbe96a077	-0.294193
241	0x3e8b4e88	0.27208352
242	0x3eec55db	0.46159253
243	0x3e0ec101	0.13940813
244	0xbe4352f2	-0.1907461
245	0xbebc8ca9	-0.36826065
246	0xbe3ccf17	-0.18438374
247	0x3d31f8ea	0.043450274
248	0x3ef8ca1b	0.48591694
249	0x3e22d95f	0.15903233
250	0x3df4e235	0.11957208
251	0xbc2544ac	-0.010087173
252	0x3d151cc6	0.036404394
253	0xbe53c405	-0.20680244
254	0x3f09b881	0.53797156
255	0x3e92fdfc	0.287094

total_net.0.net.0.fc.bias f4 [100]
0	0xbce916f1	-0.028453322
1	0xbb873f7d	-0.0041274414
2	0xbbbd6b87	-0.0057806405
3	0x3c8ab120	0.016930163
4	0x3d0d31d9	0.034471367
5	0xbc8edb68	-0.017438605
6	0x3ca2e536	0.019884687
7	0x3ba5e614	0.005062828
8	0x3d2c4065	0.0420536
9	0xbc84c4c1	-0.0162071
10	0x3ca3e67d	0.020007366
11	0xbcf266e8	-0.029590085
12	0x3c9018ed	0.01759001
13	0x3913d4b8	0.00014098256
14	0xbc8b86a0	-0.017031968
15	0x3c68438d	0.014176262
16	0xbd1115f7	-0.035421338
17	0xbd126f46	-0.03575065
18	0x3c8d82e9	0.017274337
19	0x3d0b20fb	0.033967
20	0xbd173918	-0.036919683
21	0xbc76682b	-0.015039484
22	0x3d3b5df3	0.045743894
23	0x39ca0cf3	0.0003853809
24	0xbc9c4755	-0.019076983
25	0xbcab1c19	-0.020887421
26	0xbc55d459	-0.013051116
27	0xbc93bad4	-0.018033423
28	0x3ca30e70	0.019904345
29	0xbd365877	-0.04451796
30	0x3d4bea45	0.049783964
31	0x3c6a384b	0.014295648
32	0xbc400b8c	-0.011721503
33	0xbca4ecce	-0.020132449
34	0xbcf1ce11	-0.029517205
35	0x39070ecf	0.0001288012
36	0xb90b5db5	-0.00013290982
37	0xbd0e1883	-0.034691345
38	0xbc979421	-0.01850325
39	0x3b828322	0.0039829174
40	0xbbe8fb1f	-0.007110014
41	0x3d366900	0.04453373
42	0x3cd4fc8d	0.025999332
43	0xbc0c821d	-0.008575943
44	0x3c5c79bf	0.013456761
45	0xbcb73c8f	-0.022367744
46	0xba960591	-0.0011445751
47	0xbb6a3e91	-0.003574286
48	0x3cb42f2f	0.021995155
49	0x3cb6cab4	0.022313453
50	0xbc1e8f5c	-0.009677734
51	0x39252387	0.00015748861
52	0x3c8fd16f	0.01755592
53	0x3be2408a	0.0069046663
54	0xbcb45abd	-0.022015924
55	0x3ca54525	0.020174572
56	0x3c54fb8b	0.012999426
57	0x3c9f2e7e	0.019431349
58	0xbc880f92	-0.016608987
59	0x3c14a11d	0.0090716155
60	0x3cd7bdd2	0.02633563
61	0xbc948029	-0.018127518
62	0xbd2e115e	-0.04249703
63	0x3cc55eea	0.02409311
64	0xbcccf185	-0.02501751
65	0xbcb6707b	-0.022270432
66	0x3ce089e8	0.027409509
67	0xbd08a442	-0.033359773
68	0xbcd4f1f5	-0.02599428
69	0xbcef4119	-0.029205846
70	0x3b282106	0.002565445
71	0xbc2c82d1	-0.010529236
72	0xbc97a1c5	-0.018509755
73	0x3d11c5c3	0.03558899
74	0xbca9dfff	-0.020736692
75	0x3bc82338	0.006107714
76	0x3c8c0715	0.01709322
77	0x3cb00d32	0.021490667
78	0x3c95db1c	0.018292956
79	0xbca9bca0	-0.020719826
80	0xbc21884b	-0.009859155
81	0x3cc4d9ea	0.02402969
82	0xbc562b28	-0.013071813
83	0xbcfa0797	-0.030521197
84	0xbacc0874	-0.0015566484
85	0xbc4fde69	-0.012687304
86	0xbccc60f0	-0.024948567
87	0xbc9dfa63	-0.019284433
88	0xbcf6a658	-0.030108616
89	0x3c8d4ddf	0.017249046
90	0xbb5d0421	-0.0033724385
91	0xbc86b3f5	-0.016443232
92	0x3cdb0cb6	0.02673946
93	0x3d354ba9	0.04426161
94	0xbc839cf2	-0.016066048
95	0xbc07e9b9	-0.00829547
96	0x3bdb57bf	0.0066938098
97	0x3cd0b55f	0.02547711
98	0xbc9ef1a6	-0.019402336
99	0x3cdf2bbf	0.02724254

total_net.1.net.0.fc.weight f4 [50, 100]
0	0xbe8d8d2d	-0.2764677
1	0xbdb99944	-0.09062436
2	0xbd26d644	-0.040731683
3	0x3dd0d9e0	0.10197806
4	0x3dcb060e	0.09913264
5	0x3e049f48	0.12951386
6	0x3e986874	0.2976719
7	0x3c622a80	0.013804078
8	0x3e6742f6	0.22584137
9	0x3c9f3f54	0.019439377
10	0x3cdb9dd8	0.026808664
11	0xbe7cb879	-0.24679746
12	0x3e70cecc	0.23516387
13	0x3e5f45fb	0.21804039
14	0xbdf15c06	-0.1178513
15	0x3dff7be1	0.124748
16	0xbd90d9b4	-0.070727736
17	0xbde0bc07	-0.10973363
18	0x3e830958	0.25593066
19	0x3e82f374	0.25576365
20	0x3e2deeea	0.1698567
21	0x3d9dacb6	0.076989576
22	0x3df5f02a	0.12008698
23	0xbddf087c	-0.1089029
24	0x3d83b6cd	0.06431351
25	0xbdf131fb	-0.11777111
26	0xbe6d3d61	-0.23167945
27	0x3d9e1598	0.077189624
28	0x3e47dff9	0.19519033
29	0x3e34a80a	0.17642227
30	0x3d64edcf	0.055890854
31	0xbc68639d	-0.014183906
32	0xbd8f0114	-0.069826275
33	0xbd5c38d9	-0.05376515
34	0xbd745900	-0.05965519
35	0xbd9b4eef	-0.07583415
36	0x3e0016e1	0.12508728
37	0xbd0bff8a	-0.034179248
38	0xbd224448	-0.0396159
39	0x3ec3a43c	0.38211238
40	0xbdc02b71	-0.09383286
41	0x3de1be3f	0.11022615
42	0x3d5608a2	0.052254327
43	0x3c8ec939	0.017429935
44	0x3da08b94	0.078391224
45	0xbe9b467f	-0.30327222
46	0x3e15fa76	0.14646325
47	0xbe593a6e	-0.21213695
48	0xbd6f5da5	-0.058438916
49	0x3d1421fc	0.036165223
50	0xbe614fd0	-0.22003102
51	0x3e2f7fb7	0.17138563
52	0x3dd12916	0.10212915
53	0x3e7be2ca	0.24598232
54	0x3dab2506	0.08356671
55	0x3d6fbfc3	0.058532488
56	0xbd0b2228	-0.03396812
57	0x3d99db04	0.07512477
58	0x3e8f1bad	0.27950802
59	0x3d99c97f	0.075091355
60	0x3e9ce3df	0.30642602
61	0x3ea23d2f	0.31687304
62	0x3e442768	0.19155657
63	0x3d0452c7	0.032305505
64	0xbc53e4d2	-0.012932973
65	0xbe76d3d2	-0.2410424
66	0x3e62eee4	0.22161442
67	0x3d073086	0.03300526
68	0x3e3f6a81	0.18692972
69	0xbe924c6d	-0.28573933
70	0x3e9d337d	0.30703345
71	0x3e3a6961	0.18204261
72	0x3e6485f5	0.22316726
73	0x3d9a030a	0.07520111
74	0xbe4c6138	-0.19958961
75	0x3d5e72fc	0.054308876
76	0xbd2878d0	-0.04113084
77	0x3cde952c	0.02717074
78	0x3db4b79f	0.088240854
79	0x3d5771b5	0.052598674
80	0x3d8b0f31	0.06790007
81	0x3e956e9f	0.2918596
82	0x3d10d173	0.035355996
83	0xbe6d0112	-0.2314494
84	0x3eace894	0.33771193
85	0x3e137e1e	0.14403579
86	0x3d43d639	0.04781172
87	0x3da3526c	0.07974705
88	0xbde722f6	-0.11285965
89	0x3c910c8e	0.017706182
90	0x3b9cb956	0.004782836
91	0x3d7ab2b1	0.06120557
92	0xbd1f77ca	-0.0389326
93	0x3e90205b	0.28149685
94	0xbe855863	-0.26043996
95	0xbcbab8ad	-0.022793138
96	0xbd20ac27	-0.039226677
97	0x3dcba107	0.09942823
98	0x3dacb7e3	0.08433511
99	0x3dd3458a	0.10315998
100	0xbb15717e	-0.0022803242
101	0xbdfaf700	-0.12254143
102	0x3ca440a3	0.020050352
103	0xbef447df	-0.47711083
104	0xbdd8872a	-0.105726555
105	0x3d902274	0.070378214
106	0x3d1e90c5	0.03871228
107	0xbd357f58	-0.044310898
108	0xbe10908d	-0.14117642
109	0x3e3c14df	0.18367337
110	0xbe296cb2	-0.1654537
111	0xbe055f46	-0.13024625
112	0xbd2f3a2c	-0.042780086
113	0xbe8a902c	-0.2706312
114	0xbc202282	-0.009773852
115	0xbdb16614	-0.08662048
116	0xbcc9614c	-0.024582528
117	0xbd91656c	-0.07099423
118	0xbdb854a9	-0.09000523
119	0xbd21e375	-0.03952356
120	0x3da276e9	0.079328366
121	0xbcb83549	-0.022486346
122	0x3db0fc34	0.08641854
123	0x3e6bc790	0.23025346
124	0x3c9de083	0.019272095
125	0xbe9a2f64	-0.3011428
126	0xbe301167	-0.17194138
127	0x3c975f61	0.018478097
128	0x3e4dff3f	0.201169
129	0x3ead717c	0.33875644
130	0x3d9e3800	0.07725525
131	0x3e260b33	0.1621521
132	0xbd55e1d7	-0.05221733
133	0x3e10f9ce	0.14157793
134	0xbe0ad19c	-0.13556522
135	0xbddb8eaa	-0.107205704
136	0x3dbaabe3	0.09114816
137	0x3c23aa76	0.0099893715
138	0x3dc6e7f4	0.0971221
139	0x3daef91b	0.08543607
140	0x3c9a3960	0.018826187
141	0xbe1899a1	-0.14902355
142	0x3dad1af8	0.084524095
143	0xbc8e9dfb	-0.017409315
144	0xbd9d62a3	-0.07684829
145	0xbdc362c8	-0.095403254
146	0x3b38889a	0.0028157593
147	0xbdf36145	-0.11883787
148	0xbc7d1e38	-0.015449099
149	0x3ccbe76f	0.02489063
150	0xbd6e481d	-0.05817424
151	0x3d0a5f1d	0.033782113
152	0x3e9db747	0.30803892
153	0x3e10f292	0.14155033
154	0xbe5c919a	-0.21539918
155	0x3e203341	0.15644552
156	0x3d9e77f2	0.077377215
157	0x3dff0ac2	0.12453224
158	0xbd382403	-0.04495622
159	0x3e1891d0	0.14899373
160	0xbe466c2b	-0.193772
161	0x3e0a686f	0.13516401
162	0xbd204fa9	-0.03913847
163	0xbd4ed708	-0.05049804
164	0x3d7a65ec	0.061132357
165	0x3df46ec8	0.11935192
166	0x3e905205	0.28187576
167	0x3e1de7a0	0.15420389
168	0xbddee977	-0.10884374
169	0xbd409e17	-0.047025766
170	0x3c7adba3	0.015311155
171	0x3e965382	0.29360586
172	0x3d22af61	0.039718036
173	0xbceda35e	-0.029008564
174	0x3d4611e2	0.048356898
175	0xbea5cbcc	-0.32382047
176	0xbea26e78	-0.31724906
177	0xbe180497	-0.14845501
178	0xbe227494	-0.15864784
179	0x3cf9f0fe	0.030510422
180	0xbe01cc97	-0.12675701
181	0x3ca0cfda	0.019630361
182	0x3e3962b2	0.18104056
183	0x3e895300	0.26821136
184	0xbeb5ac3b	-0.35482964
185	0x3d1ef830	0.03881091
186	0xbe2280df	-0.15869473
187	0x3d34d0dd	0.0441445
188	0xbe216c62	-0.15764001
189	0x3e3c6f97	0.18401943
190	0xbe2ebcd7	-0.17064224
191	0x3e09b948	0.13449585
192	0xbe013e09	-0.12621321
193	0x3d92eed6	0.071744606
194	0x3d234e1d	0.039869417
195	0x3c7f41c5	0.0155796455
196	0x3e210c6a	0.15727392
197	0x3da6232d	0.08112178
198	0x3c8333e3	0.016015952
199	0x3d1d9b34	0.03847809
200	0x3dad1b4c	0.08452472
201	0x3d8ec0f2	0.06970395
202	0x3d39afde	0.045333736
203	0x3d5da040	0.054107904
204	0x3e41624d	0.18885155
205	0x3ba97322	0.0051711956
206	0xbe08e47a	-0.13368407
207	0x3caa7c7e	0.020811316
208	0x3c3d475b	0.011552657
209	0xbabb0aa6	-0.0014270141
210	0x3e3e8593	0.18605642
211	0x3df54b34	0.119772345
212	0x3cdb1d61	0.026747407
213	0x3dc82829	0.09773285
214	0x3b4f6b14	0.0031649517
215	0x3cc4ab8e	0.024007585
216	0x3d7a17f7	0.06105801
217	0x3ea06137	0.3132417
218	0x3cf999dd	0.030468876
219	0x3e1862b7	0.14881407
220	0xbe921f39	-0.28539446
221	0x3d905dc7	0.070491366
222	0x3d8b6d87	0.06808
223	0xbc244fe5	-0.010028814
224	0x3e26a387	0.16273318
225	0x3ccfdcc2	0.02537382
226	0x3e666ba6	0.22502002
227	0x3c5243d6	0.012833556
228	0x3e100217	0.14063297
229	0xbd99743c	-0.07492873
230	0x3ddaf933	0.10692062
231	0x3e0f346c	0.13984841
232	0xbd597a0f	-0.05309492
233	0xbe175b19	-0.14780845
234	0x3e0b2167	0.1358696
235	0x3ecbe70a	0.39824706
236	0xbe53f84e	-0.2070019
237	0x3dcefcf8	0.10106844
238	0x3db1e7c6	0.086867854
239	0xbd2626d8	-0.040564388
240	0x3e91c12b	0.28467688
241	0xbcd4528b	-0.025918266
242	0x3d704824	0.05866255
243	0x3da90add	0.08254025
244	0x3dd8dbef	0.10588824
245	0x3df0da8d	0.11760435
246	0x3e07df24	0.13268715
247	0xbd95f54a	-0.07322176
248	0xbc396998	-0.011316679
249	0x3c9aa501	0.018877508
250	0xbe640a9f	-0.22269677
251	0x3da5228c	0.0806323
252	0x3dd055d6	0.10172622
253	0xbd242739	-0.04007647
254	0xbe16cd75	-0.14726813
255	0xbc8cb2ec	-0.01717516

total_net.1.net.0.fc.bias f4 [50]
0	0x3cf1892e	0.029484358
1	0xbaa16d15	-0.0012315834
2	0x3d95cd2c	0.07314524
3	0x3aa02033	0.0012216627
4	0x3d0eb632	0.034841724
5	0xb9a519fd	-0.00031490615
6	0xbc6492cb	-0.013951014
7	0xbc3fc69d	-0.011705068
8	0xbc373ef6	-0.011184445
9	0xbc0a54e6	-0.008443093
10	0xbcff7d4f	-0.031187681
11	0x39d7fe75	0.0004119758
12	0xbc465557	-0.012105308
13	0xbcd85ed1	-0.0264124
14	0xbca69b3a	-0.02033769
15	0xbcbebb0f	-0.023282556
16	0xbcba6188	-0.022751585
17	0x3c8fdfcc	0.01756277
18	0x3d46edd6	0.04856666
19	0xbc6f3d64	-0.014602039
20	0xbcb38983	-0.021916157
21	0xbcea33e0	-0.028589189
22	0x3d0d2c7d	0.034466255
23	0x3b2e91d5	0.0026637216
24	0xbc897511	-0.016779454
25	0x3c70d1d5	0.014698465
26	0xbce1271a	-0.027484465
27	0xbaccdb58	-0.0015629334
28	0x3d74711b	0.05967818
29	0xbc88d8ed	-0.016705
30	0x3c554735	0.013017465
31	0xbc2a96f9	-0.010411971
32	0x3c07daad	0.008291882
33	0xbc0c96ba	-0.008580858
34	0xbc529ad7	-0.0128542995
35	0xbcf0aacb	-0.029378315
36	0xbc8a5104	-0.016884334
37	0xbbc8b306	-0.006124857
38	0xbbcb6891	-0.0062075336
39	0x3c0f45bd	0.008744654
40	0xbc91ce6d	-0.017798627
41	0x3b35c53b	0.0027735967
42	0xbca5e411	-0.020250352
43	0xbc53859a	-0.012910271
44	0xbcb5f953	-0.022213614
45	0xbce3c0ec	-0.027801953
46	0x3c90dafb	0.017682543
47	0xbc961312	-0.01831964
48	0x3d41d346	0.047320627
49	0x3ab343df	0.0013676843

total_net.2.net.0.fc.weight f4 [25, 50]
0	0x3cae3064	0.021263309
1	0x3ef352c9	0.47524098
2	0xbbc04e55	-0.005868713
3	0xbe1575de	-0.14595744
4	0xbed98d1b	-0.42490467
5	0x3b983c81	0.0046458845
6	0x3e4d08ad	0.20022841
7	0x3e212603	0.15737157
8	0xbea4c167	-0.32178804
9	0xbe38d2fd	-0.18049236
10	0xbd9ae628	-0.0756343
11	0xbd454114	-0.048157766
12	0x3d3aa3ba	0.045566298
13	0x3dce4b9c	0.10073015
14	0xbe07cdfe	-0.13262174
15	0x3e4861bb	0.19568531
16	0xbdf9118b	-0.12161549
17	0x3d87f166	0.0663784
18	0xbe51a280	-0.20472145
19	0xbcc09f83	-0.023513561
20	0xbe4fe71b	-0.20303003
21	0xbd982b75	-0.07430164
22	0xbe47e18e	-0.19519636
23	0x3cd26aa5	0.025685618
24	0xbe9020dc	-0.2815007
25	0xbe25cdde	-0.16191813
26	0xbe1278c2	-0.14303878
27	0xbd6703d3	-0.05640013
28	0x3d44fba6	0.048091553
29	0x3e8aa9fb	0.2708281
30	0x3da5131d	0.08060286
31	0x3e058656	0.13039526
32	0xbd7f1623	-0.06227697
33	0xbe8876fc	-0.26653278
34	0xbe006379	-0.12537946
35	0xbe81fd58	-0.25388598
36	0xbe64f9d9	-0.22360934
37	0xbdcb9195	-0.09939877
38	0xbd659a6a	-0.056055464
39	0xbe8fa993	-0.28059062
40	0x3d1219cd	0.035669137
41	0xbe73d5d0	-0.23812032
42	0x3db1cd7d	0.08681772
43	0x3ea15970	0.31513548
44	0xbc6d1990	-0.014471427
45	0xbd863d73	-0.06554689
46	0x3e204a38	0.15653312
47	0x3d88e62e	0.06684528
48	0x3d803101	0.06259347
49	0xbe800e4b	-0.25010905
50	0xbea2d3cc	-0.31802213
51	0xbec5011a	-0.38477403
52	0xbdaf46fe	-0.085584626
53	0x3d146c27	0.036235955
54	0xba634cf5	-0.000867083
55	0xbe0231aa	-0.12714258
56	0x3e37b7f6	0.1794127
57	0xbdaf5925	-0.08561925
58	0xbe12b38d	-0.14326306
59	0xbe5c1a6d	-0.21494456
60	0xbece4d9c	-0.40293586
61	0xbdde2597	-0.108470134
62	0x3e5dd949	0.21664919
63	0x3eb9d2bd	0.36293593
64	0xbdecd698	-0.11564368
65	0x3df35f65	0.118834294
66	0xbe48ad1a	-0.19597283
67	0x3e32a019	0.17443885
68	0xbdd9f809	-0.10643012
69	0xbe1a9d92	-0.15099171
70	0x3dae90dd	0.08523724
71	0x3c8bcabc	0.017064445
72	0x3c148692	0.009065287
73	0xbdad00bb	-0.08447405
74	0xbdb30ee2	-0.08743073
75	0x3dcec4b5	0.10096113
76	0xbeaa5a8a	-0.332722
77	0x3d8543bf	0.06507062
78	0xbe544448	-0.20729172
79	0xbd94d67e	-0.07267474
80	0xbe248061	-0.16064598
81	0xbe9b3669	-0.3031495
82	0x3d95a770	0.07307327
83	0xbe2baf75	-0.1676615
84	0x3d99044a	0.07471521
85	0xbc95e42c	-0.018297277
86	0xbd1a66b2	-0.037695594
87	0x3d2e2917	0.042519655
88	0xbddfd351	-0.10928977
89	0xbd5df6f5	-0.054190595
90	0xbe6f9f26	-0.23400554
91	0xbda679ef	-0.08128726
92	0xbc999438	-0.018747434
93	0x3e6f6b3f	0.23380755
94	0x3d856179	0.06512732
95	0xbeeeafdb	-0.46618542
96	0xbd9ac2ab	-0.07556661
97	0x3e2fbde6	0.17162284
98	0x3dccd084	0.10000709
99	0xbeac4dfd	-0.3365325
100	0xbb54f5c6	-0.0032495125
101	0x3e44e85d	0.19229265
102	0x3dbc2410	0.09186566
103	0xbc8dd1f3	-0.017312026
104	0xbe335aa1	-0.17515041
105	0x3dd9f5b9	0.10642571
106	0xbe7b27fc	-0.24526972
107	0x3e0d44e8	0.13795817
108	0x3ed63b46	0.41842097
109	0x3e06ae36	0.13152394
110	0xbd9d3011	-0.076751836
111	0xbd86a1c5	-0.06573824
112	0x3e83c6db	0.25737652
113	0xbd86b83a	-0.06578107
114	0xbd946ab6	-0.07246916
115	0x3e8f7bd3	0.28024158
116	0xbd5db83f	-0.05413079
117	0x3e94ac0e	0.29037517
118	0x3e4f0406	0.20216379
119	0x3c6154b1	0.013753102
120	0x3e944109	0.28955868
121	0xbe4cddb8	-0.20006454
122	0x3cb65ac1	0.022260072
123	0xbe419137	-0.18903051
124	0x3d058934	0.03260155
125	0xbe4334b7	-0.19063078
126	0x3de154ec	0.11002526
127	0x3e71c7d5	0.23611386
128	0xbe157833	-0.14596634
129	0x3d2e0abe	0.042490713
130	0xbda08029	-0.078369446
131	0xbdd96a85	-0.1061602
132	0xbdd853fb	-0.10562893
133	0xbf10ebcd	-0.56609803
134	0xbe60534f	-0.2190678
135	0xbe3d1b00	-0.18467331
136	0xbeee1f09	-0.46508053
137	0xbbbfbd06	-0.005851391
138	0xbdf4a8be	-0.119462475
139	0x3e6b240e	0.22962973
140	0xbdef9e36	-0.11700098
141	0xbe1e1488	-0.1543752
142	0xbd500ed8	-0.050795406
143	0x3ce5702a	0.028007586
144	0xbd2c1637	-0.042013373
145	0xbe879754	-0.26482642
146	0xbe638ea3	-0.2222238
147	0xbe563061	-0.20916893
148	0xbe00728b	-0.12543695
149	0xbe147826	-0.14498958
150	0xbeb487d6	-0.35259885
151	0x3d433832	0.047661014
152	0xbd0d7a7b	-0.034540635
153	0x3e4286a6	0.18996677
154	0xbd542f68	-0.051803023
155	0x3ccd10bf	0.0250324
156	0x3d8aeae9	0.06783087
157	0x3dab1795	0.08354107
158	0xbd57b9ef	-0.052667554
159	0x3da8e7fd	0.08247373
160	0x3e1932a3	0.14960723
161	0x3e2a8e5a	0.16655865
162	0xbe932f57	-0.28747055
163	0x3ee99625	0.45622364
164	0x3e0a4ca6	0.13505802
165	0x3d9317fa	0.071823075
166	0x3ea1c1ff	0.3159332
167	0xbe899c92	-0.26877266
168	0x3d4c3f89	0.04986528
169	0x3e1db3fb	0.15400688
170	0x3ed19846	0.40936488
171	0x3d8007c5	0.06251482
172	0xbe228c63	-0.15873866
173	0x3e112b12	0.14176586
174	0x3e885aab	0.26631674
175	0xbeae1e86	-0.34007663
176	0xbd8eb3d6	-0.06967895
177	0xbd1823fb	-0.03714369
178	0xbd9883ed	-0.07447038
179	0xbe90875a	-0.28228265
180	0xbe988686	-0.29790133
181	0xbe054218	-0.13013494
182	0x3d6ba283	0.05752803
183	0x3e34be2e	0.17650673
184	0x3db3d954	0.087816864
185	0xbdf17d83	-0.117915176
186	0xbe3eed90	-0.1864531
187	0x3df4aa03	0.1194649
188	0x3c35b941	0.011091531
189	0xbe89cd45	-0.2691442
190	0x3db8e78e	0.090285406
191	0xbe7c41c2	-0.2463446
192	0xbce53b96	-0.027982514
193	0x3e49543f	0.19661044
194	0xbe0fe72b	-0.14053027
195	0x3c45f611	0.012082593
196	0x3c88962a	0.016673166
197	0x3e5c2300	0.21497726
198	0xbe2173ae	-0.15766785
199	0x3e520618	0.20510137
200	0x3e0a7fe6	0.13525352
201	0xbc8f64bf	-0.017504094
202	0x3d416e59	0.047224376
203	0xbd6d70d3	-0.057968926
204	0xbe912098	-0.2834518
205	0xbed6214c	-0.41822278
206	0xbe53e2ee	-0.20692036
207	0xbe00b150	-0.1256764
208	0x3ed66504	0.41873944
209	0xbd0004df	-0.031254645
210	0x3caabb48	0.020841256
211	0x3e0aeb91	0.13566424
212	0xbbd1fb7f	-0.0064081545
213	0x3dfc639d	0.12323687
214	0x3db2da49	0.08733041
215	0xbc1133fa	-0.00886249
216	0xbca3953b	-0.01996862
217	0x3cc43be4	0.02395434
218	0xbe2d51f5	-0.16925795
219	0xbc487389	-0.012234577
220	0xbf013adb	-0.5048043
221	0x3c73b5e1	0.014874906
222	0xbe79c04d	-0.24389763
223	0x3d2d8fdc	0.042373523
224	0xbec1cf81	-0.37853625
225	0x3cc66d5e	0.024222072
226	0xbe22e545	-0.15907772
227	0x3e220428	0.15821898
228	0xbe36f9dd	-0.17868753
229	0xbd449a7e	-0.047998898
230	0xbeacf9bd	-0.33784285
231	0xbd11f27f	-0.035631653
232	0xbea21d61	-0.3166304
233	0x3edf7243	0.43641862
234	0x3d002e50	0.031294167
235	0xbcc643da	-0.024202276
236	0xbe31dafa	-0.17368689
237	0x3d110b7b	0.03541134
238	0xbcd67ae4	-0.026181646
239	0x3e9f2dc5	0.31089607
240	0xbe0b643f	-0.1361246
241	0xbce78e58	-0.028266117
242	0xbe0ad3e2	-0.1355739
243	0x3e65dcf9	0.22447576
244	0xbddbb7cc	-0.10728416
245	0x3e3c8fff	0.18414305
246	0x3d28588a	0.041100062
247	0x3e5c26e3	0.21499209
248	0xbe7ee08d	-0.24890347
249	0xbe7720fd	-0.24133678
250	0xbda33c9f	-0.07970547
251	0x3cc893b7	0.024484498
252	0x3d29d80c	0.041465804
253	0xbdc07067	-0.09396439
254	0x3e13eaf0	0.1444509
255	0xbd0c3098	-0.03422603

total_net.2.net.0.fc.bias f4 [25]
0	0xbca07f61	-0.019591989
1	0xbcc95c43	-0.024580127
2	0xbc877d70	-0.016539305
3	0xbcaf3a29	-0.021390038
4	0x3c73a327	0.0148704415
5	0xbd14f451	-0.03636581
6	0xbcc52888	-0.024067178
7	0xbc2730e2	-0.010204526
8	0xbcc46969	-0.023976045
9	0xbc74d108	-0.014942415
10	0xbd018c5b	-0.031627994
11	0xbc914910	-0.017735034
12	0xbc9198aa	-0.017772991
13	0xbc9b9b17	-0.018994851
14	0xbc2b3417	-0.010449431
15	0xbceaf48c	-0.028681062
16	0x3c7010e9	0.014652469
17	0xbd52fb1e	-0.051509015
18	0xbd2bdbc7	-0.041957643
19	0xbd71356f	-0.05888885
20	0xbd346ca6	-0.044048928
21	0xbd2cbf63	-0.042174708
22	0xbbe8176b	-0.0070828698
23	0xbcdd4299	-0.027009295
24	0xbcaa16e5	-0.02076287

total_net.3.weight f4 [3, 25]
0	0x3d7b0a48	0.0612891
1	0xbeab4e07	-0.33457968
2	0x3e1924f8	0.14955509
3	0x3e9efe91	0.31053594
4	0x3e10a506	0.14125451
5	0xbed57267	-0.41688845
6	0xbd89fe5e	-0.0673797
7	0x3e94acf8	0.29038215
8	0xbebdf0a6	-0.37097663
9	0xbea31645	-0.31852928
10	0x3e3f94fc	0.18709177
11	0xbc7648eb	-0.015032033
12	0xbea08fab	-0.3135961
13	0xbe517eac	-0.20458478
14	0xbd666d86	-0.056256793
15	0x3db350a2	0.08755614
16	0x3e0e2c72	0.13884142
17	0xbec0ccec	-0.37656343
18	0xbe558f7b	-0.20855515
19	0x3ecac5da	0.39604074
20	0xbc533311	-0.012890593
21	0xbd92831a	-0.07153912
22	0x3efe4955	0.49665323
23	0xbedbd4fa	-0.42935926
24	0xbedef4f1	-0.4354625
25	0x3d90e94a	0.07075746
26	0x3e0bbe9d	0.13646932
27	0xbed463fc	-0.41482532
28	0x3f221be9	0.6332384
29	0xbda24915	-0.079240955
30	0xbe27ef1c	-0.16399807
31	0x3e7da16a	0.24768606
32	0xbc39afcb	-0.011333416
33	0x3bf640e4	0.00751506
34	0x3eacea04	0.3377229
35	0x3e8afc30	0.2714553
36	0x3e9c208c	0.3049358
37	0x3ed8043f	0.4219074
38	0x3e8bd78e	0.27312893
39	0xbed0804e	-0.4072289
40	0xbd3f0d5a	-0.046643592
41	0xbe0369b6	-0.12833294
42	0xbdb07acd	-0.086171724
43	0x3e29d3e3	0.16584735
44	0x3eae3953	0.3402811
45	0xbaf96ee7	-0.0019030244
46	0xbe07277c	-0.13198656
47	0xbea24d3a	-0.31699544
48	0xbcacc506	-0.021090042
49	0x3e44cc12	0.19218472
50	0x3eae7b44	0.3407842
51	0x3ea14a52	0.31502014
52	0xbd5fb56e	-0.054616384
53	0x3e02a78d	0.12759228
54	0x3e70f142	0.23529533
55	0xbdb9c642	-0.09071018
56	0xbdbada13	-0.091236256
57	0x3c801660	0.01563567
58	0x3ca5c9e3	0.020237869
59	0x3e1a1d3b	0.15050213
60	0x3d1c7dff	0.038206097
61	0x3e99edcb	0.30064234
62	0xbe56386c	-0.2091996
63	0x3e021394	0.12702781
64	0xbe9f3e0c	-0.31102026
65	0xbedcffa4	-0.43163788
66	0xbd931c1b	-0.07183095
67	0xbea03250	-0.31288385
68	0x3c9aee09	0.018912332
69	0x3b7cea83	0.0038591928
70	0x3d8f862b	0.070080124
71	0x3ee15c34	0.44015658
72	0xbec15f1f	-0.37767884
73	0xbd56d7f5	-0.052452046
74	0x3ef92e37	0.48668072

total_net.3.bias f4 [3]
0	0x3a2b023c	0.0006523465
1	0x39eae50c	0.0004480261
2	0xb9ef4ea1	-0.00045644215
