Modeling eMNS/checkpoint.pt (torch, 35620 bytes, 8 tensors)

total_net.0.net.0.fc.weight f4 [100, 15]
0	0xbe6d7245	-0.23188122
1	0x3ea85662	0.32878405
2	0xbd2b1c78	-0.041775197
3	0xbe18e477	-0.14930902
4	0xbd89a3c8	-0.06720692
5	0x3db5a7cb	0.088698946
6	0x3eb462e7	0.35231707
7	0xbcbcf737	-0.0230671
8	0xbe829b88	-0.25509286
9	0xbdeac390	-0.11463082
10	0x3f0628d4	0.5240605
11	0x3e9b4b32	0.30330807
12	0x3d8b6267	0.06805878
13	0xbc36eee0	-0.011165351
14	0x3d0a766c	0.033804342
15	0xbf3d5047	-0.7395062
16	0x3e408038	0.18798912
17	0xbf13e326	-0.57768476
18	0xbc644e4c	-0.013934683
19	0x3e6e6da5	0.23284014
20	0x3db17aaa	0.086659744
21	0xbe94ab5b	-0.29036984
22	0xbd104d94	-0.035230234
23	0xbea23279	-0.31679133
24	0x3ecd608e	0.40112728
25	0xbdd74290	-0.10510743
26	0x3ece6fd0	0.4031968
27	0xbe5a6799	-0.21328582
28	0xbe7c372a	-0.24630418
29	0x3e057dea	0.13036314
30	0xbe6a1724	-0.2286039
31	0x3f554f74	0.8332436
32	0xbf59c85f	-0.8507137
33	0xbe76e9ea	-0.24112669
34	0xbe154adc	-0.14579338
35	0x3b80697a	0.003918824
36	0x3e96017c	0.29298007
37	0xbef3fe9e	-0.47655195
38	0xbe5d597f	-0.21616171
39	0x3f28bbc7	0.65911525
40	0xbe8fcf74	-0.28087962
41	0x3d34bed5	0.044127304
42	0xbe8da0ec	-0.27661836
43	0xbe29d3c0	-0.16584682
44	0xbd6774c3	-0.056507837
45	0x3d845d56	0.06463115
46	0x3dcc0549	0.099619456
47	0xbe9e8d3a	-0.30967122
48	0x3d912349	0.07086808
49	0x3e9e9fbd	0.30981246
50	0x3e07fba5	0.13279589
51	0x3e343aa9	0.17600502
52	0xbe0b1b52	-0.1358464
53	0x3bb85aca	0.0056260573
54	0x3e4cf0fc	0.20013803
55	0xbe8e3f54	-0.2778269
56	0xbf12ab25	-0.57292396
57	0x3e917b6c	0.28414476
58	0x3e19e51f	0.15028809
59	0xbe7c13a5	-0.24616869
60	0xbe0f41b2	-0.13989905
61	0xbf2bfab9	-0.6717945
62	0x3dca5255	0.09878985
63	0xbedda607	-0.4329073
64	0xbed44e11	-0.4146581
65	0xbe5c02d2	-0.21485451
66	0x3c84a9b8	0.01619421
67	0xbe04b390	-0.12959123
68	0x3d952843	0.0728307
69	0x3f0c627f	0.54837793
70	0xbea5ce76	-0.3238408
71	0x3e409448	0.18806565
72	0xbd815b28	-0.06316215
73	0xbe85675f	-0.26055428
74	0xbf0b9e4b	-0.5453841
75	0x3f1a2072	0.6020576
76	0x3ed911ce	0.42396396
77	0x3f0c2cd8	0.54755926
78	0x3e2269ce	0.15860674
79	0x3ebe4cdd	0.37168017
80	0x3f24e7f1	0.64416414
81	0x3d9e34f1	0.077249415
82	0xbf038ed3	-0.5138981
83	0x3f17f7ed	0.5936268
84	0xbe8f2b61	-0.27962783
85	0xbea72deb	-0.3265222
86	0xbf4ae05f	-0.79248613
87	0x3c0fca83	0.00877631
88	0x3efa2d19	0.48862532
89	0x3ef129e4	0.47102273
90	0x3f283a95	0.6571439
91	0xbf344d2c	-0.70430255
92	0x3eb8398a	0.359814
93	0x3e5a0244	0.21289927
94	0xbe3315e5	-0.17488821
95	0x3db9726d	0.09055028
96	0xbe4c3a91	-0.19944216
97	0x3f1c83a0	0.61138344
98	0x3e999039	0.29992846
99	0x3e497ed8	0.19677293
100	0xbdc29eb4	-0.095029265
101	0xbe1f0c11	-0.15531947
102	0x3e381733	0.179776
103	0xbdb1f24b	-0.08688792
104	0x3ead974e	0.339045
105	0xbd9f180b	-0.07768258
106	0xbee1555a	-0.4401043
107	0x3f1cb4fe	0.6121367
108	0x3def9433	0.11698189
109	0xbe57ec37	-0.21086203
110	0x3e65f663	0.2245727
111	0xbe89d46e	-0.26919883
112	0x3e8cbbf1	0.27487138
113	0x3f131c56	0.5746511
114	0x3d71533e	0.058917277
115	0x3ea74bdb	0.3267506
116	0x3dfca3e2	0.12335946
117	0x3f1a16b6	0.60190904
118	0xbe4ea60d	-0.20180531
119	0xbd887744	-0.06663373
120	0xbe7d59a3	-0.24741225
121	0xbe8a5489	-0.2701762
122	0xbed57689	-0.41691998
123	0x3eb4aa1f	0.35286042
124	0xbe402e8b	-0.18767755
125	0xbe3a6c59	-0.18205394
126	0xbc829c4f	-0.015943674
127	0xbf244a51	-0.641759
128	0xbf220420	-0.63287544
129	0x3e7c95fa	0.24666587
130	0x3ecff193	0.40613994
131	0x3d2c3792	0.042045183
132	0xbd70ecc4	-0.058819547
133	0x3cddda47	0.027081622
134	0xbf0313f7	-0.5120234
135	0xbea2a8b3	-0.31769332
136	0xbef4f821	-0.47845557
137	0x3ddfe62b	0.10932573
138	0xbb9405b9	-0.0045172838
139	0x3e5c2901	0.21500017
140	0xbecdad2f	-0.4017119
141	0xbe4daa5a	-0.20084515
142	0xbe8c9604	-0.27458203
143	0x3ed3915f	0.41321847
144	0x3e35f959	0.177709
145	0x3e6bdcda	0.23033467
146	0x3e9153d3	0.28384265
147	0xbe890fb3	-0.2676979
148	0xbe041dd8	-0.1290201
149	0xbec7e986	-0.39045352
150	0x3e1c64c0	0.15272808
151	0x3dcbccf2	0.099511996
152	0x3d1182b3	0.035525035
153	0x3e844e34	0.25840914
154	0x3e9b1bad	0.30294552
155	0x3d758f65	0.059951205
156	0x3ed4c0ef	0.41553447
157	0x3ea6a357	0.32546493
158	0x3f4c9a50	0.7992296
159	0xbea203ea	-0.3164361
160	0xbde298ce	-0.110643014
161	0xbea87972	-0.32905155
162	0xbe1ef742	-0.15524009
163	0x3eb09778	0.3449056
164	0x3e2d019d	0.16895147
165	0x3e5fa157	0.2183889
166	0xbecb89cd	-0.3975357
167	0x3f3c6629	0.73593384
168	0x3ed2e19f	0.4118776
169	0xbe130c0d	-0.14360066
170	0x3e6f2a3e	0.23355958
171	0xbeb7daae	-0.35909027
172	0xbf089ad6	-0.5336126
173	0x3d25e1ce	0.040498547
174	0xbde26d5e	-0.110560164
175	0xbd2ffd16	-0.04296597
176	0xbde3db86	-0.11125855
177	0xbe80edeb	-0.25181517
178	0xbdcf75af	-0.10129868
179	0xbe402360	-0.18763494
180	0x3d95f7dc	0.07322666
181	0x3ea6a6b7	0.32549068
182	0xbc636508	-0.013879068
183	0xbdd8ec6b	-0.10591968
184	0x3e9f018d	0.3105587
185	0xbec69264	-0.38783562
186	0x3dee4193	0.11633601
187	0x3e547bec	0.20750397
188	0x3f20bf53	0.6279194
189	0xbdb48b19	-0.08815593
190	0x3f100926	0.5626396
191	0x3e2b4e09	0.16728987
192	0xbe1fe3af	-0.15614198
193	0x3be351ac	0.0069372263
194	0x3e95cdac	0.29258478
195	0x3e0209f2	0.12699106
196	0xbe84a30b	-0.25905642
197	0x3cd346e3	0.025790637
198	0x3e488467	0.19581757
199	0xbccee5f1	-0.025256129
200	0x3de4987a	0.11161895
201	0xbf024d92	-0.5089961
202	0xbe9deb16	-0.3084342
203	0x3c905383	0.017617946
204	0x3de10221	0.10986734
205	0xbe2a546c	-0.16633767
206	0x3e8e4862	0.277896
207	0xbefcdf6e	-0.49389213
208	0x3e54d454	0.20784122
209	0x3e9014ab	0.28140768
210	0xbe8a971e	-0.27068418
211	0xbe9c9b38	-0.30587173
212	0xbf10e47c	-0.5659864
213	0xbf28234f	-0.65678877
214	0x3ec29e96	0.38011616
215	0x3ecd09ca	0.4004653
216	0xbea59512	-0.32340294
217	0x3ef4a824	0.4778453
218	0xbd83d14b	-0.06436404
219	0x3dfa59b4	0.12224141
220	0xbd34264c	-0.043981835
221	0xbe400db1	-0.18755223
222	0x3e9d9907	0.30780813
223	0xbe897c5e	-0.26852697
224	0x3e60a0c1	0.21936323
225	0xbf095bf8	-0.5365596
226	0xbe856b92	-0.26058632
227	0x3f3775f0	0.71664333
228	0x3d342f73	0.043990564
229	0x3df4e736	0.119581625
230	0x3e03e99f	0.12882088
231	0x3e15cff6	0.14630112
232	0x3e5b059c	0.21388859
233	0xbc15710f	-0.009121194
234	0x3e9f593e	0.31122774
235	0xbe0e3e54	-0.13890964
236	0x3bd3c67e	0.006462871
237	0xbd035db6	-0.03207179
238	0x3d2a480e	0.041572623
239	0xbe7b1a44	-0.24521738
240	0x3d0ac81d	0.03388225
241	0xbd53ebb8	-0.05173847
242	0xbe51fe92	-0.20507267
243	0x3e29891c	0.1655621
244	0x3ecabdc6	0.3959791
245	0xbdb732f1	-0.08945263
246	0x3d1d1b06	0.03835585
247	0x3ea75267	0.32680055
248	0xbf155c0a	-0.58343565
249	0xbe0532c0	-0.13007641
250	0x3ead87b5	0.338926
251	0xbea5610f	-0.32300612
252	0x3c589eaf	0.013221427
253	0x3efa1307	0.48842642
254	0xbdb1a9c2	-0.08674957
255	0x3ec1b3a9	0.37832382

total_net.0.net.0.fc.bias f4 [100]
0	0xbda17730	-0.07884061
1	0x3ca5b69b	0.020228675
2	0xbc1756da	-0.009237016
3	0xbb9a2457	-0.004704039
4	0x3af0dbd5	0.0018376062
5	0xbc8df57c	-0.01732897
6	0xbcab1135	-0.020882228
7	0xbd994040	-0.07482958
8	0xbd7712d4	-0.06032069
9	0xbd415b51	-0.047206227
10	0x3d42f9b5	0.04760142
11	0xbcc1dda0	-0.02366525
12	0xbd3a72bc	-0.045519575
13	0x3d0c6036	0.03427144
14	0xbd997550	-0.07493079
15	0xbd60ed30	-0.0549137
16	0xbcae6de5	-0.021292636
17	0xbd914aed	-0.07094369
18	0xbc0a97bc	-0.008459028
19	0xbd059d69	-0.03262082
20	0xbcc1591d	-0.023602063
21	0xbd423551	-0.047414128
22	0xbd515409	-0.051105533
23	0xbbea4058	-0.0071487837
24	0xbd4e90fd	-0.05043124
25	0xbc3bb77c	-0.01145732
26	0xbd26fe6f	-0.04076999
27	0xbc803fc6	-0.01565541
28	0x3d83017e	0.06396769
29	0xbd0afb39	-0.03393099
30	0xbbbda648	-0.0057876445
31	0xbd8f37ea	-0.06993087
32	0xbcda84d5	-0.026674667
33	0xbe17e623	-0.14833884
34	0x3d556640	0.052099466
35	0xbdb3c177	-0.08777135
36	0xbd71bbcd	-0.05901699
37	0xbb9d7619	-0.004805338
38	0xbc21b8f0	-0.009870753
39	0xbcadbaa9	-0.02120717
40	0x3c55254f	0.013009383
41	0x3cd4bcd5	0.025968948
42	0xbd15b2fa	-0.03654764
43	0xbca9e1a3	-0.020737475
44	0xbd7b5142	-0.06135679
45	0xbac0b9b7	-0.0014703785
46	0xbdb34a37	-0.0875439
47	0xbc1f0dbb	-0.009707863
48	0xbd6139d4	-0.05498679
49	0x3bc4c031	0.0060043563
50	0x3d1dbed2	0.03851206
51	0x3c2f4f69	0.010700085
52	0xbc8b6108	-0.017014042
53	0xbdd36318	-0.10321635
54	0xbce3b43c	-0.027795903
55	0xbde2d29d	-0.110753275
56	0x3ceaa815	0.0286446
57	0xbd9a5109	-0.075349875
58	0xbd52f112	-0.051499434
59	0x3c1d240d	0.009591115
60	0xbd85b398	-0.065283954
61	0xbcee6bc0	-0.029104114
62	0xbd8928cc	-0.066972345
63	0x39dab354	0.0004171381
64	0x3d02f614	0.03197296
65	0xbc1c1c42	-0.009528222
66	0xbcd77033	-0.026298618
67	0xbda3512e	-0.07974468
68	0x3d24a626	0.040197514
69	0xbcecf5f2	-0.02892587
70	0xbd5c3d95	-0.053769667
71	0xbd34c329	-0.04413143
72	0x3ca95a19	0.020672845
73	0xbd157571	-0.036488954
74	0x3ba90ba5	0.005158859
75	0xbd8ccc2c	-0.0687488
76	0xbd240ea8	-0.04005304
77	0x3c9b7277	0.01897548
78	0x3dca9ab9	0.09892792
79	0xbd07714b	-0.03306703
80	0x3c1716a2	0.009221705
81	0xbd5952ed	-0.0530576
82	0xbd3d863f	-0.046270605
83	0xbd0b4ed7	-0.034010734
84	0xbd4b6c16	-0.049663626
85	0xbc8fc40d	-0.017549539
86	0xbd47af64	-0.04875125
87	0xbdbf7b73	-0.09349718
88	0xbdf76995	-0.12080685
89	0x3d830f57	0.0639941
90	0xbc408d9d	-0.011752513
91	0x3cbf147c	0.023325197
92	0xbdb61d48	-0.08892304
93	0x3d935d06	0.07195477
94	0x3b6b5b3e	0.003591254
95	0x3d3becfb	0.0458803
96	0xbcf431df	-0.029808937
97	0xbe16ad27	-0.1471449
98	0xbdd53893	-0.10411181
99	0xbd8652ed	-0.065587856

total_net.1.net.0.fc.weight f4 [50, 100]
0	0x3e3822c8	0.17982018
1	0xbe4925d6	-0.1964334
2	0x3e044e56	0.12920508
3	0x3d030d13	0.03199489
4	0xbb6590fd	-0.0035029047
5	0xbd8dcb6c	-0.06923565
6	0x3dc3f107	0.09567457
7	0xbe96e807	-0.29473898
8	0xbe0a83cd	-0.1352684
9	0xbd349832	-0.044090457
10	0x3e053c28	0.13011229
11	0x3cf42379	0.02980207
12	0x3e5845a1	0.21120311
13	0xbd811fbb	-0.0630488
14	0x3d73a08d	0.059479285
15	0xbd83a30e	-0.064275846
16	0xbcab2f10	-0.020896465
17	0xbdbdb401	-0.09262849
18	0x3cab9209	0.020943658
19	0x3d589c93	0.052883696
20	0xbe472248	-0.19446671
21	0x3e4eb1c3	0.20184998
22	0xbd6f6cae	-0.058453254
23	0x3e480580	0.19533348
24	0x3df869a7	0.121295266
25	0x3e80b563	0.25138387
26	0xbe39a0a0	-0.1812768
27	0xbd03f7e3	-0.032218825
28	0xbdac825a	-0.084233
29	0xbe3bbe5e	-0.18334338
30	0xbce6d1c3	-0.028176194
31	0xbdf5f75f	-0.12010073
32	0xbd4688a4	-0.048470154
33	0xbcf4f9af	-0.029904215
34	0xbdfcc65a	-0.1234252
35	0x3dd38486	0.10328011
36	0xbead0632	-0.3379379
37	0xbe1fe2e4	-0.15613896
38	0x3cf75535	0.030191997
39	0x3cca0ee3	0.024665302
40	0x3d686fcd	0.056747247
41	0x3ddfce13	0.109279774
42	0x3d0142b0	0.03155774
43	0x3e4c5755	0.1995519
44	0xbe2b6be5	-0.16740377
45	0xbd870916	-0.0659353
46	0xbe5ce22e	-0.21570656
47	0xbcce6eb0	-0.025199264
48	0x3c71dfb6	0.0147628095
49	0xbcd7411c	-0.026276164
50	0x3d15b7b6	0.036552154
51	0x3d90bb56	0.070669815
52	0x3de91354	0.1138064
53	0xbd8025bd	-0.06257198
54	0xbec1eb6c	-0.37874925
55	0xbd35e71d	-0.04440986
56	0x3d7cab02	0.061686523
57	0xbd7072df	-0.0587033
58	0xbd3eff2c	-0.04663007
59	0x3d606d3a	0.054791667
60	0xbe7062b5	-0.23475154
61	0xbe0b3aea	-0.13596693
62	0x3d939fae	0.07208191
63	0xbe799a11	-0.24375178
64	0x3dcaae88	0.098965704
65	0x3da125ab	0.07868513
66	0x3dab8a89	0.08376033
67	0x3e471bc0	0.1944418
68	0x3df5f4cc	0.12009582
69	0xbd6720d5	-0.056427795
70	0xbd591dbf	-0.053006884
71	0xbe254608	-0.16139996
72	0xbec996c1	-0.3937283
73	0xbe07229c	-0.13196796
74	0x3bc60afc	0.00604379
75	0xbd04bb37	-0.032405104
76	0xbe2fa90f	-0.17154334
77	0x3cb1459c	0.021639638
78	0xbe72e23e	-0.23719117
79	0xbdfd302e	-0.12362705
80	0x3d136e72	0.035994
81	0x3d23b30c	0.039965674
82	0x3e81d18c	0.25355184
83	0xbd6fc5ae	-0.05853813
84	0x3e0cc7fa	0.1374816
85	0x3d944e50	0.072414994
86	0xbd67be20	-0.0565778
87	0xbdaa3ab0	-0.08311975
88	0x3e2d7174	0.1693781
89	0x3ba16b9b	0.0049261576
90	0x3dff1de4	0.12456873
91	0xbcc34a73	-0.023839211
92	0xbdc12a58	-0.094319046
93	0xbd7e7306	-0.062121414
94	0xbdb5fb48	-0.08885819
95	0xbc7a7134	-0.015285779
96	0xbde99985	-0.11406235
97	0xbc8a84a6	-0.016908955
98	0xbe3d1b04	-0.18467337
99	0x3e73f725	0.23824747
100	0x3ca459d5	0.020062367
101	0x3e10a51f	0.14125489
102	0xbc8c625a	-0.017136741
103	0x3dfa35fc	0.12217328
104	0x3e114464	0.14186245
105	0x3dc5ea71	0.09663857
106	0x3e0a25c6	0.13490972
107	0xbe2511d1	-0.16120078
108	0xbcb2f680	-0.021846056
109	0xbe811e46	-0.2521841
110	0x3da901e0	0.08252311
111	0x3e05bca8	0.13060248
112	0xbdab9387	-0.08377748
113	0x3e0df06f	0.1386125
114	0x3e1aaad7	0.15104233
115	0x3dc71493	0.09720721
116	0x3d9947ff	0.07484435
117	0x3de31d58	0.11089581
118	0xbd8316e8	-0.064008534
119	0xbdae655e	-0.08515428
120	0xbd1abf84	-0.0377803
121	0x3db5f413	0.08884444
122	0xbd4eaaa0	-0.05045569
123	0x3dd6da4a	0.10490854
124	0xbe30dc16	-0.17271456
125	0xbdca8849	-0.098892756
126	0x3bb6a6d6	0.0055740876
127	0x3e7cb7db	0.2467951
128	0xbdfa8d57	-0.1223399
129	0x3e0b4994	0.13602287
130	0xbe28352e	-0.16426536
131	0x3d9b8bf1	0.07595051
132	0xbe1ef460	-0.15522909
133	0x3e7d761e	0.2475209
134	0xbce367ba	-0.027759422
135	0x3e061efb	0.13097756
136	0x3da076a1	0.07835127
137	0xbdb71921	-0.0894034
138	0x3db4be93	0.08825412
139	0xbd995560	-0.07486987
140	0x3e14e098	0.145388
141	0x3e18bba0	0.14915323
142	0x3d3c85dd	0.0460261
143	0xbb8adf90	-0.0042380765
144	0x3d5d6a2b	0.054056328
145	0x3c5cad08	0.013468988
146	0xbcc0a313	-0.02351526
147	0xbe97040e	-0.2949528
148	0xbdc65238	-0.09683651
149	0xbdbfe065	-0.09368972
150	0x3eb8c5ba	0.36088353
151	0x3c6a6e96	0.014308592
152	0x3b638b45	0.0034720462
153	0xbda6b0a9	-0.08139164
154	0x3ddba05d	0.10723946
155	0xbdf7e07d	-0.121033646
156	0xbda44f53	-0.080229424
157	0x3d41edbf	0.047345873
158	0x3e2f5060	0.17120504
159	0xbd279ccb	-0.040921014
160	0x3dbfe382	0.093695655
161	0x3d5c177a	0.053733326
162	0xbe097572	-0.13423708
163	0x3b9f77af	0.0048665623
164	0x3d8d44c0	0.06897879
165	0x3c3fc0ce	0.011703683
166	0xbca800ad	-0.020508135
167	0xbd920b58	-0.0713107
168	0x3d89a14d	0.06720219
169	0x3d5b5436	0.053547107
170	0xbe0ddce8	-0.138538
171	0x3dd49fa5	0.10382012
172	0x3dfaa718	0.12238902
173	0xbe65ec44	-0.2245341
174	0xbc2e759d	-0.010648158
175	0xbd1bf7df	-0.038078185
176	0xbdde1b2e	-0.10845028
177	0x3e0c515b	0.1370291
178	0x3c6ff9bd	0.014646945
179	0x3d713c73	0.05889554
180	0xbea18b79	-0.31551722
181	0x3e3292d5	0.17438824
182	0x3e4803be	0.19532678
183	0xbe58d6b5	-0.21175654
184	0x3e04e5d1	0.12978293
185	0x3e3f1b5e	0.18662784
186	0xbd684189	-0.056703124
187	0x3e8fef41	0.28112224
188	0xbdfc531f	-0.123205416
189	0xbbe48156	-0.006973426
190	0xbe643045	-0.22284038
191	0x3dd3640d	0.103218175
192	0x3ddefd96	0.108882114
193	0xbe530fda	-0.20611516
194	0x3e2170c5	0.15765674
195	0xbe503dbc	-0.2033605
196	0x3dd656a2	0.10465743
197	0x3d02a53d	0.031895865
198	0xbe5f7715	-0.2182277
199	0xbd175767	-0.036948588
200	0x3d98e220	0.07465005
201	0x3ea80577	0.3281667
202	0x3eba4d3e	0.36387056
203	0x3e09d4bc	0.13460058
204	0xbe091c23	-0.1338964
205	0x3e362b95	0.17790063
206	0x3d8109d6	0.06300704
207	0x3bb3f9ea	0.0054924386
208	0x3bdd237d	0.0067486153
209	0x3e1c1d58	0.15245569
210	0xbd22daf0	-0.039759576
211	0x3de63afa	0.11241718
212	0xbcb96d7f	-0.02263522
213	0x3d3b0aa8	0.04566446
214	0x3c474dab	0.012164514
215	0x3e446e9c	0.19182819
216	0x3e2f053e	0.17091843
217	0x3e0a41ae	0.13501617
218	0x3e4e31fb	0.20136254
219	0xbdf4a18c	-0.11944875
220	0xbb9cff3d	-0.004791169
221	0x3c0a077d	0.008424637
222	0xbd66259d	-0.056188215
223	0xbddebcce	-0.108758554
224	0x3db08c0f	0.08620464
225	0x3b3abb13	0.0028492853
226	0x3e6609a4	0.22464615
227	0xbd9c01fa	-0.076175645
228	0xbdb124ac	-0.08649573
229	0x3e7be5de	0.24599406
230	0xbd6e1f42	-0.05813528
231	0xbc90e860	-0.01768893
232	0x3e00e193	0.1258605
233	0x3d2870f6	0.041123353
234	0x3de0e2ba	0.10980745
235	0xbe28718e	-0.16449568
236	0x3d9e5cbe	0.07732533
237	0xbd270b76	-0.040782414
238	0x3b9d9484	0.004808964
239	0x3dce9d64	0.10088614
240	0x3e2a8377	0.16651712
241	0xbda04fdd	-0.07827733
242	0xbcbe5499	-0.023233699
243	0x3dd1365c	0.10215446
244	0xbd516676	-0.051123105
245	0x3d49f1c6	0.04930284
246	0xbe57496d	-0.21024103
247	0x3d049481	0.032368187
248	0x3d8b92d1	0.068151124
249	0xbd90d51b	-0.07071897
250	0x3dd4aae0	0.10384154
251	0xbcc828b9	-0.02443348
252	0xbc131653	-0.0089774905
253	0xbe622d0c	-0.22087497
254	0x3de9a777	0.114088945
255	0x3ba79bba	0.0051149996

total_net.1.net.0.fc.bias f4 [50]
0	0xbc761fb5	-0.015022208
1	0x3d01c1fb	0.031679135
2	0x3c428b24	0.011873994
3	0xbd047a97	-0.032343473
4	0xbd246d4d	-0.0401433
5	0xbd153346	-0.03642585
6	0xbd37e0e3	-0.044892203
7	0xbcf57c9b	-0.029966643
8	0xbd36d4ec	-0.044636652
9	0xbc3093b7	-0.010777405
10	0x3a500b50	0.0007936256
11	0xbcfb64a2	-0.030687634
12	0x3d8a7a76	0.06761639
13	0xbd18dcfd	-0.037320126
14	0xbd6cdc3a	-0.057827212
15	0xbd26583a	-0.040611483
16	0xbcb08b69	-0.021550851
17	0xbb726465	-0.003698611
18	0xbc8d95f6	-0.017283421
19	0xbd8bd29d	-0.06827281
20	0xbcbe3f14	-0.023223437
21	0xba519ca0	-0.0007996056
22	0xbc4f8ae7	-0.012667394
23	0xbcd1de31	-0.025618644
24	0xbd039069	-0.032120142
25	0xbc7a40f6	-0.015274277
26	0xbd332ced	-0.043744016
27	0xbc749b10	-0.014929548
28	0x3c9e0b91	0.019292625
29	0x3bd035cb	0.006354069
30	0xbce36818	-0.027759597
31	0xbb48bbc7	-0.0030629502
32	0x3c2d0b94	0.0105618425
33	0x3ba39118	0.0049916618
34	0x3ca26fe0	0.019828737
35	0xbbb70892	-0.0055857385
36	0xbd0dfff9	-0.034667943
37	0xbd34d0e2	-0.04414452
38	0xbc91c2ac	-0.017793022
39	0xbd240601	-0.04004479
40	0xbcd5a239	-0.02607833
41	0xbcceffc7	-0.025268449
42	0xbce1d646	-0.027567994
43	0x3bba5776	0.0056866957
44	0xbcedef36	-0.029044729
45	0xbcd5f55b	-0.026117971
46	0xbc8f65d8	-0.017504618
47	0xbd63c87d	-0.055611122
48	0xbc41145a	-0.011784637
49	0xbd175281	-0.036943916

total_net.2.net.0.fc.weight f4 [25, 50]
0	0x3e507398	0.20356596
1	0xbd22de7c	-0.03976296
2	0x3e60cda6	0.21953449
3	0x3e6eff2c	0.23339528
4	0x3e287c56	0.1645368
5	0xbd1e311d	-0.038621057
6	0xbde632a4	-0.11240128
7	0x3dddbbd6	0.108268425
8	0x3de37a01	0.11107255
9	0x3de1bc06	0.11022191
10	0x3e94b65c	0.2904538
11	0xbd511bb7	-0.05105182
12	0xbd38d19d	-0.045121778
13	0x3e81dd9d	0.2536439
14	0xbca333af	-0.019922106
15	0x3daefd96	0.085444614
16	0xbd1e68ec	-0.03867428
17	0x3ea621eb	0.32447752
18	0xbcba986f	-0.022777764
19	0x3c1e955b	0.009679164
20	0x3e2c90f8	0.16852176
21	0xbe86e787	-0.26348516
22	0xbec3174e	-0.38103718
23	0xbe22fcb0	-0.15916705
24	0x3ce77680	0.028254747
25	0xbe7a1981	-0.24423791
26	0xbabba785	-0.0014316892
27	0xbd2704fd	-0.04077624
28	0x3c1055ac	0.008809488
29	0x3eb1bfcf	0.3471665
30	0x3e05dc06	0.13072214
31	0x3d7e8756	0.062140785
32	0xbc9300db	-0.017944744
33	0xbe2940c1	-0.16528608
34	0xbd56231a	-0.05227957
35	0xbec6b02c	-0.38806283
36	0xbd629cde	-0.05532538
37	0xbe615eca	-0.22008815
38	0xbd9a8fb4	-0.075469404
39	0xbcefe3df	-0.029283462
40	0x3ee16dcf	0.4402909
41	0xbda6b683	-0.0814028
42	0x3dee09ab	0.11622938
43	0xbe35e357	-0.17762505
44	0xbd287f0f	-0.041136798
45	0xbe1d2640	-0.15346622
46	0x3e435216	0.19074282
47	0x3e0c1631	0.1368034
48	0x39cba0f3	0.00038839094
49	0xbe719368	-0.23591387
50	0x3e8256a9	0.2545674
51	0xbbd85061	-0.006601379
52	0xbd9a9fd2	-0.075500146
53	0xbe7694aa	-0.24080148
54	0xbe9a2caa	-0.301122
55	0xbdc0536a	-0.0939091
56	0xbc5a24f3	-0.013314473
57	0x3b89d82f	0.0042066793
58	0x3d839413	0.06424727
59	0x3d34dc49	0.044155393
60	0xbe98e607	-0.29862997
61	0x3dde1e3e	0.10845612
62	0xbdf670a6	-0.12033205
63	0x3cc13675	0.023585537
64	0x3d78563b	0.06062911
65	0x3e902066	0.28149718
66	0x3b260a46	0.0025335713
67	0xbe8ee486	-0.27908725
68	0x3e73198f	0.23740219
69	0xbd9d9def	-0.07696139
70	0xbed46471	-0.4148288
71	0x3e386a3a	0.18009272
72	0xbe3a3487	-0.181841
73	0x3c0813ab	0.00830547
74	0x3e30bdcd	0.17259903
75	0xbe84c84d	-0.25934067
76	0xbd11efca	-0.03562907
77	0x3e77341a	0.24140969
78	0xbe195c2c	-0.14976567
79	0x3e613ba2	0.21995404
80	0x3e849a52	0.25898987
81	0x3d90548a	0.070473745
82	0x3e8103c4	0.25198185
83	0xbe71d43d	-0.23616119
84	0x3c08a953	0.008341151
85	0xbcf853a0	-0.030313313
86	0xbe1527b1	-0.14565922
87	0x3ed1673a	0.40899068
88	0xbca4da2e	-0.020123567
89	0xbd1dfc2d	-0.03857057
90	0xbc4910bf	-0.012272059
91	0xbe007e65	-0.12548216
92	0x3e64327e	0.22284886
93	0xbef58358	-0.4795177
94	0x3dd74f44	0.105131656
95	0x3de66b4f	0.11250936
96	0xbe7fa904	-0.24966818
97	0x3d543a0b	0.051813167
98	0xbc8fc1ae	-0.017548408
99	0xbd6dc220	-0.05804646
100	0x3e8bc287	0.2729685
101	0xbeb8167e	-0.3595466
102	0xbe10aaa9	-0.14127602
103	0x3e7cf6aa	0.2470347
104	0xbe9c8f07	-0.3057787
105	0xbf2450bb	-0.64185685
106	0xbd5aa936	-0.05338403
107	0x3d75c007	0.059997585
108	0xbf07dbf5	-0.5307
109	0xbe872683	-0.2639657
110	0xbe5b47b7	-0.21414076
111	0xbe8e1fad	-0.27758542
112	0xbdc712f1	-0.0972041
113	0xbe8b3c5a	-0.27194482
114	0x3e227a04	0.15866858
115	0x3de93fe6	0.11389141
116	0xbe2cd9af	-0.16879915
117	0xbd092c63	-0.033489596
118	0xbc1037d2	-0.008802371
119	0x3d831783	0.06400969
120	0xbe420b4c	-0.18949622
121	0xbcbec747	-0.023288382
122	0xbe9fc1bc	-0.31202495
123	0xbe2e4946	-0.17020139
124	0x3e5fe2a5	0.21863802
125	0xbd5f3071	-0.054489557
126	0x3e462c54	0.19352847
127	0xbdf909fa	-0.12160106
128	0xbdde2b20	-0.10848069
129	0xbdef314f	-0.11679327
130	0xbadeca27	-0.0016997502
131	0xbcd94c2e	-0.026525583
132	0xbe11fbc0	-0.14256191
133	0x3d81428e	0.063115224
134	0xbe1a4e3e	-0.1506891
135	0x3e03a19c	0.12854618
136	0x3dbe0fcb	0.09280356
137	0x3ebf000e	0.3730473
138	0xbe6a9ea2	-0.22912076
139	0x3dee5650	0.116375566
140	0x3dccf2c2	0.1000724
141	0xbef774f1	-0.48331407
142	0x3ea6bf6c	0.32567918
143	0xbeaff73e	-0.34368318
144	0xbeb53d4e	-0.35398334
145	0x3df58d4b	0.1198984
146	0xbe3d42ab	-0.18482463
147	0x3bdb1915	0.0066863396
148	0x3d3c8478	0.04602477
149	0xbebb53ad	-0.36587277
150	0xbdc419af	-0.09575211
151	0xbe4668f3	-0.19375972
152	0x3e46130f	0.19343208
153	0xbf10029a	-0.5625397
154	0x3e13fb64	0.14451367
155	0xbcf759d8	-0.030194208
156	0xbbed497a	-0.007241425
157	0xbc4665e8	-0.012109257
158	0xbd22ac88	-0.03971532
159	0xbde5984e	-0.112106904
160	0xbe9f75d3	-0.3114458
161	0x3c912253	0.017716562
162	0xbdd539b3	-0.10411396
163	0xbc88059b	-0.016604235
164	0x3c5898db	0.013220037
165	0x3e25121b	0.16120188
166	0xbeb65a14	-0.356156
167	0x3e75af0c	0.23992556
168	0xbc81ac89	-0.015829341
169	0xbe184991	-0.14871813
170	0xbd4665ed	-0.048437048
171	0xbdb439f6	-0.08800118
172	0xbe7353f2	-0.23762491
173	0xbe6088d0	-0.2192719
174	0x3d718203	0.05896188
175	0x3eb60acf	0.3555512
176	0xbe195d41	-0.1497698
177	0xbe4e563e	-0.20150086
178	0xbe00bc7a	-0.12571898
179	0xbd016557	-0.031590786
180	0x3cbbe491	0.022936137
181	0x3d6b5cb2	0.057461448
182	0x3c652210	0.013985172
183	0xbdfbc449	-0.12293298
184	0xbe06cd2d	-0.13164206
185	0xbdddb82b	-0.10826143
186	0xbe4a86ca	-0.1977798
187	0xbd635130	-0.05549735
188	0xbee93166	-0.455455
189	0xbe61f77c	-0.22067064
190	0x3e19e740	0.15029621
191	0x3b6b80ae	0.0035934853
192	0x3e4f01e7	0.2021557
193	0x3c81edc7	0.015860451
194	0x3e8a53eb	0.2701715
195	0xbce16014	-0.027511634
196	0xbdc66d08	-0.09688765
197	0x3cac66dc	0.02104514
198	0xbeaf88a0	-0.34283924
199	0x3df55b00	0.119802475
200	0x3e0d2c56	0.13786444
201	0x3eb0033b	0.34377465
202	0xbe7d31d3	-0.24726038
203	0xbd5d2d54	-0.053998306
204	0x3da936e7	0.08262425
205	0xbe534d0d	-0.20634861
206	0x3ebd2cc2	0.3694821
207	0xbd1e3465	-0.038624186
208	0x3e09b5a2	0.13448194
209	0xbe124e0f	-0.1428759
210	0x3e3744f7	0.17897402
211	0xbdd48e9a	-0.103787616
212	0xbe796390	-0.24354386
213	0xbe36273d	-0.17788406
214	0xbe224d13	-0.15849714
215	0xbeb3c071	-0.3510776
216	0xbe327bc8	-0.17430031
217	0x3d089702	0.033347137
218	0xbe9dd090	-0.30823183
219	0x3d1b2387	0.03787568
220	0x3d9e948d	0.077431776
221	0xbdb75c38	-0.08953136
222	0x3ef8dbef	0.48605296
223	0xbd7775a4	-0.060414925
224	0x3e88b5a9	0.26701096
225	0x3da22d33	0.07918777
226	0x3e021717	0.1270412
227	0x3db32e9f	0.08749127
228	0xbe6ca6e4	-0.23110539
229	0xbe38ac0c	-0.1803438
230	0xbd256f2f	-0.040389236
231	0x3e8e7509	0.27823666
232	0xbe431392	-0.19050434
233	0x3e550f6f	0.20806669
234	0xbe464cd4	-0.19365245
235	0xbe073701	-0.13204576
236	0x3dadb0cd	0.08480988
237	0x3e15bff6	0.14624009
238	0x3e63861d	0.22219129
239	0xbdb11053	-0.08645692
240	0xbe924a0d	-0.2857212
241	0x3d84c888	0.06483561
242	0x3e81a756	0.2532298
243	0xbe8ae739	-0.27129534
244	0xbe748a9a	-0.23880997
245	0xbe1e4b5c	-0.15458435
246	0xbe8d1916	-0.27558202
247	0xbe107013	-0.14105253
248	0x3e1ceabc	0.15323919
249	0x3da751e6	0.08169918
250	0xbdee801f	-0.11645531
251	0xbeb96bd7	-0.36215088
252	0xbe50b53d	-0.20381637
253	0xbe58dc38	-0.21177757
254	0x3e11da28	0.14243376
255	0xbf25f29f	-0.64823335

total_net.2.net.0.fc.bias f4 [25]
0	0xbcbcdb1c	-0.023053698
1	0xbd918bac	-0.071067184
2	0xbd95554e	-0.07291661
3	0xbcc0e06d	-0.023544515
4	0xbc72b7c9	-0.014814326
5	0xbd1a1f78	-0.037627667
6	0xbd6da2a4	-0.058016434
7	0xbda0fe5e	-0.07861017
8	0xbe0a793d	-0.13522811
9	0xbd8756b2	-0.06608333
10	0xbd2bbc89	-0.041927848
11	0xbd094e17	-0.033521738
12	0xbc7c8b7f	-0.015414118
13	0x3c3f24ba	0.011666471
14	0xbda80c07	-0.08205419
15	0xbc6f9cc6	-0.01462478
16	0xbcc1f1f0	-0.023674935
17	0xbd86d789	-0.06584079
18	0xbd632f1f	-0.05546486
19	0xbd1e7ad8	-0.03869137
20	0xbd1160dd	-0.035492767
21	0xbd69c86c	-0.057075903
22	0xbd152901	-0.036416057
23	0xbdc82cfe	-0.097742066
24	0xbcf348df	-0.029697834

total_net.3.weight f4 [3, 25]
0	0xbdab0cf0	-0.08352077
1	0xbcbb6c20	-0.022878706
2	0x3ec29218	0.38002086
3	0x3cbe064e	0.023196366
4	0x3e93ce0c	0.2886814
5	0xbd97fc36	-0.07421152
6	0x3dfde468	0.12397081
7	0x3dd0dd4a	0.101984575
8	0x3dc9d6cf	0.098554246
9	0x3eb8efa3	0.36120328
10	0x3e583be1	0.21116592
11	0x3e6e692e	0.2328231
12	0xbedc52a7	-0.4303181
13	0x3e781cc3	0.24229722
14	0x3d9576e0	0.07298064
15	0xbe28eb0d	-0.16495915
16	0x3e591ae7	0.21201669
17	0xbe9e73dc	-0.3094777
18	0x3aacf858	0.0013196571
19	0x3e59f509	0.2128488
20	0x3cee643d	0.029100532
21	0x3e41e230	0.1893394
22	0xbd4a8ed9	-0.049452636
23	0x3d0494a6	0.032368325
24	0x3e582324	0.21107155
25	0xbce1d3b6	-0.027566772
26	0xbba4a237	-0.0050242203
27	0x3e839370	0.25698423
28	0x3bd78657	0.006577294
29	0xbdb418ba	-0.08793779
30	0x3f521895	0.8206876
31	0xbe0c74a3	-0.13716368
32	0x3cfbaf6b	0.030723294
33	0x3d01f2fa	0.03172586
34	0xbc378356	-0.0112007465
35	0x3c667a11	0.014067189
36	0x3e8a9eb8	0.27074218
37	0x3de2ba62	0.11070706
38	0x3d9c15cb	0.07621344
39	0xbec5ca1e	-0.38630766
40	0xbd90ee48	-0.070766985
41	0x3d844fad	0.064605094
42	0xbdc513c7	-0.09622913
43	0xbea9b9fe	-0.33149713
44	0x3d9c5a23	0.0763438
45	0x3ee50d60	0.44736767
46	0xbf0b2431	-0.543521
47	0xbe3187e9	-0.17337002
48	0x3d8bd33e	0.068274006
49	0x3d99a817	0.07502764
50	0xbe06bc63	-0.13157801
51	0xbd27bc9b	-0.040951353
52	0x3e8f85ca	0.2803176
53	0x3d1239ee	0.035699777
54	0xbe25df5b	-0.16198485
55	0x3e332de4	0.17497975
56	0xbc89bb01	-0.016812803
57	0x3e295983	0.16538052
58	0x3e1e3403	0.15449528
59	0x3e094388	0.13404667
60	0xbe1a0f4d	-0.150449
61	0xbdd1a72b	-0.10236963
62	0x3e33978d	0.17538281
63	0x3ec64829	0.3872693
64	0xbf3a8dc2	-0.72872555
65	0xbeaa36ea	-0.3324502
66	0x3ead916b	0.33900008
67	0xbefcf145	-0.49402824
68	0xbe555276	-0.20832238
69	0x3eb091d7	0.34486267
70	0x3f11f68d	0.5701683
71	0x3f0eebcc	0.5582855
72	0x3ef837c5	0.4848005
73	0x3e3dc2ea	0.18531385
74	0xbf0fba48	-0.5614362

total_net.3.bias f4 [3]
0	0x3964d501	0.00021823125
1	0x396b854e	0.00022461006
2	0xbad1c308	-0.0016003558
