Modeling eMNS/checkpoint.pt (torch, 35620 bytes, 8 tensors)

total_net.0.net.0.fc.weight f4 [100, 15]
000000 c8 7b bc bd 76 51 98 be d3 e0 52 be 5e 7b 9d bd
       -0.09203297 -0.2974965 -0.20593576 -0.07689546
000010 a5 3f 00 be 1c 65 5f bd 0c 5d 90 3e 34 e2 a7 3e
       -0.12524278 -0.054539785 0.2819599 0.32789767
000020 22 db 8b 3e d5 41 b4 bd 79 e3 8a 3d 2f 1d 16 3e
       0.27315623 -0.08801619 0.06781668 0.1465957
000030 48 1b 89 3d fe 84 0a be d7 f2 50 3f da 36 cb 3c
       0.066946566 -0.13527295 0.81620544 0.024806429
000040 44 80 67 3e e6 00 83 3e 37 f8 56 be b9 70 94 bd
       0.22607523 0.25586623 -0.20993124 -0.07248063
000050 7f c2 57 be dd 88 f6 bd cb 43 71 3d c5 77 cc be
       -0.21070288 -0.12037823 0.058902543 -0.39935127
000060 9c 9b 5b 3e 3c 5f 9a 3e 34 04 f7 3c ed 8b 92 be
       0.21446079 0.30150783 0.030153371 -0.2862238
000070 2b 08 c9 be c1 cb e3 be 50 8b 0d bd 1e f6 2f 3e
       -0.39264044 -0.4449139 -0.034556687 0.1718373
000080 24 97 a1 be 2a 60 44 bd f4 1d 31 3f 1a e9 d9 bd
       -0.31560624 -0.04794327 0.6918633 -0.10640164
000090 1a a8 73 3e 11 7f 27 3e 89 ed 01 bd da 4a 73 be
       0.23794594 0.16357066 -0.03172067 -0.23759022
0000a0 48 ff 5b be 63 14 0e be 2c 54 ea be 58 23 4f bf
       -0.21484101 -0.13874964 -0.45767343 -0.80913305
0000b0 81 ac dc 3e cf 29 28 be c5 62 91 bd eb 29 cb ba
       0.4310036 -0.16422199 -0.07098917 -0.0015500163
0000c0 e0 4f 62 bd f1 bf 8b be fd 76 f3 3e f6 f4 0c be
       -0.055251956 -0.27294877 0.47551718 -0.1376532
0000d0 7d 07 9c 3d 1f 40 98 3d 8d 15 2e bc a2 c6 88 bd
       0.07618616 0.07434105 -0.010625255 -0.06678511
0000e0 d9 48 61 bd 10 15 1a 3f 36 8c db be 8b 0e 96 3e
       -0.055001114 0.6018839 -0.4288041 0.2930797
0000f0 b7 f5 07 3d e7 bc 19 bf 98 17 46 be d5 67 e5 bd
       0.033193316 -0.6005387 -0.19344938 -0.11201445
000100 f7 51 90 3e ec a0 6e 3e 9a 25 34 be ba 66 6e 3e
       0.28187534 0.23303574 -0.17592469 0.23281375
000110 f2 bd cc be c6 82 8e 3e ac d4 82 bd e3 11 1b 3f
       -0.39988667 0.27834147 -0.0638822 0.6057417
000120 27 a7 43 be c7 32 f3 3e 50 88 23 3f 48 3f 97 3d
       -0.19106732 0.47499678 0.6387987 0.07385117
000130 b7 8a dd bd 14 4a 0a bd 03 9d a6 3e 43 4b 47 be
       -0.108174734 -0.033762053 0.32541665 -0.19462304
000140 3b 87 ff 3d c1 51 54 3e 1d 7e c4 3d 17 71 48 be
       0.12476965 0.20734312 0.09594367 -0.1957439
000150 29 ac 9e 3d c1 a8 06 bf 0a c6 9a 3e d1 ea 9a bf
       0.07747681 -0.5260125 0.30229217 -1.210291
000160 6b c4 01 3e 34 19 cb 3d 48 ca 47 3d c8 7e 91 3d
       0.12672584 0.099169165 0.048776895 0.0710426
000170 f1 fb 91 be d6 91 b7 bd 68 17 a4 bd 7d 6a f7 3e
       -0.2851253 -0.08963363 -0.08012277 0.48323432
000180 29 a0 81 be ce ce 3c bd 04 45 fd 3e 7a d4 3d 3f
       -0.25317505 -0.04609566 0.49466717 0.7415234
000190 a9 36 87 bd 6c c1 06 be 70 19 49 3f 2f 50 f3 bd
       -0.066022225 -0.13159722 0.7855444 -0.11880528
0001a0 c3 b1 4b bf 29 d4 b9 3d 6f d2 b3 bf 31 22 a0 3e
       -0.7956812 0.090736695 -1.4048594 0.31276086
0001b0 ef 88 ef 3d d8 5f c4 bd 98 f4 d6 3d e9 6f 07 3d
       0.1169604 -0.09588593 0.10495871 0.03306571
0001c0 19 23 ef 3d 12 f1 af 3d ed 25 51 3d 81 07 d5 bd
       0.11676616 0.085909024 0.05106156 -0.10401822
0001d0 ad 30 e0 bc b5 1f b8 3d 88 64 57 be b1 71 69 bd
       -0.02736696 0.08990423 -0.21034443 -0.05699319
0001e0 b2 22 ed 3e b5 0d 26 be cc 6a c6 3d 5d 8d 80 bd
       0.46315533 -0.16216166 0.09688339 -0.06276963
0001f0 43 1b 0e 3e c4 08 b2 3e f5 04 2b 3e 53 8e 03 3f
       0.13877587 0.34772313 0.1670111 0.51389045
000200 f7 58 90 be 0b 09 82 bd cc 91 f2 be d5 13 30 3e
       -0.28192875 -0.06349381 -0.4737686 0.17195065
000210 5b a7 42 3e ee 3d 80 3e 23 42 8c 3d 35 fd 8b be
       0.19009154 0.2504725 0.06848552 -0.2734162
000220 9a 99 ac 3e d6 11 0e 3e b7 b8 0a 3f c8 0d 05 3e
       0.3371094 0.13873991 0.541881 0.12993538
000230 8f bc ce 3e 74 2b 44 be cb e1 81 bd 42 b1 bf be
       0.40378234 -0.19157201 -0.06341895 -0.37439924
000240 4d e2 62 be 74 2c 77 3d fd 9a 6c 3e 79 e0 e0 3e
       -0.2215664 0.06034513 0.23105998 0.4392126
000250 e9 23 c0 3e 93 c8 43 3f 81 45 bf 3e 7e e4 99 3e
       0.37527397 0.76477927 0.37357715 0.30057138
000260 f1 89 05 be 60 cd 85 be 1d 65 89 be 8f 63 b5 be
       -0.13040902 -0.2613325 -0.26834956 -0.3542752
000270 15 26 73 bd aa 20 73 be 05 87 01 3f 13 5f 62 3e
       -0.05936249 -0.23742929 0.5059665 0.2210658
000280 43 4a e3 3d 0d 52 39 3e a8 dd 28 be ee e7 05 3f
       0.11098149 0.18097706 -0.16490805 0.5230702
000290 56 1b b0 3e 7f ea e3 be cf d7 9f bd 76 6f 98 be
       0.34395856 -0.44514844 -0.07804834 -0.29772538
0002a0 50 f2 84 ba 61 3a 5e be 16 9e 32 3f 76 d3 29 3d
       -0.0010143016 -0.21701957 0.6977247 0.04146143
0002b0 f9 e3 85 3e ef 89 0e 3e 80 39 e5 bc 4f 84 81 3e
       0.26150492 0.13919805 -0.02798152 0.25296256
0002c0 a1 97 97 be 45 48 2c bc 53 27 90 3e a6 66 25 3c
       -0.2960787 -0.010515277 0.28155002 0.010095274
0002d0 1e 44 53 3d 1f be 05 3c 1e 73 04 3f 54 b6 b3 3e
       0.051578633 0.008163004 0.51738155 0.35100043
0002e0 3f 59 55 3e 0b bd 86 3e 83 7e ca be 0f 12 b2 be
       0.20834826 0.26316103 -0.39549646 -0.34779403
0002f0 df f0 b8 3e b3 5c 10 bd 76 d3 44 3e b5 c8 9f be
       0.3612127 -0.035244655 0.19221291 -0.31207815
000300 b7 73 9b 3e ff 4c 15 bd ba 22 1c 3f 48 7c 8a 3e
       0.3036172 -0.036450382 0.6099049 0.27047944
000310 8b c5 05 3f b4 97 e1 3e 23 1b 35 bf b0 20 5f 3e
       0.5225455 0.44061053 -0.7074453 0.21789813
000320 ce 19 ed bb 27 c4 dc be 4f 5f bc bd 49 ce f3 be
       -0.007235742 -0.43118402 -0.09197866 -0.4761832
000330 95 c0 a0 bd da 6e 92 3e 09 7e 6a 3c 32 9c cb bd
       -0.07849232 0.28600198 0.014312276 -0.09941901
000340 be a2 ee 3e c2 0f 02 3e e2 e5 71 be 68 eb 68 3e
       0.46608537 0.12701324 -0.2362285 0.2274605
000350 28 32 14 bf de 9e 1d bf e4 b8 06 3f 01 62 b2 be
       -0.5788903 -0.6157054 0.5262587 -0.34840396
000360 b6 fb be be 94 35 0c be 9d 05 ca bd 40 d9 17 bf
       -0.37301415 -0.13692313 -0.09864352 -0.5931587
000370 d1 2b 1d be 98 2b 45 bf 70 2c a6 be db 40 50 3d
       -0.15348746 -0.77019644 -0.32455778 0.0508431
000380 60 aa 8b be d1 ea ba 3e 27 09 21 3f cf 1c 23 3f
       -0.27278423 0.36507276 0.6290459 0.63715833
000390 66 00 8f 3e 2a 2c 8f be 47 c8 18 be b9 bd d1 be
       0.2792999 -0.27963382 -0.1492015 -0.4096506
0003a0 26 26 32 bc 8f 94 ad bc 59 b1 31 be f4 3c 1f 3c
       -0.010873353 -0.021189002 -0.17352809 0.009719122
0003b0 42 a8 6c 3e ca 86 36 be cb 68 af 3e 94 c1 a8 3e
       0.2311106 -0.17824855 0.34259638 0.32960188
0003c0 ca 63 bc bd fc 00 f5 bb 59 12 9f 3d 0a 01 87 3e
       -0.09198721 -0.007476924 0.077671714 0.2636798
0003d0 59 43 f1 be 62 ea 99 3e 66 08 3b 3e c3 cb cf bd
       -0.47121695 0.30061632 0.18264922 -0.10146286
0003e0 fd 19 56 bd e5 ce a4 3e 05 49 78 3e c9 d6 3e 3f
       -0.052270878 0.32189098 0.24246605 0.74546486
0003f0 a6 78 f9 bd 69 90 f1 3e 02 3b 9d 3d ed 03 10 be
       -0.12181215 0.4718049 0.076772705 -0.14063998

total_net.0.net.0.fc.bias f4 [100]
000000 9c 8a 24 be 34 25 b8 3e b8 5d 38 3e cd 1a 0a bf
       -0.160685 0.35965884 0.18004501 -0.53947145
000010 26 1a d5 bd 45 2c 16 3d 65 a6 60 3e dd 6d 72 3d
       -0.10405378 0.036663312 0.21938474 0.059186805
000020 79 47 0f bb 1d 97 e2 3b 2a ef e6 bd 8b 66 9f be
       -0.002186267 0.0069149868 -0.11276086 -0.31132922
000030 e2 af 18 3c 87 8a ad bd 00 00 00 00 4d 90 40 3d
       0.0093192775 -0.084736876 0.0 0.047012616
000040 fd 60 24 bd 95 be 5b 3e 4e b8 b5 be 15 d1 f5 3d
       -0.040131558 0.2145942 -0.35492176 0.1200277
000050 fc 73 c8 3e 04 e0 5c 3e 26 b9 2a bd 8f 8f a5 bd
       0.3915099 0.2156983 -0.041680478 -0.08084022
000060 28 6d 90 bc d7 77 be 3e 8e fc b0 be 2e 8a 6f be
       -0.017630175 0.37200806 -0.34567684 -0.23392555
000070 ee 9e 42 3b 68 c0 e0 3e 2d 76 a8 bd a9 5c 5d be
       0.002969678 0.43896794 -0.08225665 -0.21617378
000080 08 eb 3b 3e db 48 c6 3e 30 43 6a 3d 1d 9a 7c 3e
       0.18351376 0.3872746 0.05719298 0.24668165
000090 9c 5f 86 be f5 0d ce bc c2 a6 ac 3d 79 5d ee bd
       -0.2624482 -0.02515314 0.08430244 -0.11638922
0000a0 f7 64 86 3e 22 40 20 3c 5a da 0c be c1 f7 b5 bc
       0.26248905 0.009780915 -0.1375517 -0.022212865
0000b0 9c 81 f8 3d 58 77 6e bd 00 00 00 00 a6 ea ae 3d
       0.12134096 -0.058219284 0.0 0.085408494
0000c0 19 9b 73 3e 5f 7b d6 be 4a 61 de bd 40 e9 b0 3d
       0.23789634 -0.41891 -0.108584 0.08638239
0000d0 3b 6b bd 3e 19 3d 77 3e 25 51 be bd e6 57 80 3e
       0.36995873 0.241444 -0.09292821 0.2506706
0000e0 0c d0 93 be fb 54 80 3e f1 b4 a1 be fb 20 c1 3d
       -0.28869665 0.25064835 -0.3158336 0.09430119
0000f0 7d c4 0d bd 9e e8 17 be ba 91 03 3e 38 2d 1a 3d
       -0.034611214 -0.1483483 0.12848559 0.03764078
000100 fe 7d 4a bd ba d3 9d 3c a6 b3 3c bc 89 3e 0c bd
       -0.04943656 0.019265998 -0.011517441 -0.034239326
000110 d6 9a 62 bd 7a 1b 69 3e 8a c6 d3 bd 17 c2 94 bd
       -0.055323444 0.22764388 -0.10340603 -0.07263582
000120 1e 86 d9 3e 68 a0 01 bf 7b 31 cb be 98 6d 26 3c
       0.42485136 -0.50635386 -0.39686188 0.010157965
000130 6e d1 89 3d bb 7a b3 3d 87 4c 91 bd ef 1d 62 3e
       0.06729399 0.08763643 -0.070946746 0.22081731
000140 75 31 36 3e 13 b6 2b be dd 80 cb 3c 21 f0 44 3e
       0.17792304 -0.16768675 0.02484172 0.19232227
000150 13 98 8b 3e b2 25 b4 bd fd 9b 27 3f 7d b5 6f be
       0.2726446 -0.08796252 0.65472394 -0.23409076
000160 1e 50 4a 3e 73 22 c5 3d 2e e9 c8 3e cd a7 cc 3d
       0.19757125 0.09625711 0.39240402 0.09992943
000170 87 91 9c 3e e6 01 08 3e 54 19 e1 3e db 20 32 3e
       0.3057978 0.13281974 0.43964636 0.17395346
000180 58 39 2e 3d 89 5d 28 bc f5 2a a1 be b8 92 52 be
       0.042535156 -0.010276207 -0.31478086 -0.20563781

total_net.1.net.0.fc.weight f4 [50, 100]
000000 e7 d1 0f be f7 ab ab be a0 c4 95 3d 3d 12 4c bd
       -0.14044915 -0.33529636 0.07312894 -0.04982208
000010 5a b3 45 3c fd ff b1 3e 59 5e cc bd 73 7a 41 be
       0.0120666865 0.34765616 -0.09978933 -0.18894367
000020 ac ae 0d 3e 8b e9 fa bb f8 dc 2d bd 61 e0 34 3d
       0.13836163 -0.007657235 -0.04244706 0.044159297
000030 9a 29 2d 3e 9f da 07 be b0 4d c5 bb 33 36 f9 3d
       0.16910401 -0.13266991 -0.006021224 0.12168541
000040 f3 da bb bc 82 8d 2d be 58 44 b5 bd ee 4f ac bd
       -0.022931552 -0.16948512 -0.08850926 -0.08413683
000050 87 b7 93 bc 21 d7 3c bd a1 e3 14 3e 49 1c c2 be
       -0.018031849 -0.0461036 0.14539959 -0.37912205
000060 ad 5a 6d be 34 5f 6b 3e 9c 30 f2 bc 9d 8d 3c 3e
       -0.23179121 0.22985536 -0.029564194 0.18413396
000070 26 9b 9b 3d 25 fb 75 3d 57 a5 d3 3d e7 5b 24 3e
       0.075979516 0.060053963 0.103342704 0.16050683
000080 c6 9c 0e bc 72 a3 b8 bd 1f 88 00 bd 8e ba 97 bd
       -0.00870437 -0.0901555 -0.031379815 -0.07408629
000090 03 09 fd bd c3 d2 55 bd ba 9b 92 3d 01 04 99 be
       -0.123552345 -0.05220295 0.07158609 -0.29885867
0000a0 fa 09 d6 3d e7 59 7c bc 49 bc bf 3c d7 a4 8d 3c
       0.10451122 -0.015402294 0.023405211 0.017290516
0000b0 54 f7 b1 3d 4e 8d e1 3d c6 3e c4 bd 51 b5 e5 3d
       0.08689752 0.1101328 -0.095822856 0.11216224
0000c0 ac bd 6e be 82 8e 51 3d 16 26 c9 bc c4 15 40 bd
       -0.23314542 0.051161297 -0.024554294 -0.046895757
0000d0 4b fe da 3d 3a 0d 8a 3e 29 58 03 3e 1c 23 97 be
       0.10693034 0.26963216 0.12826599 -0.29518974
0000e0 62 32 2b bd 42 e7 60 3d b0 78 2e bd 66 a1 95 3e
       -0.041796096 0.054908045 -0.042595565 0.292247
0000f0 70 89 76 3e cb 03 af bd fe 67 56 be 9e f4 17 bd
       0.24075866 -0.08545645 -0.20938107 -0.03709852
000100 dd af 88 3e 08 b3 1c 3e d2 ca b3 bd a1 66 d9 bd
       0.26696673 0.1530267 -0.08778919 -0.10615278
000110 74 dc e1 3d 77 8b 6c 3c ae 6f b6 3c cb 53 d5 bd
       0.11028376 0.014437548 0.02227005 -0.10416373
000120 65 01 3f bd 17 f1 4f 3e 34 2d 34 3d d0 28 2c bd
       -0.04663219 0.20306812 0.04398842 -0.04203111
000130 fb 42 e6 3d b0 4c 69 3d be d1 d3 3d de b1 68 3e
       0.11243244 0.0569579 0.103427395 0.22724101
000140 f3 56 8f 3e 56 d1 17 bd 0a 74 29 bd 5c d7 1d be
       0.27996024 -0.037064873 -0.04137043 -0.15414184
000150 77 3d 82 3c 23 ae cd 3d ec 06 8d 3e 4f a3 88 bd
       0.01589845 0.100429796 0.27544343 -0.06671774
000160 e5 6a d7 bc d5 14 9c 3d c7 6c a9 3d 8a f0 88 3c
       -0.026296088 0.07621161 0.08272701 0.01671626
000170 f2 05 04 3d 16 e2 4a 3e 54 99 0b bd 3c 28 b3 bc
       0.032232232 0.19812807 -0.034081772 -0.021869771
000180 f0 a7 db bc 08 f4 18 3e 86 4d aa be 75 7e fd 3c
       -0.026813477 0.1493684 -0.3326227 0.030944088
000190 86 49 71 be 8f cd d1 bd 00 cc 3d be 90 9a 65 bd
       -0.23563203 -0.10244285 -0.18534851 -0.056055605
0001a0 40 79 6a bc 42 08 af bd ea 3c 3f be 31 1d ba 3b
       -0.014311135 -0.08546497 -0.1867558 0.0056797494
0001b0 15 1b 41 3e 3a 81 d5 bd 96 72 f5 3d 75 4d fe bc
       0.18857987 -0.10425039 0.11984746 -0.031042794
0001c0 37 95 10 be 4b c9 e0 bd 1f 94 63 3e a5 d8 fb 3c
       -0.14119421 -0.109758936 0.22224472 0.030742953
0001d0 80 17 38 be cc c5 14 be 60 6b 55 3e aa 9b 23 be
       -0.17977715 -0.14528579 0.20841742 -0.1597735
0001e0 1b 4f 42 be 43 db ae 3d 9d 4f 87 3d d6 1d f2 3d
       -0.18975489 0.085379146 0.06606982 0.11822097
0001f0 91 0a da bd b8 e3 50 be a2 39 6a be 4f 7b 2e bd
       -0.10646547 -0.20399368 -0.22873548 -0.042598065
000200 06 8e f7 3d 7d 20 96 bd 98 8f 59 bd 50 1c 60 bd
       0.12087636 -0.073304154 -0.053115457 -0.0547145
000210 23 bb 09 3e 56 a0 33 be b0 e9 7d 3c 54 97 01 bb
       0.13450293 -0.17541632 0.01549761 -0.0019774036
000220 f6 27 83 3e 44 8e 86 3d 55 15 79 be b4 ac 92 3a
       0.25616425 0.06570104 -0.24324544 0.0011190386
000230 32 df b5 bd 9d c5 e9 bd 97 6d 32 bd e5 f0 19 be
       -0.08880462 -0.11414645 -0.043561544 -0.150333
000240 47 70 33 3e dc 5c a5 bb 2a 93 7d bd 0d ab 44 be
       0.17523299 -0.00504647 -0.061907925 -0.19205876
000250 04 4f 35 3d 25 0d a5 3d fd 08 ec 3d a9 33 0c be
       0.04426481 0.08059148 0.11525152 -0.13691582
000260 17 5b 96 3e 27 9d f9 3d 1d 29 ce bd 89 15 bb bd
       0.2936637 0.121881776 -0.100664355 -0.09134967
000270 df d2 8c 3d 46 ab 2c be 18 3b 64 3d 3b fa b6 bc
       0.06876158 -0.1686221 0.05572042 -0.022336116
000280 2b 17 f0 3c ab 19 32 bd 71 56 58 bd b4 d8 36 3d
       0.029307922 -0.04348151 -0.052816812 0.044640258
000290 f0 58 8a 3c b5 54 fa 3d 52 42 4c be 65 41 ae bc
       0.016888112 0.12223188 -0.19947174 -0.021271417
0002a0 a8 67 15 3d 36 eb 95 bd a5 b1 ae 3c 86 e2 ce bd
       0.036475807 -0.073202536 0.021324942 -0.101018
0002b0 05 14 9f 3d d7 a8 02 bd 25 9e 43 3e 52 f2 9c be
       0.0776749 -0.0318993 0.19103296 -0.30653626
0002c0 c2 a1 64 bd fc 45 89 3e b1 d7 41 3e 59 d2 c7 3d
       -0.055818327 0.26811206 0.18929936 0.097569175
0002d0 ea e0 c3 bb 40 75 14 be 4a a7 83 bd 60 cb 88 bd
       -0.0059777396 -0.14497852 -0.06428392 -0.06679416
0002e0 18 4c 31 3b dd 5f 27 3d 2a 2c 8b bd 6a 45 d6 3d
       0.0027053412 0.040862907 -0.06795533 0.104624584
0002f0 91 1a 05 3c 00 c7 f2 bb b3 2f 9b bd 9d 73 42 bd
       0.00812401 -0.0074089766 -0.07577457 -0.04747354
000300 e7 a9 98 be d8 72 30 be 52 31 f6 bd 27 53 57 bd
       -0.29817125 -0.1723131 -0.12021126 -0.052569535
000310 fc ef 36 bd b5 9e be be ed 84 60 be 42 2a 5c bd
       -0.04466246 -0.3723046 -0.21925707 -0.053751238
000320 a2 f0 2b be 18 82 22 3e 32 5e 9e 3c 4a a8 c3 3d
       -0.16791013 0.1586994 0.019332025 0.09553583
000330 a7 ff d3 3d be 45 94 bd 92 dc 03 3d 91 ec 41 be
       0.10351496 -0.07239865 0.032192774 -0.18937899
000340 44 d9 83 be 63 02 96 3d e9 b3 39 3e fd c4 e9 bd
       -0.25751698 0.07324674 0.18135037 -0.11414526
000350 02 1c 3e bc 1d a6 a0 bd 8c c8 50 3e 29 8c be 3d
       -0.011603357 -0.078441836 0.20389003 0.09304077
000360 0d 16 0d be 76 6d 51 be c8 50 49 be 13 13 ed 3d
       -0.13777943 -0.20451912 -0.19659722 0.11575904
000370 fa 1a 1c 3e 0f 71 28 3e 24 2e 0a 3e 87 f6 dc 3d
       0.15244666 0.16449378 0.13494164 0.10789209
000380 42 30 6e 3d fe fd 2d 3e 3c a1 54 3e 69 7e 61 3d
       0.05815149 0.16991422 0.20764631 0.055052195
000390 9b d0 32 3d 47 ba 0d 3e 74 ed 2d be ab d4 97 3e
       0.043655973 0.1384059 -0.16985112 0.2965444
0003a0 f5 b4 02 bc 29 df 28 be fc cf 46 be 0f d1 3b bd
       -0.007977714 -0.16491379 -0.19415277 -0.04585367
0003b0 31 85 3d be 20 f2 bf 3c a3 59 84 bd fc 09 72 bd
       -0.1850784 0.023430884 -0.06462409 -0.059091553
0003c0 98 83 32 be 6d b8 0c 3e 77 4d 55 3e 99 80 fe 3d
       -0.17433012 0.13742228 0.20830332 0.12426872
0003d0 0e 49 32 3d c0 f7 86 bc c6 f3 47 be d9 6c a4 bd
       0.0435267 -0.016475558 -0.19526586 -0.080285735
0003e0 e1 79 d0 3d d6 20 1a 3c 74 ba 03 be e4 fb 36 bd
       0.101794966 0.009407243 -0.12864095 -0.044673815
0003f0 c2 4e e9 bd dc 8e 1e be c6 e6 3e 3d 1d d0 5e 3e
       -0.11391975 -0.15484184 0.0466068 0.21759076

total_net.1.net.0.fc.bias f4 [50]
000000 1b aa b1 3e b0 2e a8 bc 56 8c 9a 3d 6e 4e 7b be
       0.34700093 -0.020530075 0.07546298 -0.24541637
000010 b3 a8 66 3d aa ac 9e 3e c3 e3 15 3e 97 e0 33 bd
       0.056313228 0.30991107 0.14637665 -0.043915357
000020 ae a6 43 bd 98 2a 0f be 1d 52 82 bb 61 a0 67 3e
       -0.04776638 -0.13981092 -0.003977074 0.22619773
000030 bb 29 15 bd 27 80 2b bd f3 b8 ca 3c 4d 68 8e 3c
       -0.03641675 -0.041870262 0.024746394 0.017383719
000040 d0 50 a7 3c 48 bf b0 bd 0d ca f3 3c 3b c4 c2 bc
       0.020424277 -0.08630234 0.029759431 -0.02377521
000050 f5 74 39 bd c8 40 22 3d 4d d2 08 3d 3d 7e 02 bd
       -0.045277555 0.03961256 0.033403683 -0.03185867
000060 20 42 c9 bc 1d f4 0e 3e e2 69 25 be a8 11 99 bc
       -0.024567664 0.1396031 -0.16153672 -0.018685177
000070 6f 38 e3 3d 6b 2c 51 bd 1f 20 6b 3d 7f b6 6e 3c
       0.11094748 -0.05106775 0.05740368 0.014569878
000080 d9 91 02 be 84 bf 49 be f0 a0 3d bd 2a f7 83 be
       -0.12750949 -0.19701964 -0.04629606 -0.2577451
000090 a9 70 e2 3d 26 0e a3 3e 71 6e a0 3e 85 85 5f 3e
       0.110566445 0.31846732 0.3133426 0.21828277
0000a0 42 f2 7e be cc f0 73 3d 76 3c d8 bd 7d 74 81 be
       -0.24897102 0.059555814 -0.10558407 -0.25284186
0000b0 b1 d5 56 bd 04 ba 04 3f 90 6c 55 bd 2a ca cc bc
       -0.052449886 0.5184634 -0.052105486 -0.024998743
0000c0 3e 1d 63 3c 74 44 90 be
       0.013861952 -0.28177226

total_net.2.net.0.fc.weight f4 [25, 50]
000000 e7 cc 64 3d 2a 93 a4 bd ae 91 1a be 3e 23 4a be
       0.055859473 -0.08035882 -0.15094635 -0.19740006
000010 c0 22 9c be 91 f4 80 be 07 fc 0d 3e 08 ee d5 3e
       -0.30495262 -0.2518659 0.13865672 0.41783166
000020 64 c7 bd bd 02 33 cb bd f6 31 25 be 6b e1 b3 3e
       -0.09266546 -0.09921838 -0.1613234 0.35132918
000030 e3 ca 24 3e e5 e6 16 3e 0c 2a ad be 55 6d 48 be
       0.1609302 0.14736517 -0.33821142 -0.19572957
000040 9a b5 6f be 3c 26 69 be f6 a3 33 3e d8 0f 1d 3d
       -0.23409119 -0.22768492 0.17543015 0.038345188
000050 d9 44 36 bd a8 5a e4 bd a2 74 64 3c fc 36 aa bd
       -0.044499252 -0.11150104 0.013943823 -0.08311269
000060 82 ed e7 bd cd 42 01 3c cd d7 b6 bd 42 03 34 be
       -0.11324598 0.007889462 -0.089278795 -0.17579368
000070 99 e8 1d 3e 8d ef d0 bd 98 81 17 3e 52 a6 51 3d
       0.1542076 -0.10201941 0.1479553 0.051184006
000080 eb 58 0f 3e 4c 46 51 bf 35 25 fc 3c f4 1d 36 3e
       0.13998763 -0.8174789 0.03077946 0.17784864
000090 60 c0 0f bd 9f 1d c9 3d 3b cf 43 3e 2b 66 a8 be
       -0.035095572 0.09820103 0.19122021 -0.32890448
0000a0 ca b4 26 be de 2e 6a 3e b6 c7 33 3e a8 5a 56 be
       -0.16279903 0.22869441 0.17556652 -0.2093302
0000b0 04 44 65 3e 12 c5 55 3e fc d3 0a be 42 43 b4 3e
       0.22389227 0.20875958 -0.13557428 0.35207564
0000c0 66 16 55 3e f7 a3 72 be 0e f0 8f be 12 8c ac 3c
       0.20809326 -0.2369536 -0.28112835 0.021062884
0000d0 ec ae ec bd 5c c7 fa bd e6 10 9a 3e c7 ca 73 be
       -0.11556801 -0.12245056 0.30091017 -0.23807822
0000e0 91 54 10 3c 8e 0e 62 3d cc ce 95 3d 8b 66 28 3e
       0.008809225 0.05518966 0.07314834 0.16445367
0000f0 68 63 66 be 0b b9 6f 3d fa 85 79 3d 65 cc 14 bf
       -0.22498858 0.05852608 0.060918786 -0.5812438
000100 77 c0 25 3d 71 04 1a bd 9f 28 43 be c5 22 0b 3e
       0.040466752 -0.037601892 -0.19058464 0.13587482
000110 94 ec f5 be 51 88 9e 3e 7b ca 81 be 76 d3 8d bd
       -0.48032057 0.30963376 -0.25349793 -0.069250986
000120 d4 68 c5 bd e9 30 bc bd 5d 1c 8a be 6c 53 e3 bc
       -0.09639135 -0.09189016 -0.26974764 -0.02774974
000130 ba e2 1e 3e 6b d7 b3 3d 50 db d2 bd 53 5c bf 3d
       0.15516177 0.08781322 -0.10295737 0.09343781
000140 86 90 c4 be 9c 68 a0 be 0c 70 f4 3c c2 68 8f 3c
       -0.38391513 -0.3132981 0.029838584 0.017506007
000150 d9 45 2f be e8 3f 43 be 68 04 8b 3e f2 f8 69 3e
       -0.17116489 -0.19067347 0.271518 0.22848871
000160 0e 4d 8b bd 17 d2 88 be cb 48 97 3e db c2 fe bd
       -0.068018064 -0.26722786 0.29547724 -0.124395095
000170 ad b9 3e 3e a6 8b 56 3e a0 7d 8f bd 3f 98 05 3e
       0.18625517 0.20951709 -0.07006383 0.13046359
000180 71 36 b0 bd dc 9f 3a 3d f8 87 2e bd fb d9 16 be
       -0.08604134 0.04556261 -0.04261014 -0.1473159
000190 04 f1 06 be ab b5 06 3d 58 33 d5 3e d0 ed d8 bc
       -0.13177878 0.032888096 0.41640735 -0.026480585
0001a0 f5 33 26 3e 81 f1 2b be af 8a 9b be ec 5a 13 3e
       0.16230758 -0.16791345 -0.30379245 0.14390153
0001b0 9b 2e 10 3e 14 dc df 3e fe 91 22 3b 7d 39 44 3e
       0.14080279 0.43722594 0.0024806256 0.19162555
0001c0 d2 60 2d be 6b 98 e7 bc 15 71 99 3d 92 d4 8d 3d
       -0.16931465 -0.02827092 0.07492272 0.0692531
0001d0 b9 b1 75 3d 60 b6 c4 bd 69 93 b2 3d e0 71 ad bd
       0.059983943 -0.09605098 0.087195225 -0.084689856
0001e0 7e 69 99 3e 0b 52 95 be b6 a4 3d 3d b8 b4 7d 3d
       0.29963297 -0.29164156 0.04629966 0.061939925
0001f0 61 0b 9f bd 3b 14 3f 3e de 83 7c bc 4f b9 82 bd
       -0.07765842 0.18660061 -0.015412299 -0.06383001
000200 23 22 2e be 2c 98 1b 3e c5 e1 01 3e ab 89 80 3e
       -0.1700521 0.15194768 0.1268378 0.25105032
000210 98 22 08 3e 35 38 a7 3e 14 80 f5 3d 57 aa 00 3e
       0.13294446 0.3266007 0.119873196 0.1256498
000220 fe d4 9e 3d c4 61 dc 3b a4 5c 94 bd 2c 96 3f 3e
       0.07755469 0.0067255218 -0.07244232 0.1870963
000230 8c 2a 91 bd 0d 17 b7 3d 3e f9 a9 3d 88 fb dd be
       -0.07088193 0.089399435 0.08299492 -0.43355966
000240 c8 20 59 be f2 94 cc 3e e0 1f 96 3e 67 28 4b 3d
       -0.21203911 0.39957386 0.29321194 0.049599078
000250 32 ad 82 be d0 05 57 3e 35 8b 91 be 00 ee 5c 3e
       -0.25522763 0.20998311 -0.2842652 0.21575165
000260 6f a2 d0 be 30 fb 21 be a3 ed 07 be 17 d6 51 be
       -0.40748927 -0.15818477 -0.13274245 -0.20491825
000270 91 ad 9d 3d f8 b6 33 3e eb 46 b5 be 06 18 95 3d
       0.07699121 0.17550266 -0.3540567 0.07279973
000280 da 62 51 3e 5b 31 5d bc 8f 8a 09 3e 63 40 f1 be
       0.20447865 -0.013500537 0.13431762 -0.47119436
000290 80 9e 9a be 15 dd 82 be bb 20 1e 3c 3d 12 21 3d
       -0.3019905 -0.25559297 0.009651358 0.039324034
0002a0 75 79 da bd 0f 53 0b bd d4 b6 d4 bd 66 23 01 be
       -0.10667697 -0.034014758 -0.10386434 -0.1261116
0002b0 e5 ef c0 bd d2 16 c8 3c 15 d7 96 3c 14 34 43 3e
       -0.09420756 0.024424944 0.018413106 0.19062835
0002c0 03 f4 61 be 19 3b 25 be 26 1f 98 be 34 54 0d be
       -0.2206574 -0.16135825 -0.29711264 -0.13801652
0002d0 94 04 1e be ce a0 ba 3d 10 e8 a1 3b b2 9f 00 be
       -0.15431434 0.09112702 0.004940994 -0.12560919
0002e0 45 e9 4e 3e 8a 23 00 3e f8 64 a6 3c 7d 6a f8 bd
       0.20206173 0.12513557 0.020311818 -0.12129686
0002f0 64 74 da be 76 98 fd be c3 07 a1 be 6a b8 4f bd
       -0.42666924 -0.4953038 -0.31451234 -0.05071298
000300 a1 38 8f 3d 5a 30 14 bf b2 7d bf 3d f5 36 07 be
       0.06993223 -0.5788628 0.09350146 -0.13204558
000310 91 70 40 3b 3a 74 a8 3e a7 23 6e be b4 6e be 3e
       0.002936397 0.32901174 -0.23255788 0.37193835
000320 cf 0e fb 3d 9d 25 2e 3e cd 03 9a bc 4e bf a1 bd
       0.12258684 0.17006536 -0.01880064 -0.078978166
000330 84 82 8a bd 5f 2b da 3d 16 4d b0 3d 60 6c 9d 3d
       -0.06763175 0.10652804 0.08608453 0.076866865
000340 32 48 9c be 4e 19 00 bd ea f7 20 3b 33 25 d6 bd
       -0.3052383 -0.031274132 0.002456183 -0.10456314
000350 7e a5 a7 3d cc 78 25 3e b6 87 27 3d 5f 05 17 be
       0.08185862 0.16159362 0.04090091 -0.14748143
000360 0b 5f 03 3e b2 d3 60 3e 01 57 9a 3e 96 2d 0c be
       0.12829225 0.21955755 0.30144504 -0.13689265
000370 fa c6 f9 bd 45 27 2f 3d 02 e7 48 be 86 a6 ad bd
       -0.12196155 0.04276206 -0.19619372 -0.084790275
000380 02 c6 da be ea 8e 67 3c d4 1a 50 be 44 26 4d 3d
       -0.42729193 0.014133194 -0.20322734 0.05008532
000390 c0 b7 7e bd 2e 9a 3c 3c 62 aa dd 3d db 39 13 3e
       -0.062186956 0.011511369 0.108235136 0.14377539
0003a0 9f 9d cf bd 46 62 1e 3e e2 8a 35 be 0f 80 87 be
       -0.10137486 0.15467176 -0.17728761 -0.26464888
0003b0 1d d4 58 3d 89 ac 02 3d 15 be 59 3d bf ca a3 3c
       0.052936662 0.031902824 0.053159792 0.019994138
0003c0 19 5a 52 3e 5f 79 ab bc 79 de 8b 3c a4 2c 20 3e
       0.20542182 -0.020931898 0.017073857 0.15642029
0003d0 4a 51 c9 3d 1e fc 40 bd 25 55 ea 3d b7 3c 80 be
       0.09829958 -0.047115438 0.11442021 -0.25046322
0003e0 cc 5b 84 bd 70 3e 3f be 9f 6b 5b bb 32 0a f4 bc
       -0.06462821 -0.18676162 -0.0033480895 -0.029790018
0003f0 c1 6d 96 3e a0 e1 23 3e 08 c4 cd 3d d7 dc a1 3c
       0.2938061 0.16004038 0.100471556 0.019758625

total_net.2.net.0.fc.bias f4 [25]
000000 be aa cc 3c 91 f5 4b bd 2d 32 7a 3d 69 4a af bd
       0.02498376 -0.049794737 0.061083008 -0.085591145
000010 f2 f1 50 3d 16 6e 9e 3d 05 7f 0a bd 93 72 5e bd
       0.051011987 0.07735841 -0.03381254 -0.054308485
000020 12 48 c4 3d 07 ee 8d 3a 8b b2 ca bd 2b e5 a0 bd
       0.09584059 0.0010828384 -0.098973356 -0.0785621
000030 7a 56 20 bd e9 45 fb bc 4a 17 4c bd 19 73 9f 3d
       -0.03914497 -0.030672984 -0.049826898 0.07785625
000040 a3 bd 25 bd 2b d7 71 bd 53 4e d1 ba 22 c7 59 3d
       -0.040464055 -0.05904309 -0.0015968777 0.053168423
000050 75 d4 54 bd 97 c3 f4 3d 55 57 ce 3d 64 4d 74 bd
       -0.051960427 0.11951368 0.10075251 -0.059644118
000060 f0 64 82 3d
       0.063669086

total_net.3.weight f4 [3, 25]
000000 25 41 93 bd 8e 34 3a 3e 38 03 90 3e e1 bb 1d bd
       -0.0719016 0.1818411 0.28127456 -0.038509253
000010 bc b2 2b 3f d3 24 a7 3e b2 13 cc 3d 20 d4 c3 bd
       0.670696 0.32645282 0.09964694 -0.09561944
000020 c8 51 18 bc c7 36 32 bd 07 fb 34 bd 1a c1 e3 3e
       -0.009296842 -0.04350927 -0.04418471 0.44483262
000030 91 d4 c0 be 5f 1b 6f 3c 11 e9 ce be 35 79 d1 3d
       -0.37662175 0.014593928 -0.4041219 0.102281965
000040 02 ee 57 3e a8 db 87 be a8 fe ac be 3a a4 5d 3e
       0.21086887 -0.26534772 -0.33788037 0.21644679
000050 7e 11 96 be c9 c2 a6 3e 7b 37 aa bd 80 e9 77 3c
       -0.2931022 0.32570484 -0.08311363 0.015131354
000060 0a 29 93 bd 21 f5 01 3c 90 28 58 3c 06 ff 90 bd
       -0.07185562 0.007931978 0.013193265 -0.07079892
000070 9a 0e 00 bf b2 e8 a8 3e 0b 80 95 3e 40 f9 34 be
       -0.5002228 0.32990032 0.29199252 -0.17673206
000080 90 e2 00 3a b8 48 0d 3e 4b c9 f2 bd 3e 39 8c bd
       0.0004916573 0.13797271 -0.118548 -0.068468556
000090 6a e9 05 3e 9f b9 85 be 61 e6 b9 3e 6f d2 70 be
       0.13077322 -0.2611818 0.36308578 -0.23517774
0000a0 a8 46 1d 3e 25 ca 03 bf 23 5d 38 be 5f 34 74 3c
       0.15358984 -0.51480323 -0.18004279 0.014905064
0000b0 d7 f2 31 bd 85 31 e5 bd 6d cc 0f bd e4 e2 e9 3d
       -0.04344448 -0.11191086 -0.035107065 0.11420229
0000c0 67 36 b6 3e f3 26 cd 3e 67 1c 1c bd 0a e5 90 be
       0.3558838 0.40068778 -0.038113024 -0.28299743
0000d0 31 6c 6b 3e ce b8 90 bd ef e3 86 bd 4e 20 82 3d
       0.2299049 -0.07066499 -0.06586444 0.06353818
0000e0 3d b1 2e bd b2 c5 16 3f 11 db cb 3e ae c3 9e bd
       -0.042649496 0.5889541 0.39815572 -0.07752167
0000f0 0f 8b 8f be 96 9c 33 3e 6f 4d 96 3e bd 6e 13 be
       -0.2803578 0.17540202 0.29355952 -0.14397712
000100 17 ab 94 3d 24 6a 93 bd 36 75 71 3e 4c 68 58 be
       0.07259195 -0.07197979 0.23579869 -0.21133536
000110 d1 92 44 3e 75 a3 97 bd 41 38 c6 bd df f3 00 3f
       0.19196631 -0.07404224 -0.09678698 0.5037212
000120 50 15 b4 3d 9d 45 59 3e 38 2d 0b be
       0.087931275 0.21217962 -0.13591468

total_net.3.bias f4 [3]
000000 ef 1e 21 3d 4a ee cd 3d b0 92 bd 3d
       0.03933614 0.10055216 0.09256494
