Modeling eMNS/checkpoint.pt (torch, 35620 bytes, 8 tensors)

total_net.0.net.0.fc.weight f4 [100, 15]
-0.23146294 -0.72070944 -0.44473252 -0.3441111 0.79829687 -0.3530696 0.5049971 -0.30065843
0.3974357 -0.14445592 0.63078535 0.019397259 0.06780648 0.08146357 0.046737578 -0.13472942
0.025666624 -1.0383048 -0.20546868 -0.78235227 0.0028995157 -0.67443776 -0.37171954 -0.5162687
0.6759167 -0.09621882 1.0442363 0.028358292 0.03330883 -0.02606312 0.43702775 -0.14398766
0.038517322 -1.1850158 0.6587575 -0.16153248 -0.40728092 0.7540919 0.033848204 0.29665256
0.12311658 -0.15374586 0.039166506 0.036235675 -0.03863136 -0.005116341 0.8039032 -1.509145
-1.0167714 0.45129016 -0.01864791 0.27535206 -0.91307205 -0.19498016 -0.2478422 0.6851748
0.10294297 -0.06527961 -0.047846664 0.028124634 0.059054665 0.5255997 -0.50512075 0.3061416
-0.17410822 -0.06982872 0.9713483 0.38140613 -0.019559927 -0.29283214 0.41350797 -0.7880215
-0.016393682 0.03210928 0.06265706 0.19917531 0.088463336 -0.49504584 0.3834431 -0.5513222
0.48215276 -0.5190698 -0.38197252 0.3552317 0.6840244 0.4936135 -1.6981987 -0.00017134902
0.014357709 0.03370829 0.1748075 0.45995754 -0.052531023 0.27326214 0.08426992 -0.464209
0.18034828 -0.0553179 0.25730038 0.20411511 0.1812704 0.18281282 0.09183441 -0.083483666
0.0024963194 0.9410026 -0.34325185 -0.054544915 0.7123391 -0.13593125 -1.1626097 -0.37445086
0.24881177 -0.38331315 -0.87461656 -0.3589844 0.97578907 0.017204985 -0.010562334 -0.0003440172
-0.0768812 0.07573609 0.6890261 0.08031704 -0.27052316 -0.14903665 0.4768548 0.25386906
-0.05794295 -0.28940597 0.21112546 -0.27329707 0.03923069 0.025456034 0.23853545 -0.21527074
-0.19735098 0.75544214 0.6451264 -0.22165215 0.6308246 -0.5374642 -0.10132232 -0.33097142
-0.14442186 -1.4331466 0.7177441 -0.032889977 -0.0044947574 -0.011143107 -0.5390842 -0.2816288
0.15997772 -0.11902174 -0.9854637 -0.12080253 -0.16502139 0.15435731 -0.18744566 -0.064813115
-0.081271306 0.17361592 -0.33550203 -0.5398648 0.10137448 0.8855266 -0.8458045 0.13638651
-0.37446862 0.24072488 0.080845624 -0.04854922 0.8769245 0.1330253 -0.09743182 -0.97751796
-1.6926192 -0.07513186 0.011457966 -0.0533194 -0.2866519 0.10245446 -0.23406728 0.030053737
0.45232126 0.13991801 0.045076333 -0.0281968 0.37243712 0.2948724 0.10467866 -0.10347896
-0.16911794 0.18050872 0.08579063 0.14963102 0.35265893 -0.7332249 0.531855 -0.2133423
-1.1872314 0.18251573 -0.98117256 0.08649157 1.4653826 -0.35884747 -0.24205913 0.00745519
-0.037182167 0.004451715 0.7980298 0.14799042 0.30125427 0.46972927 -0.6413968 -0.5128067
0.30392087 -0.9240341 -0.1261051 -0.10962239 1.0669737 -0.09114392 0.006710566 -0.018976433
-0.062157493 -0.5303609 0.92605597 -0.62065816 -0.09887363 0.3139729 0.45821905 0.0047265613
0.06467491 0.6894279 -0.8293464 -0.87483287 0.059934467 0.043068238 0.06370477 -0.036690935
0.6764252 1.1512475 0.89140296 -0.94735307 0.10111147 -0.49015272 0.14965855 0.10196954
0.3980754 -0.21975334 -0.7486944 -1.452796 -0.020720186 -0.023512363 0.040059887 -0.06277821
00000000: 9f04 6dbe 6a80 38bf fbb3 e3be 552f b0be
00000010: 2f5d 4c3f 8ac5 b4be 7d47 013f e7ef 99be
00000020: b17c cb3e 41ec 13be 267b 213f 00e7 9e3c
00000030: 20de 8a3d 5fd6 a63d e76f 3f3d 82f6 09be
00000040: d042 d23c 2ce7 84bf 6266 52be 3d48 48bf
00000050: cd05 3e3b f4a7 2cbf 0652 bebe 2f2a 04bf
00000060: e008 2d3f 5f0e c5bd 89a9 853f a64f e83c
00000070: d76e 083d 5382 d5bc 1ac2 df3e 8071 13be
00000080: 57c4 1d3d 99ae 97bf 55a4 283f c568 25be
00000090: 2087 d0be 2b0c 413f 6aa4 0a3d d8e2 973e
000000a0: 8c24 fc3d 8e6f 1dbe 0f6d 203d dc6b 143d
000000b0: eb3b 1ebd fba6 a7bb 9acc 4d3f aa2b c1bf
000000c0: 9125 82bf 810f e73e 80c3 98bc f2fa 8c3e
000000d0: 17bf 69bf e1a8 47be 58ca 7dbe 9e67 2f3f
000000e0: c4d3 d23d 51b1 85bd ddfa 43bd a265 e63c
000000f0: 4ee3 713d b48d 063f 984f 01bf 97be 9c3e
00000100: 6d49 32be 5c02 8fbd 48aa 783f aa47 c33e
00000110: 243c a0bc 18ee 95be 51b7 d33e c7bb 49bf
00000120: 0b4c 86bc 0585 033d 5852 803d 9df4 4b3e
00000130: 442c b53d a676 fdbe a752 c43e 7423 0dbf
00000140: badc f63e c2e1 04bf e791 c3be eee0 b53e
00000150: 391c 2f3f e9ba fc3e 935e d9bf 27ac 33b9
00000160: 993c 6b3c b411 0a3d bd00 333e 8e7f eb3e
00000170: c52a 57bd 04e9 8b3e b595 ac3d cdac edbe
00000180: 38ad 383e 0695 62bd e0bc 833e 8d03 513e
00000190: f39e 393e 4933 3b3e ae13 bc3d 7cf9 aabd
000001a0: 4a99 233b 8ce5 703f b5be afbe 7d6a 5fbd
000001b0: db5b 363f 9031 0bbe 65d0 94bf 06b8 bfbe
000001c0: 83c8 7e3e 9f41 c4be dfe6 5fbf cecc b7be
000001d0: 50cd 793f 78f1 8c3c a40d 2dbc 355d b4b9
000001e0: e473 9dbd 861b 9b3d 0464 303f 437d a43d
000001f0: 0382 8abe 109d 18be 5026 f43e 20fb 813e
00000200: 9655 6dbd 052d 94be 4631 583e 98ed 8bbe
00000210: 5cb0 203d 2c89 d03c a342 743e ef6f 5cbe
00000220: 6016 4abe a864 413f 0127 253f c8f8 62be
00000230: b97d 213f 4197 09bf 1482 cfbd 1675 a9be
00000240: 53e3 13be 5971 b7bf 14be 373f a4b7 06bd
00000250: c248 93bb 9491 36bc 6c01 0abf a631 90be
00000260: 33d1 233e acc1 f3bd 5947 7cbf 5167 f7bd
00000270: 5efb 28be d80f 1e3e c1f1 3fbe bdbc 84bd
00000280: 9271 a6bd 5fc8 313e ecc6 abbe 9434 0abf
00000290: 6c9d cf3d dfb1 623f a586 58bf e8a8 0b3e
000002a0: 5aba bfbe 9580 763e 6492 a53d 8cdb 46bd
000002b0: 207e 603f c937 083e 568a c7bd 9e3e 7abf
000002c0: bfa7 d8bf bcde 99bd 31ba 3b3c 7165 5abd
000002d0: 0ac4 92be a5d3 d13d 55af 6fbe 4133 f63c
000002e0: a796 e73e ab46 0f3e f6a1 383d fafc e6bc
000002f0: 14b0 be3e 84f9 963e c461 d63d c7ec d3bd
00000300: 412d 2dbe 47d7 383e ffb2 af3d e038 193e
00000310: b68f b43e a1b4 3bbf a627 083f 6776 5abe
00000320: 33f7 97bf 67e5 3a3e 202e 7bbf 7e22 b13d
00000330: a891 bb3f dbba b7be 59de 77be ab4a f43b
00000340: 544c 18bd b1df 913b ae4b 4c3f cd8a 173e
00000350: 003e 9a3e 5b80 f03e 9532 24bf 4d47 03bf
00000360: 849b 9b3e 808d 6cbf b221 01be b481 e0bd
00000370: 9892 883f aaa9 babd 4fe4 db3b 7774 9bbc
00000380: db98 7ebd bbc5 07bf 0112 6d3f 74e3 1ebf
00000390: 427e cabd 0ec1 a03e b09b ea3e 45e1 9a3b
000003a0: 4774 843d 597e 303f 0c50 54bf 0cf5 5fbf
000003b0: d87d 753d 5268 303d a577 823d 3c49 16bd
000003c0: 342a 2d3f 145c 933f fc32 643f bb85 72bf
000003d0: 8813 cf3d 4cf5 fabe 1740 193e 68d5 d03d
000003e0: 8ad0 cb3e 0507 61be 70aa 3fbf 38f5 b9bf
000003f0: 61bd a9bc 009d c0bc d615 243d dd91 80bd

total_net.0.net.0.fc.bias f4 [100]
0.23540734 0.39091042 0.070800036 -0.118700825 -0.062134054 -0.081433766 -0.34274143 0.11843052
-0.1568806 -0.13465469 0.0 0.16299728 -0.10500554 0.052636668 -0.087318055 0.34725878
-0.48238075 0.0015908568 0.20361093 -0.19735523 -0.16349712 0.12523079 0.021502145 0.24341142
-0.34781364 -0.026739486 0.4608199 0.26709276 0.26844937 -0.0740671 0.22437693 0.09840583
0.16210893 0.3233803 0.016946964 0.14725085 0.010139557 0.16075282 -0.29789603 -0.15515329
0.060450036 0.038660478 0.10450964 0.12845425 0.34719074 0.0 -0.27339664 0.22229446
0.09076893 -0.070683576 0.0784606 0.5224845 -0.11077994 0.09028039 0.0 -0.051065147
-0.44864115 -0.077357166 0.17667261 0.13354546 0.14415164 0.03400331 0.27117208 -0.015813747
-0.21580341 0.055485196 -0.13255124 0.15419024 -0.07581045 0.043956067 -0.36767414 0.004203753
0.023226304 -0.09613556 0.0 0.14220059 -0.0076176417 0.26238748 -0.060890336 -0.09962809
0.14051959 -0.39623848 0.3181484 0.08608628 -0.18867 0.038928553 0.048663784 -0.28001565
0.030373529 0.13349049 -0.24579653 0.19962993 0.37340102 -0.042268638 0.38593435 0.256713
0.3504956 -0.20384918 0.0 -0.1785731
00000000: 9f0e 713e 6925 c83e 9cff 903d 6b19 f3bd
00000010: 4780 7ebd bfc6 a6bd ce7b afbe b38b f23d
00000020: 4fa5 20be ebe2 09be 0000 0000 c2e8 263e
00000030: 250d d7bd 8c99 573d cfd3 b2bd e7cb b13e
00000040: 9cfa f6be 4c84 d03a 627f 503e 7d17 4abe
00000050: ca6b 27be 803c 003e 4425 b03c d840 793e
00000060: a114 b2be c40c dbbc 96f0 eb3e 62c0 883e
00000070: 3272 893e 7eb0 97bd 11c3 653e ff88 c93d
00000080: e2ff 253e 1a92 a53e 5cd4 8a3c edc8 163e
00000090: 6220 263c 639c 243e d485 98be 81e0 1ebe
000000a0: 759a 773d 735a 1e3d 2609 d63d 8389 033e
000000b0: fcc2 b13e 0000 0000 a5fa 8bbe 29a1 633e
000000c0: 10e5 b93d 8dc2 90bd f3af a03d 8bc1 053f
000000d0: 98e0 e2bd ede4 b83d 0000 0000 b029 51bd
000000e0: 4bb4 e5be 6f6d 9ebd aae9 343e 24c0 083e
000000f0: 7d9c 133e 0e47 0b3d 11d7 8a3e d58b 81bc
00000100: 92fb 5cbe 7244 633d 83bb 07be 0ce4 1d3e
00000110: 8242 9bbd 470b 343d c93f bcbe a3bf 893b
00000120: 1745 be3c b8e2 c4bd 0000 0000 089d 113e
00000130: 699d f9bb a757 863e 2568 79bd d009 ccbd
00000140: 5ee4 0f3e c5df cabe 59e4 a23e 014e b03d
00000150: b532 41be 8c73 1f3d ad53 473d 365e 8fbe
00000160: e8d1 f83c bbb1 083e 16b2 7bbe ca6b 4c3e
00000170: 6b2e bf3e e121 2dbd 3099 c53e e36f 833e
00000180: 2974 b33e d7bd 50be 0000 0000 dedb 36be

total_net.1.net.0.fc.weight f4 [50, 100]
0.068055086 -0.5266586 0.08680671 0.6578145 -0.2747448 0.5404232 -0.12067908 0.52698755
0.29596263 0.18436432 0.13571395 0.019287344 0.050713897 0.4918745 0.24698302 0.20498863
-0.2864746 -0.5784784 0.52877295 -0.35471562 -0.026019901 -0.2784691 0.08299178 0.10227154
0.6113428 0.31209734 1.0532078 1.1502875 -0.033827167 -0.043090116 -0.26045346 -0.16917063
-1.5090289 -0.13374805 0.30391538 -0.022934038 0.066614844 -0.08346556 -0.3092206 0.23329085
0.15743743 -0.57739645 -0.18240474 0.179297 0.005806604 -0.24139635 0.23203257 -0.7216641
0.38265315 0.021114303 -0.028989661 -0.4424486 -0.44594824 -0.060789783 0.08293769 -0.06349145
0.10275467 -0.16704008 0.005194137 -0.3831571 -0.3202631 -0.05699013 -0.5496838 -0.1229881
0.39098483 0.16377124 -0.32577822 0.21201363 0.377798 0.15326928 0.050299637 0.57123536
0.31813076 -0.6675529 0.09527065 -0.60600674 -1.2164726 0.034410488 -0.33121487 -0.18196315
-0.44807932 0.33777514 -0.28035593 0.18943128 0.035373643 -0.44777882 0.12631406 0.16725968
0.03300967 0.00031817303 0.18940999 0.056925483 -0.49643877 -0.17242253 0.23626241 -1.1999289
-0.7657319 0.29188156 -0.11332308 0.40236348 -0.018044587 0.305634 -0.32387888 -0.61296165
0.4486418 -0.61845356 0.17504293 -1.1298205 -0.20238914 -2.1011953 0.030902606 -0.23421718
0.14538895 -1.8723876 -0.24125889 -0.14895903 0.11866146 -0.10735567 -0.34443182 0.039083872
-1.2812314 0.24848378 0.067820616 -0.028895812 -0.4237399 -0.114487655 -0.12518355 -0.7179314
-0.2225644 0.1172896 0.024273876 -0.42748228 0.6613158 -0.77311444 0.1274526 0.15420713
-1.1747229 -0.032018714 0.10404175 -0.13559616 -0.13629892 -0.03510584 0.18894503 0.17880295
0.5018451 0.2826675 -0.017364437 -0.10968649 0.060693197 0.3016152 0.15489419 0.15479706
0.5222906 -0.0128563 -0.010855739 0.2628971 -0.9970785 -0.25891858 -0.4261028 -0.41818964
0.26376054 -0.09156541 0.23585549 0.0070731775 0.44887874 -0.15855472 0.35999835 -0.0017010566
0.74178934 -0.36467054 -0.050071876 0.09281332 0.34600958 0.15377 -0.10263525 0.19148324
-2.6990032 -0.31144398 -0.09280802 -0.099718556 -0.059283633 0.24412508 -0.15940312 -0.093810394
-0.51097685 0.08469006 0.24154812 0.015025736 0.28870726 0.18680719 -0.17959616 -0.34643596
0.3230015 -0.19691232 -1.8016617 -0.8551361 -0.9387184 0.09021999 -0.055687543 0.72264266
-0.27915263 0.260803 -0.033273354 0.27574784 -0.27979928 0.55520296 -0.24537046 0.19984643
0.052093454 0.8195639 -0.08632885 -1.307897 0.22031538 -1.076543 0.5468816 -0.3161746
-0.31271303 -0.2518684 0.36411345 -0.2330777 0.3946086 0.39708897 0.35743573 0.525742
0.37530652 0.1376869 0.9531968 0.66998875 0.35312957 0.34852818 -0.45944983 -0.37917328
-0.840117 -0.02751801 0.3591629 0.23994069 -0.103229605 -0.27451384 0.09250782 -0.21856327
-0.14249334 0.30587587 -0.42505184 -0.031700894 0.14246292 0.08511797 -0.09313664 -1.3668143
0.16557533 -0.23654398 0.33552438 0.43142298 -1.0929494 -0.43577397 -0.12469337 0.07986023
00000000: 7760 8b3d 19d3 06bf b7c7 b13d 8866 283f
00000010: 5aab 8cbe 2d59 0a3f 9826 f7bd a8e8 063f
00000020: 6a88 973e 00ca 3c3e 99f8 0a3e 7e00 9e3c
00000030: 60b9 4f3d f9d6 fb3e 1ee9 7c3e 8ae8 513e
00000040: ccac 92be 2917 14bf aa5d 073f 499d b5be
00000050: b027 d5bc 8093 8ebe 98f7 a93d be73 d13d
00000060: f680 1c3f 39cb 9f3e 83cf 863f 9f3c 933f
00000070: 5b8e 0abd 437f 30bd 285a 85be 113b 2dbe
00000080: dc27 c1bf 40f5 08be cc9a 9b3e 2ae0 bbbc
00000090: 5d6d 883d feef aabd 2a52 9ebe cce3 6e3e
000000a0: 4737 213e 41d0 13bf 4fc8 3abe a299 373e
000000b0: 5345 be3b 9b30 77be f299 6d3e fabe 38bf
000000c0: 1deb c33e e7f7 ac3c ba7b edbc 9f88 e2be
000000d0: 5453 e4be b5fe 78bd 3cdb a93d ce07 82bd
000000e0: 0a71 d23d 8e0c 2bbe 9433 aa3b 2b2d c4be
000000f0: 86f9 a3be 7c6e 69bd 14b8 0cbf 2fe1 fbbd
00000100: 2a2f c83e a6b3 273e 67cc a6be 1a1a 593e
00000110: bd6e c13e 9ff2 1c3e fe06 4e3d 7b3c 123f
00000120: 09e2 a23e bfe4 2abf 421d c33d 4223 1bbf
00000130: 60b5 9bbf 03f2 0c3d ff94 a9be 8c54 3abe
00000140: a76a e5be ddf0 ac3e d08a 8fbe 46fa 413e
00000150: f4e3 103d 4443 e5be 7958 013e 1f46 2b3e
00000160: 2635 073d 76d0 a639 b1f4 413e b22a 693d
00000170: 392d febe 888f 30be c6ee 713e 4597 99bf
00000180: 0107 44bf 8071 953e ee15 e8bd 9602 ce3e
00000190: 3ed2 93bc 0f7c 9c3e 74d3 a5be 0eeb 1cbf
000001a0: 61b4 e53e f952 1ebf 743e 333e f59d 90bf
000001b0: 193f 4fbe fc79 06c0 7627 fd3c a1d6 6fbe
000001c0: d7e0 143e 66aa efbf 920c 77be b788 18be
000001d0: c804 f33d 4add dbbd 5e59 b0be 6916 203d
000001e0: 64ff a3bf 8872 7e3e 89e5 8a3d e9b6 ecbc
000001f0: 70f4 d8be 8178 eabd 1e30 00be 5aca 37bf
00000200: ece7 63be 8835 f03d 02da c63c f5de dabe
00000210: fe4b 293f d4ea 45bf ef82 023e 79e8 1d3e
00000220: 525d 96bf 0e26 03bd d713 d53d b8d9 0abe
00000230: f291 0bbe 24cb 0fbd ce7a 413e 1f18 373e
00000240: ec78 003f cbb9 903e dd3f 8ebc 4fa3 e0bd
00000250: 6e99 783d 4f6d 9a3e 959c 1e3e 1f83 1e3e
00000260: d6b4 053f 3ba3 52bc 45dc 31bc 739a 863e
00000270: 8940 7fbf fa90 84be 252a dabe f41c d6be
00000280: 9f0b 873e a586 bbbd 1a84 713e 1dc6 e73b
00000290: 6fd3 e53e 2b5c 22be b451 b83e fdf5 deba
000002a0: e8e5 3d3f 19b6 babe 2b18 4dbd e914 be3d
000002b0: 2b28 b13e e275 1d3e 6e32 d2bd 2f14 443e
000002c0: 78bc 2cc0 9675 9fbe 2212 bebd 3e39 ccbd
000002d0: 65d3 72bd edfb 793e 923a 23be aa1f c0bd
000002e0: 61cf 02bf fb71 ad3d 6458 773e 812e 763c
000002f0: 70d1 933e 624a 3f3e 0ee8 37be 0e60 b1be
00000300: 7460 a53e 62a3 49be da9c e6bf 33ea 5abf
00000310: d94f 70bf 42c5 b83d 9f18 64bd 1cff 383f
00000320: 18ed 8ebe f987 853e a449 08bd d22e 8d3e
00000330: da41 8fbe c821 0e3f 6542 7bbe 8ba4 4c3e
00000340: f25f 553d f1ce 513f 2ecd b0bd 2b69 a7bf
00000350: 5b9a 613e 29cc 89bf 6f00 0c3f a3e1 a1be
00000360: ec1b a0be e5f4 80be 146d ba3e ecab 6ebe
00000370: 230a ca3e 3f4f cb3e d101 b73e 0797 063f
00000380: 2d28 c03e cbfd 0c3e b504 743f 6284 2b3f
00000390: 66cd b43e 4972 b23e 023d ebbe 0023 c2be
000003a0: e811 57bf 736d e1bc 33e4 b73e 03b3 753e
000003b0: 0b6a d3bd 148d 8cbe bd74 bd3d 0dcf 5fbe
000003c0: c6e9 11be c39b 9c3e 65a0 d9be ccd8 01bd
000003d0: cde1 113e 5552 ae3d 6cbe bebd c5f3 aebf
000003e0: 948c 293e 9638 72be dac9 ab3e 79e3 dc3e
000003f0: c4e5 8bbf c41d dfbe 3d5f ffbd c38d a33d

total_net.1.net.0.fc.bias f4 [50]
-0.004525296 0.027595008 0.22801049 0.14046025 0.019868422 0.033615813 0.15164974 0.2969602
0.14648159 -0.034774102 0.29539323 0.21212253 0.079356566 -0.0074574165 -0.23734738 -0.04154672
-0.0030096252 -0.052969415 0.09228893 0.08599681 -0.1668657 -0.06971113 0.04199581 -0.02410766
-0.022565493 0.18870153 -0.070820644 0.13141423 0.009141367 -0.16944773 0.01718765 -0.12468653
0.002549024 -0.050423626 0.080921896 0.18437018 -0.3283031 0.021145297 -0.10709345 0.10854048
0.002416124 0.053275164 -0.052813645 0.24808475 -0.1818296 0.22123377 -0.14402674 -0.050623033
0.11024241 -0.062334683
00000000: ef48 94bb ed0e e23c 957b 693e d0d4 0f3e
00000010: 1ac3 a23c bcb0 093d 124a 1b3e 2b0b 983e
00000020: 45ff 153e 4a6f 0ebd c83d 973e a636 593e
00000030: b285 a23d 585d f4bb 310b 73be e52c 2abd
00000040: 223d 45bb 75f6 58bd fb01 bd3d 181f b03d
00000050: d8de 2abe b5c4 8ebd cc03 2c3d 6d7d c5bc
00000060: 45db b8bc f93a 413e 6a0a 91bd 7491 063e
00000070: acc5 153c b583 2dbe 1dcd 8c3c a75b ffbd
00000080: 870d 273b 0189 4ebd 61ba a53d 89cb 3c3e
00000090: 5817 a8be e738 ad3c d053 dbbd 794a de3d
000000a0: d657 1e3b 0f37 5a3d 1f53 58bd ee09 7e3e
000000b0: 8a31 3abe 1b8b 623e bf7b 13be 195a 4fbd
000000c0: c6c6 e13d a752 7fbd

total_net.2.net.0.fc.weight f4 [25, 50]
0.2434356 -0.53968495 -0.13000073 0.085514784 0.041942075 0.28073272 -0.25161478 -0.0727469
0.29719162 -0.1186455 -0.11346304 0.20706992 0.55066645 -0.02602887 -0.17725122 -0.29745775
-0.23703551 -0.18360402 -0.0032264213 0.41431138 -0.33829984 -0.34021986 -0.02471068 0.14428361
0.5488109 -0.2476064 -0.02926601 0.03295023 -0.8522774 -0.10917369 0.43360776 -0.41913787
-0.33176798 -0.2576527 -0.060145207 -0.2280208 0.13171515 -1.0841789 0.2817992 -0.58254844
-0.71711195 0.51393616 0.12634471 0.39568508 -1.290032 -0.13760628 -0.0983228 -0.032687984
-0.36588806 0.29456028 0.030083459 -0.26773134 0.06586088 -0.2045223 0.12660377 -0.2555484
-0.1151726 0.38420257 -0.11785282 0.29943895 0.26411036 0.09778464 -0.09214214 -0.5406561
0.08529183 -0.32921562 -0.14116381 0.14477043 -0.2782809 -0.32513392 0.4499178 -0.34491783
0.4965581 -0.35800967 -0.1571738 0.95246416 0.2962725 -0.29731113 0.08294778 -0.35276148
0.4058664 0.4424886 0.104257934 0.20681368 0.26673734 0.044314183 0.022141632 0.03016224
-0.25134507 0.25914147 -0.7980264 0.2529039 0.03161907 0.25330293 0.24601394 -0.13094579
0.1466833 0.08395725 -0.012366364 -0.2779891 -0.30041188 -1.3197979 0.17021005 0.003284474
-0.35408792 -0.007121888 0.21878439 -0.11605401 -0.19327867 -0.07772473 -0.35787997 -0.48582566
-0.34782183 0.0014507216 0.16166748 -0.16259304 -1.3313524 0.24680917 0.2699442 0.031758
-0.22544453 0.18844275 -0.27915233 -0.26826328 0.118827164 0.4173487 0.2497543 0.012798143
0.26602617 -0.45740944 0.10643353 -0.20633915 -0.27111495 -0.005725087 -0.5392516 0.8688059
0.32507935 -0.07773099 -0.28762725 0.1845455 -0.6139698 0.30731937 -0.52294207 -0.42710125
-0.46952203 -0.7989998 -0.9792052 0.026817527 0.56083953 -1.4035459 0.18848851 0.007634982
-0.15381144 0.16280988 0.14757085 -0.46729252 -0.12512806 -0.49437836 -0.058117483 -1.2601835
-0.46165928 0.13384889 0.7695099 0.10826625 0.907731 0.12161162 0.27323774 0.26977822
-0.15825987 -0.18309428 0.64103633 -0.6308274 -0.11016732 0.1898095 -0.78022265 0.442125
0.16326691 1.3543833 0.012405479 -0.812181 0.18336816 0.53996474 0.58619946 0.18036526
-0.29643175 -0.34689692 -0.31044462 -0.2881773 -0.003222338 -0.20421089 -0.57196546 -0.3445931
-0.37939847 -0.42593256 -0.9472901 -0.19509685 0.4766272 0.11351823 -0.15305327 -0.10459805
-0.25785086 -0.46671784 -0.14960712 -0.054272573 0.51843405 0.26750883 0.03244891 0.2755125
0.33895847 -0.32955897 0.42871407 -0.09748446 -0.17282166 -0.6273457 0.07604544 0.28700823
-0.13417865 -0.49221504 0.22559513 -0.41839546 0.17171511 0.31523103 0.19857596 0.37879083
0.43362582 -0.051770903 -0.1736959 -0.12302895 -0.15610726 -0.35779467 0.17523809 0.25678012
0.12721953 -0.30284807 -0.783747 0.52602214 -0.04548596 0.24725917 0.32616916 -0.50068563
0.14035766 -0.47402105 0.2636445 0.3417694 -0.20247228 -0.42883658 0.29278323 -0.11295159
0.17949027 -0.08076345 0.32365286 0.082503386 0.32154098 -0.8648491 -0.18132086 -0.9958137
00000000: 2f47 793e cb28 0abf e91e 05be 6022 af3d
00000010: 74cb 2b3d 33bc 8f3e a7d3 80be 54fc 94bd
00000020: 8029 983e 69fc f2bd 4f5f e8bd 230a 543e
00000030: 7af8 0c3f 7f3a d5bc 5881 35be 624c 98be
00000040: 70b9 72be b102 3cbe 5e72 53bb 9f20 d43e
00000050: a335 adbe 4c31 aebe 0d6e cabc 15bf 133e
00000060: df7e 0c3f 888c 7dbe 45bf efbc d2f6 063d
00000070: da2e 5abf 7596 dfbd d601 de3e 3d99 d6be
00000080: 7edd a9be 0eeb 83be d25a 76bd 497e 69be
00000090: 56e0 063e 60c6 8abf fc47 903e e521 15bf
000000a0: a694 37bf 5291 033f 8260 013e 3c97 ca3e
000000b0: c51f a5bf a9e8 0cbe 775d c9bd d6e3 05bd
000000c0: ae55 bbbe 9bd0 963e 9671 f63c 1514 89be
000000d0: 12e2 863d 4b6e 51be 6ba4 013e 3dd7 82be
000000e0: 9ddf ebbd 33b6 c43e d25c f1bd 1050 993e
000000f0: 7939 873e 5043 c83d 05b5 bcbd 7068 0abf
00000100: 7cad ae3d f38e a8be 3f8d 10be b33e 143e
00000110: d67a 8ebe f477 a6be a05b e63e 1299 b0be
00000120: dd3c fe3e 0b4d b7be 2bf2 20be b1d4 733f
00000130: 07b1 973e 2a39 98be 87e0 a93d 279d b4be
00000140: b9cd cf3e de8d e23e 2f85 d53d f7c6 533e
00000150: cc91 883e ca82 353d 5e62 b53c cd16 f73c
00000160: 4db0 80be 31ae 843e 754b 4cbf 9f7c 813e
00000170: ff82 013d ecb0 813e 14eb 7b3e a716 06be
00000180: 2634 163e c7f1 ab3d 4a9c 4abc 9654 8ebe
00000190: 96cf 99be 23ef a8bf 8b4b 2e3e 5440 573b
000001a0: 034b b5be ba5e e9bb 0409 603e baad edbd
000001b0: d8ea 45be 252e 9fbd 0b3c b7be 24be f8be
000001c0: b415 b2be 2426 be3a 298c 253e ca7e 26be
000001d0: c169 aabf 8bbb 7c3e 2036 8a3e ad14 023d
000001e0: eeda 66be 23f7 403e 0eed 8ebe ce59 89be
000001f0: a85b f33d bbae d53e 97bf 7f3e 4daf 513c
00000200: 9534 883e 9231 eabe d3f9 d93d 924a 53be
00000210: 94cf 8abe 8399 bbbb 650c 0abf 106a 5e3f
00000220: cd70 a63e 6d31 9fbd e143 93be 7ff9 3c3e
00000230: 202d 1dbf f758 9d3e 88df 05bf 04ad dabe
00000240: 3165 f0be 408b 4cbf 31ad 7abf 6eb0 db3c
00000250: 2e93 0f3f 64a7 b3bf 2203 413e df2e fa3b
00000260: bf80 1dbe a2b7 263e d01c 173e f740 efbe
00000270: 9221 00be 291f fdbe 990c 6ebd b14d a1bf
00000280: 9b5e ecbe af0f 093e 9afe 443f b2ba dd3d
00000290: 0f61 683f 830f f93d d1e5 8b3e 5f20 8a3e
000002a0: e00e 22be 117d 3bbe f51a 243f e87d 21bf
000002b0: 679f e1bd 6c5d 423e acbc 47bf 355e e23e
000002c0: 712f 273e 6f5c ad3f 5a40 4b3c 18eb 4fbf
000002d0: ddc4 3b3e 213b 0a3f 2b11 163f acb1 383e
000002e0: e7c5 97be 799c b1be 99f2 9ebe fa8b 93be
000002f0: dc2d 53bb a91c 51be 546c 12bf 826e b0be
00000300: 8440 c2be d513 dabe 9b81 72bf 78c7 47be
00000310: 7b08 f43e 3f7c e83d ffb9 1cbe 8137 d6bd
00000320: 0705 84be a4f5 eebe 9c32 19be eb4c 5ebd
00000330: 18b8 043f ebf6 883e 26e9 043d f90f 8d3e
00000340: f78b ad3e f4bb a8be 6980 db3e efa5 c7bd
00000350: 29f8 30be ba99 20bf b6bd 9b3d bef2 923e
00000360: 2166 09be 9c03 fcbe 6902 673e ee37 d6be
00000370: 16d6 2f3e f665 a13e 7f57 4b3e dff0 c13e
00000380: 3404 de3e ba0d 54bd 57dd 31be 9af6 fbbd
00000390: 95da 1fbe dd30 b7be 9d71 333e af78 833e
000003a0: d645 023e e70e 9bbe a5a3 48bf 63a9 063f
000003b0: 7c4f 3abd 8231 7d3e a5ff a63e ef2c 00bf
000003c0: ebb9 0f3e e3b2 f2be 69fc 863e 66fc ae3e
000003d0: e554 4fbe 7890 dbbe afe7 953e 2a53 e7bd
000003e0: 4ccc 373e 4f67 a5bd d4b5 a53e 89f7 a83d
000003f0: 05a1 a43e c066 5dbf 2dac 39be a6ed 7ebf

total_net.2.net.0.fc.bias f4 [25]
-0.34723765 0.15603635 0.12414632 0.1482714 -0.13072523 -0.038290415 -0.23664697 0.24843147
0.06428103 -0.18370706 0.24540043 0.23775609 -0.36880544 0.03436914 0.09975914 0.004432767
-0.16388495 0.10809937 0.18756825 0.20121565 -0.30012316 0.13416705 -0.08070916 0.007405375
-0.46089497
00000000: 22c9 b1be fec7 1f3e 6d40 fe3d 75d4 173e
00000010: d6dc 05be 69d6 1cbd 9553 72be d264 7e3e
00000020: c6a5 833d b41d 3cbe 404a 7b3e 5576 733e
00000030: 11d4 bcbe a8c6 0c3d 854e cc3d bf40 913b
00000040: 75d1 27be 3463 dd3d e411 403e 7a0b 4e3e
00000050: bea9 99be 1663 093e d84a a5bd caa8 f23b
00000060: 6dfa ebbe

total_net.3.weight f4 [3, 25]
-0.11495417 -0.009705724 -0.62395984 0.29606357 0.32441276 0.46749312 -0.42450497 -0.060901824
-0.10403681 0.43922946 0.26199332 0.12830573 0.13163263 0.4995372 -0.18983686 -0.0023461415
0.08811385 -0.1380832 0.32451823 0.65648437 -0.5063723 0.119848005 -0.06522784 -0.4676486
-0.24998659 0.0045861374 0.35823056 -0.20312124 -0.5714034 -0.14093406 0.2657008 0.2732319
0.074032515 -0.5395097 -0.43592954 -0.054814473 0.18070367 0.46788192 0.04049112 0.3772921
-0.26653397 -0.57225615 0.21233018 0.73157793 0.19470987 0.07424432 0.35063982 0.33034408
0.08468129 -0.13791671 -0.6268963 0.1831411 -0.004001936 0.12915559 -0.12828802 0.1267568
-0.42780814 -0.5199448 -0.12741573 0.087359555 0.5683819 0.4512983 -0.40554813 -0.12867089
0.0916101 0.18391174 0.06472437 -0.2562719 0.14965329 -0.04717637 -0.21473221 -0.5831516
0.5146554 0.23233007 -0.5864162
00000000: 186d ebbd c204 1fbc d5bb 1fbf a595 973e
00000010: 6e19 a63e 425b ef3e b758 d9be 3174 79bd
00000020: 4011 d5bd afe2 e03e fd23 863e 9462 033e
00000030: b4ca 063e 57c3 ff3e 9864 42be b9c1 19bb
00000040: 0975 b43d af65 0dbe 4127 a63e 5c0f 283f
00000050: 9da1 01bf df72 f53d 2c96 85bd a36f efbe
00000060: 7cfc 7fbe 4f47 963b ff69 b73e 04ff 4fbe
00000070: 7e47 12bf 0551 10be ef09 883e 0de5 8b3e
00000080: 5c9e 973d 4f1d 0abf 2832 dfbe 2485 60bd
00000090: 620a 393e 388e ef3e 04da 253d 6e2c c13e
000000a0: 2477 88be 617f 12bf 156d 593e b148 3b3f
000000b0: 0662 473e 680d 983d 1087 b33e dc22 a93e
000000c0: 626d ad3d 0a3a 0dbe 477c 20bf 5789 3b3e
000000d0: ac22 83bb 5d41 043e ef5d 03be 89cc 013e
000000e0: ab09 dbbe 1a1b 05bf 4579 02be 91e9 b23d
000000f0: 7a81 113f 9210 e73e 01a4 cfbe 4dc2 03be
00000100: 139e bb3d 5c53 3c3e 368e 843d 1236 83be
00000110: b63e 193e 023c 41bd c3e2 5bbe 6c49 15bf
00000120: 75c0 033f efe7 6d3e 5f1f 16bf

total_net.3.bias f4 [3]
-0.052629963 0.008298666 0.0944709
00000000: 8492 57bd 21f7 073c f679 c13d
