Modeling eMNS/checkpoint.pt (torch, 35620 bytes, 8 tensors)

total_net.0.net.0.fc.weight f4 [100, 15]
000000 37 ea b6 be 49 1a 05 3e f0 a2 02 3e 60 b6 89 bd
       -0.35725567 0.12998308 0.12757468 -0.067242384
000010 78 0c 98 3e 27 80 bc 3c 06 49 35 3e af 23 7e 3c
       0.29697013 0.023010327 0.17703637 0.015511437
000020 86 83 8b 3c 6f b0 82 3e 18 f1 99 bd ca 2a 12 3f
       0.017030489 0.25525233 -0.07516688 0.5709654
000030 bf da f6 bc 5b 2c 9b bd 96 41 f6 bd 20 cb e9 3e
       -0.030133603 -0.075768195 -0.12024228 0.45662785
000040 cc 82 8b 3e 1c c9 b3 3d fc b1 54 bd ac 45 ba bc
       0.27248228 0.08778593 -0.05192755 -0.0227383
000050 42 2f d2 3e 39 4f e4 3e 70 9f 7c be ec 72 04 be
       0.4105168 0.44591692 -0.24670196 -0.12934464
000060 b5 3f f3 be 8b c6 52 3f f0 e1 78 bd ba 30 c5 3d
       -0.47509542 0.823342 -0.060762346 0.096284345
000070 ad 1e 34 3d f5 10 95 bd c4 c5 c8 bd 39 5b 0c 3f
       0.043974567 -0.07278625 -0.09803346 0.54826695
000080 bc 11 99 bf b0 1c 84 bf 7f 45 a5 3e 92 32 ba 3e
       -1.1958537 -1.0321255 0.32279584 0.36366707
000090 ae 77 56 3f 20 6e e8 3e db d1 98 be ae 87 61 be
       0.83776367 0.4539652 -0.29847607 -0.22024414
0000a0 16 c9 3b 3f 67 12 3d bf b6 0d 54 bd ce 1e a7 3b
       0.7335371 -0.73856205 -0.05177089 0.0051001078
0000b0 43 d6 10 3b e2 49 b2 be 87 3b 09 3f 61 76 52 be
       0.0022100366 -0.34821993 0.53606457 -0.2055297
0000c0 8c 02 02 3f cd 18 b5 3e c1 a2 96 3c fa 00 99 3d
       0.50785136 0.35370484 0.018388154 0.074708894
0000d0 68 8b d5 bc cf 29 91 be 1b 24 26 be 88 7c 42 3d
       -0.02606745 -0.2835221 -0.1622471 0.047482044
0000e0 56 09 88 3e b2 f1 ec bd e7 c9 8e bb 8b 10 e8 38
       0.26569623 -0.11569537 -0.0043575647 0.000110657034
0000f0 51 b3 b7 3e fb d7 8c bf 90 97 21 bf 54 55 cf 3c
       0.35878995 -1.1003412 -0.6312189 0.025309242
000100 1f 96 fc be a0 41 bc bf 6b 91 4d 3e 47 63 0c 3e
       -0.49333283 -1.4707527 0.20075004 0.13709746
000110 e9 eb ba bf 61 dd 9c 3f 45 a0 b1 bc f1 96 01 bf
       -1.4603244 1.225506 -0.021682868 -0.50620943
000120 df 6f c9 3b f1 d6 67 3c ae 38 65 3d b7 eb 42 3f
       0.0061473693 0.014150367 0.055962257 0.7614092
000130 f1 a1 99 3e 85 df f7 3d 8f 7c 86 be 55 7c cd 3d
       0.30006364 0.1210318 -0.26266906 0.1003348
000140 db 27 d9 bd b5 28 d1 be 84 56 b8 3e 6f 6e b2 3e
       -0.10603305 -0.4085137 0.36003506 0.3484988
000150 c5 3f ca 3e 07 fb b2 bf 12 1c 2a bf ee 09 44 3d
       0.39501777 -1.3982857 -0.6644908 0.047861032
000160 93 54 8a 3c e7 0c 07 bc 31 23 85 3e 56 e4 47 3f
       0.016886031 -0.008242822 0.2600341 0.7808279
000170 ba b4 0c 3f 9a 08 83 3e c0 cf 9e bf d4 86 bb be
       0.54963267 0.255925 -1.240715 -0.36626303
000180 8d fe 2b be ef 1f 56 3d 95 1e 0f 3f 42 63 9c bf
       -0.16796322 0.052276548 0.5590604 -1.2217791
000190 b0 85 c9 be 76 e7 40 3e d9 30 2a 3d 4d 62 54 3c
       -0.39359808 0.18838295 0.04155049 0.01296289
0001a0 ad bd 89 bb 4f da 2f 3f 0b d3 b6 bd f3 dd 68 bf
       -0.0042035193 0.6869249 -0.08926972 -0.9096367
0001b0 ba e9 42 3d 4e e6 6e 3f 28 3a e4 bd e0 b8 8a bf
       0.04758618 0.9332017 -0.11143905 -1.0837669
0001c0 ef 84 6b bc 51 85 5e bf f9 a7 dd 3e 32 12 d2 3c
       -0.014374956 -0.86922175 0.43292215 0.025643442
0001d0 59 f2 20 3f fc bb 2f 3d 81 b0 4f bc b7 59 a9 bb
       0.62869793 0.042903885 -0.012676359 -0.0051681655
0001e0 1d 7f 3a 3f f3 8c 7a 3f 7b 6b 18 3d 98 90 d9 be
       0.7285021 0.9787132 0.037211876 -0.4249313
0001f0 5f 6f e4 be d3 17 23 3f b4 03 ec be f9 8f 19 be
       -0.4461622 0.6370823 -0.46096575 -0.14996327
000200 d5 42 33 3c a4 d3 a6 be 7c 5f 0d 3e 40 e1 95 3e
       0.010941227 -0.32583344 0.13805956 0.29273415
000210 87 3c 13 bd 1c fa 1a bd da ce 2d bd cd 43 24 3f
       -0.035946395 -0.03783618 -0.042433597 0.64165956
000220 6e f2 34 be 1b 9f 47 be 1e c3 3e bf 85 28 98 3c
       -0.17670605 -0.19494288 -0.74516475 0.018574009
000230 29 be 47 bf b8 81 4c be a1 74 db be c4 04 85 bd
       -0.78024536 -0.19971359 -0.42862418 -0.064950496
000240 9f 9d a7 3f 6c a2 ce 3d ee 5e ad 3e 4a b2 51 bb
       1.3094977 0.10089573 0.33861488 -0.0031997138
000250 f6 4b 89 3d 00 4c b7 3a f4 a4 83 be df af b3 be
       0.067039415 0.0013984442 -0.25711787 -0.35095116
000260 30 9d 65 3f 9f 29 15 3e 6f 3c aa 3e c7 8c d7 3e
       0.89692974 0.14566658 0.33249232 0.42099592
000270 f9 ba df 3e f0 fd 03 bf 72 53 95 bf d9 b8 a2 3e
       0.43697336 -0.5155935 -1.166609 0.31781653
000280 f5 ad d8 3d d9 86 d1 be 07 00 c6 3c 79 54 5e 3b
       0.10580055 -0.40923193 0.024169935 0.0033924861
000290 94 1e 46 bd fc 7f 16 3e 1c 58 fc 3e 0c 98 4e 3f
       -0.048369005 0.1469726 0.49285972 0.80700755
0002a0 11 cf a0 3e 28 05 cd 3e e7 59 8e 3f b8 fa 78 be
       0.3140798 0.40042996 1.1121186 -0.24314392
0002b0 ea c3 04 3e 25 a9 d2 bf 9d cc 34 bf 56 57 95 bf
       0.1296536 -1.6457869 -0.70624715 -1.1667278
0002c0 82 2a 00 bf 6f 1f c1 bb 72 f5 a0 bb 4f e9 9d 3c
       -0.5006486 -0.0058936398 -0.004912072 0.01927629
0002d0 c4 b0 23 be b6 06 4d bf 53 80 e5 3e 8b c8 e5 bc
       -0.159854 -0.80088365 0.44824466 -0.028049728
0002e0 cf 61 5d 3e 4a 26 dc 3d 83 8e 32 bf 9a 71 36 3e
       0.21619342 0.107494906 -0.69748706 0.17816773
0002f0 d9 38 af 3e 26 2e c5 3e 06 bd 8e be 60 6f 5b 3f
       0.3422306 0.3851177 -0.27878588 0.8571682
000300 d9 8c a3 3d 38 de 4d bd d9 ec c1 bc c2 ec c5 3d
       0.07985849 -0.050260752 -0.023672508 0.096642986
000310 e0 66 e7 bd 4e db b9 3e b0 27 1d 3f ea 7e b7 3e
       -0.11298919 0.3630013 0.61388683 0.35839015
000320 e2 cb 3a bf 7e fc 85 3d 2b 85 36 3f 9f dd f4 be
       -0.7296735 0.065423 0.7129695 -0.47825333
000330 d8 14 54 bf 2e 54 47 3f ae 64 9b 3d 37 ca 0e bd
       -0.82844305 0.77862823 0.075875625 -0.034860816
000340 82 91 d5 bc 22 2f ac bd 56 80 73 be cc 8a 1d bd
       -0.02607036 -0.08407427 -0.23779425 -0.038462445
000350 36 95 99 3e c4 c3 66 be 8e c5 d1 be a1 78 f6 be
       0.2999665 -0.22535616 -0.40971035 -0.48138908
000360 5a 40 95 3e 7d ad 85 bd 4b a1 ed 3d 20 58 28 3f
       0.2915066 -0.06527231 0.1160303 0.6575947
000370 e3 24 70 3e 9b 98 95 bd 6f ac 50 3b 23 95 1d 3e
       0.23451571 -0.07304498 0.003184106 0.15388922
000380 38 dc 43 bc c8 30 90 3d 93 f6 2a bd 4c ff 95 3e
       -0.01195436 0.07040554 -0.041739058 0.2929634
000390 92 8b 80 be 18 1b 8c 3d 72 08 0e 3f 7a b6 d8 3e
       -0.25106484 0.06841105 0.55481637 0.4232672
0003a0 fb 62 6d bf 3a 10 0e bf f3 f4 2a 3f 5e 8c d2 3e
       -0.9272916 -0.5549351 0.6678001 0.41122717
0003b0 a5 f1 b5 3d 38 52 15 bc 16 ae 99 bc 75 d5 4c bb
       0.08883981 -0.009113841 -0.018759768 -0.003125516
0003c0 b8 b7 3f 3e d0 c0 14 bf b8 29 d7 bd 8a 0a 1a be
       0.18722427 -0.5810671 -0.10506004 -0.15043083
0003d0 7f c8 3f 3f 6d 5e 99 3e 6f 25 a6 be 69 67 67 3f
       0.7491531 0.29954854 -0.32450435 0.90392166
0003e0 65 ff d3 be 3c 67 81 3d 20 7c 05 be 9a 4f 73 3e
       -0.41405788 0.063185185 -0.13035631 0.23760834
0003f0 66 3d 59 3c 6c 65 02 bc c1 9e 0d bd c8 9f 1e bf
       0.013259267 -0.007958751 -0.034575228 -0.61962557

total_net.0.net.0.fc.bias f4 [100]
000000 4c 46 81 bd fd a5 b8 be 23 47 46 be ed 6f 34 3b
       -0.06312236 -0.3606414 -0.19363074 0.0027532533
000010 98 9e 43 3e 52 84 75 bd e6 cb 80 bc ab 50 da bc
       0.19103467 -0.059940644 -0.015722226 -0.026649794
000020 a4 36 4f be 03 a2 aa bd a1 fc 16 3e ef a2 15 be
       -0.20235687 -0.083316825 0.14744808 -0.14612935
000030 7e 9d 32 3e 07 92 d4 bd d2 5d 07 3e 58 cb 3c be
       0.17442891 -0.10379415 0.13219383 -0.18436944
000040 43 ec 97 be 3a ae 90 3e 70 67 c9 bd 01 bd 42 be
       -0.2967244 0.28257924 -0.09834182 -0.19017412
000050 ad 77 29 3e e6 46 5b bd 5b e5 52 bc ba e4 8f bd
       0.16549559 -0.05353441 -0.012872065 -0.07026048
000060 1a ee 57 be c9 87 6d 3e ad 7e e7 3e 67 48 05 bc
       -0.21086922 0.23196329 0.45213833 -0.008134938
000070 e2 82 91 bc db 44 23 3e 68 59 df 3e 9f d0 aa 3d
       -0.017762605 0.15944235 0.436229 0.083405726
000080 c3 fd 22 be 36 c2 7c be e8 07 af 3e 8d 63 32 3c
       -0.15917115 -0.2468346 0.3418572 0.010887993
000090 97 a8 65 3c 33 3b 00 be fe 9b 30 3e 71 94 16 3d
       0.014017246 -0.12522583 0.17247006 0.03676266
0000a0 21 fd 3a 3d 5f a1 25 3e ff d4 7a be 0b 6a af bb
       0.04565156 0.1617484 -0.24495314 -0.0053532175
0000b0 0b 2d be bd 7b 85 37 3e 2e f9 37 be 51 b6 ab bd
       -0.09285935 0.17922013 -0.17966148 -0.083843835
0000c0 3d a7 05 3f 65 e2 b0 be e0 ad 65 bd 40 bf 1d 3e
       0.5220831 -0.34547725 -0.056074023 0.15404987
0000d0 a2 bd 85 3e 14 8f 61 3e ce 6a 40 3d af 8a 84 be
       0.2612124 0.22027236 0.046976857 -0.25887057
0000e0 ef 9c 0d be 2e e6 f9 3e 3a 91 5f bd 3c 44 fa 3e
       -0.13829397 0.48808426 -0.05458186 0.48880184
0000f0 e3 62 dc bd 17 15 3b 3f f8 6b 95 3e 93 db 94 3d
       -0.10761049 0.73079056 0.29183936 0.07268443
000100 52 be 0e bc 25 15 c8 3d 47 64 ad 3e 43 ad 5b be
       -0.008712368 0.09769658 0.33865568 -0.21452813
000110 77 f9 04 3e 79 25 7a bd f9 0f fe 3e 2a 06 2f bd
       0.12985788 -0.061070893 0.4962156 -0.042730488
000120 65 ce 80 3e fa ae 0d 3e 01 c7 3e be 59 c5 12 bf
       0.25157467 0.1383628 -0.18630601 -0.5733238
000130 6b 97 3c be f9 84 48 bd a1 98 72 3e 99 3b 31 bd
       -0.18417136 -0.048954938 0.23691036 -0.043269727
000140 5f e1 8d be fa 66 b4 3e b3 88 00 be 99 4e 59 3f
       -0.27711007 0.35234815 -0.12552147 0.84885556
000150 ad 8e bd be f4 52 4b 3e 68 6f 6c be 9e d8 b9 bc
       -0.37022915 0.19855863 -0.23089373 -0.022686299
000160 57 31 fc 3d 11 98 96 3d 9c ad 81 bc 52 b7 ad be
       0.12314098 0.07353223 -0.015829854 -0.33928925
000170 c4 09 8b 3d c6 86 c2 bc a1 3a 99 3d da f0 c2 bd
       0.06788972 -0.023745906 0.07481886 -0.09518595
000180 85 2e f6 3d dc 2e c7 be d1 9e 94 3d 72 03 3c bf
       0.12020592 -0.38902938 0.07256854 -0.7344276

total_net.1.net.0.fc.weight f4 [50, 100]
000000 09 70 01 3e 8e b7 e7 bd 77 95 a9 3e cd d0 7d bd
       0.12640394 -0.11314307 0.33121845 -0.061966706
000010 08 a2 5b bf 52 25 d0 be 05 cc 6c 3e 97 0f a3 bd
       -0.85794115 -0.40653473 0.23124702 -0.07961958
000020 58 76 b6 3d 91 f1 38 3e 03 46 8f 3e 05 a8 d3 3e
       0.08909291 0.180609 0.27983102 0.41339126
000030 2b bd 0f bf b7 d3 bd 3e 34 7b 07 be 91 a0 0a 3e
       -0.5614802 0.37075588 -0.13230592 0.13537814
000040 d3 66 19 bc 85 f2 a8 3d a2 b2 02 bd fd 86 14 bf
       -0.009362894 0.08249382 -0.03190864 -0.58018476
000050 be 6b 55 3e e0 1d 8d bd b2 9a 4f be 93 97 8e be
       0.20841882 -0.06890464 -0.20273855 -0.27850017
000060 92 0d 21 bf 82 b4 40 3e e6 26 f7 be 58 3f 28 3f
       -0.6291133 0.18818858 -0.48271865 0.65721655
000070 d6 bb 48 be ba cd 85 be 86 a4 86 3e ba b0 a0 3e
       -0.19602904 -0.2613352 0.26297396 0.31384832
000080 96 a4 00 be 73 6c 58 3f 96 d0 94 3d 03 1c 8e be
       -0.12562785 0.8454048 0.07266347 -0.27755746
000090 05 7f b0 be 5d e4 0c bf 27 3f c3 3e 08 10 36 bf
       -0.34471908 -0.55035955 0.3813412 -0.7111821
0000a0 f1 18 86 3c 46 9e 2d be da c3 4b 3e b3 d5 fa be
       0.016369315 -0.16954908 0.1989893 -0.48991165
0000b0 fa bf 24 3f 9c 80 c4 be f4 7c b1 3e 83 13 14 bf
       0.64355433 -0.3837937 0.34665644 -0.5784227
0000c0 09 c6 4a 3f 11 e0 1b bf 4a 2d 84 be 9d fd 43 3e
       0.7920843 -0.60888773 -0.25815803 0.19139715
0000d0 d1 83 e4 3e c2 75 bc 3e 7b f4 8d bd a0 a2 02 bb
       0.44631818 0.36808592 -0.069313966 -0.0019933358
0000e0 d5 e0 aa be 2a c2 3b be 96 40 23 3f 4c d1 0c 3f
       -0.33374658 -0.18335786 0.63770425 0.5500686
0000f0 74 2f 43 bf d9 e0 6e bf c4 ff 64 3e fd a6 1f 3e
       -0.7624428 -0.9331184 0.22363192 0.15591045
000100 ed 4b 74 be 6e 2e 3a 3e 5d 6a 11 bf 16 06 10 be
       -0.23857088 0.18181774 -0.5680292 -0.14064822
000110 fd ee cd 3e 55 65 99 3d 7c b1 2a 3f 08 5c 34 be
       0.40221396 0.07490031 0.6667707 -0.17613232
000120 9b cb e4 be b5 bd 8b 3c ab cf 3f bf 7b 73 c2 3f
       -0.4468659 0.017058233 -0.7492625 1.5191492
000130 ce a9 1c bd 13 67 03 3d 62 eb 4b bf 42 1b 03 3f
       -0.038247876 0.03208072 -0.7965604 0.5121347
000140 2f 62 bf 3d 86 82 a0 be 6a 0d b0 3e 34 ec d2 3c
       0.09344899 -0.3134958 0.34385234 0.025747396
000150 f0 0e f3 be 52 e8 fa bd d1 b1 d7 3e 8a 6a c0 3d
       -0.47472334 -0.12251343 0.4212785 0.09395321
000160 c4 69 00 bf 08 9b 85 3b d0 eb 6a 3f ec 58 98 be
       -0.50161386 0.004077319 0.9176607 -0.29755342
000170 ab 1a 06 bf e0 08 ee bd 21 87 d5 bd ad cf 54 be
       -0.5238444 -0.116227865 -0.104261644 -0.20782347
000180 f6 32 07 3f b7 ed ee 3e c2 1a f5 be 4c 54 20 3e
       0.52812135 0.46665737 -0.47871977 0.15657157
000190 06 98 a4 3e 88 70 7c be 99 ba 3f 3e 17 e3 91 3e
       0.32147235 -0.24652302 0.18723525 0.28493568
0001a0 be 9e 98 bd 64 f6 8d 3e 14 03 dd 3e 8a 58 83 be
       -0.07452153 0.27727044 0.4316641 -0.25653487
0001b0 93 09 0c bf cf d0 81 be 6b 75 ec 3e cb b8 bd 3c
       -0.5470211 -0.2535462 0.46183333 0.023159405
0001c0 a0 ff f8 bd 69 76 84 be f8 61 ef 3d bb 18 b7 be
       -0.121581316 -0.2587159 0.11688608 -0.35761055
0001d0 7a a3 b3 be e4 57 9f ba 40 0e 63 bd c0 28 ef 3d
       -0.3508566 -0.0012156931 -0.05543351 0.11677694
0001e0 8d 49 b6 3e 42 f3 b5 3e a1 ed 61 3e 92 e3 1c bc
       0.3560299 0.35537153 0.22063304 -0.009575741
0001f0 bf ca a4 3b a5 9c 90 3e 49 b4 31 c0 6f 3c e3 be
       0.005029052 0.2824451 -2.7766287 -0.44382045
000200 23 69 b7 be fd d7 2f 3f 8a 83 1d 3f 20 ef 62 bf
       -0.358224 0.68688947 0.6152884 -0.88646126
000210 98 b1 58 be 03 7b 23 3e 8f ff db be 6b e6 91 be
       -0.21161497 0.15964894 -0.42968413 -0.28496107
000220 a7 e6 b7 be 51 51 07 3f b6 c9 c9 3e 0b b0 84 be
       -0.3591816 0.52858454 0.39411706 -0.2591556
000230 8c e1 a4 be 22 60 94 be 2e fa 4f be a1 92 86 3e
       -0.3220333 -0.28979594 -0.2031028 0.26283744
000240 11 0b 40 c0 99 82 9c 3e 92 4a f1 bd bd 65 ed 3e
       -3.0006754 0.30568388 -0.11781801 0.46366683
000250 10 f6 92 bf 76 2f c4 bd af 3c d5 3e 8e 38 90 bb
       -1.1481342 -0.09579365 0.4164786 -0.004401273
000260 16 e4 30 bf 44 54 10 3e cc c9 ec 3d e5 f6 93 bd
       -0.6909803 0.14094645 0.11561927 -0.07224826
000270 5b 70 d9 bd 8c 21 65 be e0 54 86 bd c4 c3 72 3e
       -0.10617133 -0.22376078 -0.06559157 0.23707491
000280 3e e8 62 3f fa d9 46 c0 3c 15 3a 3c 3e 21 1a be
       0.88635623 -3.1070542 0.011357602 -0.15051743
000290 89 d2 f3 bd 16 eb c9 bf 2c 44 c4 3f 65 0a a6 be
       -0.11905391 -1.5774868 1.5333304 -0.32429805
0002a0 0c e8 24 bf 3f 8c e3 3e c7 21 2d 3f 26 d5 53 3e
       -0.64416575 0.44442937 0.67629665 0.20686778
0002b0 2e 47 0c 3e 10 ee 23 3e 1d 26 55 3f a2 60 61 bf
       0.13699028 0.16008782 0.8326128 -0.88038075
0002c0 63 1e a0 be 2e 10 39 be dd 71 cb 3e f6 26 6a 3e
       -0.31273183 -0.18072578 0.39735308 0.22866425
0002d0 88 21 07 bf 83 f6 d7 be f1 73 7f 3d 48 3a 26 bf
       -0.5278554 -0.4218026 0.06236643 -0.6493268
0002e0 4b c3 2f 3e 6b e0 18 3e c5 fc 5d be 11 17 04 bb
       0.17164342 0.14929359 -0.21678455 -0.002015535
0002f0 86 cf de bc 42 c0 ad 3e ba 63 10 3e be 8e 1f 3e
       -0.027198564 0.33935744 0.14100543 0.15581796
000300 54 b3 e1 bd 6f c1 53 3f fc 3b b5 bd 47 d6 02 3e
       -0.11020532 0.8271703 -0.08849332 0.12777053
000310 9d f3 41 be df 07 2a bc 55 42 bf be d6 a3 01 be
       -0.18940587 -0.010377853 -0.37355295 -0.12660155
000320 86 50 66 be 8e cb 14 3e 2c 4e 41 bf 98 9f 8d bc
       -0.22491655 0.14530775 -0.75509906 -0.017288014
000330 c8 38 1d bd 42 85 63 be 05 67 a0 3e 7a b5 d3 bf
       -0.03838423 -0.22218803 0.31328598 -1.6539757
000340 27 fc 85 be a0 01 28 3e 6e 1a bd 3b 19 35 00 be
       -0.2616894 0.1640687 0.005770973 -0.12520255
000350 c8 14 0b 3f 6e a8 36 3e 3b 86 21 3e 2b c5 9f 3c
       0.54328585 0.17837688 0.15773861 0.019503197
000360 8d 73 8a bf 96 c8 f5 3e c8 5e 28 be 5d 5d 36 3d
       -1.0816513 0.48004597 -0.16442406 0.044522632
000370 a7 94 53 3f 5f 35 b9 3d 3a 48 06 3e 1a 86 5c bc
       0.826487 0.09043383 0.1311349 -0.013459707
000380 b2 95 41 3e bf 8c 1e 3e ca 81 e8 be 49 46 d6 be
       0.1890476 0.15483378 -0.4541152 -0.41850498
000390 05 ec 15 3e 4e 8d 24 bf c8 51 6f 3e 87 8d 89 be
       0.14640816 -0.64278114 0.23371041 -0.2686579
0003a0 66 e9 92 be 5f 33 ff bf 7a a8 09 3e e8 60 ac 3e
       -0.28693694 -1.9937552 0.13443175 0.33667684
0003b0 d1 b7 89 3e 5e b1 0a 3e 07 14 12 3f 75 f0 4c be
       0.26898053 0.13544223 0.5706181 -0.20013602
0003c0 be ff fa 3d 22 48 d0 bd 50 c2 e1 be bb 63 48 bf
       0.1225581 -0.10170008 -0.4409356 -0.78277177
0003d0 53 0f a3 be d8 9a a0 bd 7d dc 1a 3e ed c4 cf be
       -0.3184763 -0.07842034 0.15123172 -0.4057993
0003e0 31 ae 4e bf 5f 48 b4 be 7c f8 57 3d 44 ee 20 be
       -0.80734545 -0.35211465 0.052727208 -0.15715891
0003f0 cc f1 17 be d7 2f d1 3d 65 68 a6 3d 02 04 31 3e
       -0.14838332 0.10214203 0.081253804 0.17286685

total_net.1.net.0.fc.bias f4 [50]
000000 c4 2b 0e be 44 2b 21 3e 53 2e 44 3e 89 82 cb 3d
       -0.13883883 0.15739161 0.19158296 0.09937007
000010 e1 02 99 bc 2d f9 14 3d dc 7a c0 bd 7f a8 16 3e
       -0.01867813 0.036370445 -0.093984336 0.14712714
000020 d6 e5 ed 3c f1 2f 01 bd 42 18 20 3e e9 c3 c8 be
       0.029040258 -0.03153986 0.15634254 -0.39211968
000030 c2 3c b0 3e e4 c4 a5 3d 75 82 04 3f 7e 01 d3 bd
       0.34421355 0.080941945 0.5176156 -0.10303019
000040 1e d7 43 bd c2 30 c8 3e 00 6b 3b bd 29 1f a6 3d
       -0.047812574 0.390997 -0.04575634 0.08111412
000050 32 f1 82 be 23 d3 9b 3c 71 fd 7e 3e 74 86 f1 be
       -0.25574642 0.019021576 0.24901368 -0.47172892
000060 3a 44 11 bc a0 a4 57 3d db 39 bd 3c 08 c6 07 3e
       -0.008866364 0.052647233 0.023098877 0.13259137
000070 ed 6b 16 be d3 bb a2 bd c9 b6 a0 be 36 4a 9d 3e
       -0.14689608 -0.07945981 -0.31389454 0.3072068
000080 99 44 eb 3e a8 33 d9 3d 88 83 a0 bd 34 0f d8 bd
       0.45950773 0.10605556 -0.078375876 -0.10549775
000090 b5 3b 52 3d c7 50 41 3e 25 d3 eb 3d cd 8c 48 3e
       0.051326472 0.1887847 0.11514882 0.19584961
0000a0 de d6 b3 3d 9a c0 0b 3d 4e 00 b1 bc 3a 31 15 3e
       0.08781217 0.034119226 -0.02160659 0.1456956
0000b0 53 de 7c 3e 7b 42 ef 3c e8 e4 be 3e 01 31 2f 3e
       0.24694185 0.029206505 0.37284017 0.17108537
0000c0 e3 b1 7c ba 73 40 9c 3d
       -0.00096395443 0.0762948

total_net.2.net.0.fc.weight f4 [25, 50]
000000 5e 50 38 3d 4c 9d db 3e 0e 98 04 c0 46 89 03 bd
       0.04499852 0.42893445 -2.0717807 -0.032113336
000010 57 17 ab bd f0 1a 29 bf 90 0d e5 3d 7a 59 51 3c
       -0.08354061 -0.6605673 0.111842275 0.0127776805
000020 1e 33 e9 be 72 8c b6 bf f2 27 b0 3e 6f d3 bd bf
       -0.45546812 -1.426161 0.34405476 -1.483015
000030 c5 1e cf 3d 0e d3 82 be 31 57 2d 3e 74 23 0d 3e
       0.10113291 -0.25551647 0.16927792 0.13783056
000040 29 c7 08 bf a1 67 a7 3e aa f7 37 3e 0b 83 0d 3f
       -0.53428894 0.3269625 0.1796557 0.5527808
000050 d4 66 8b be e7 5d 3e 3e 2c 72 26 bc e9 40 5d bf
       -0.2722689 0.18590508 -0.010159057 -0.8642717
000060 5d c2 ed 3d e5 34 04 be 04 2b a4 bc f9 45 73 3d
       0.116093375 -0.12910803 -0.020040043 0.059392903
000070 1a 90 1d be 1e c1 a0 3f 5a 4a 35 3e 2d f9 2b 3c
       -0.15387002 1.2558935 0.17704144 0.01049642
000080 ad a3 c8 3e 32 e4 2c 3e ee db 2a 3f 41 88 10 be
       0.39187375 0.16883925 0.66741836 -0.14114477
000090 80 4b e5 bd 52 84 2f 3f 52 0d d8 be f9 b2 56 bf
       -0.11196041 0.6856128 -0.42197663 -0.8386684
0000a0 d2 dd 0d 3f 15 5e 26 3e 10 76 06 bf 07 48 00 bf
       0.55416596 0.16246827 -0.525239 -0.50109905
0000b0 e6 2f 6e 3e 43 f6 4b 3e 68 4e 20 bf 18 5f ed 3d
       0.2326046 0.1991816 -0.6261964 0.11590403
0000c0 5c d4 1b 3e 78 6b 68 3f ae 57 85 3f ce 78 37 bf
       0.15217727 0.90788984 1.0417383 -0.7166871
0000d0 fb f7 fd be 38 0d aa be 91 f5 55 3e c7 4a 07 3e
       -0.49603257 -0.3321321 0.20894457 0.13212119
0000e0 43 e2 dd 3d 9d 12 05 3d 69 12 8a 3e 5a 82 fb 3e
       0.108341716 0.032488454 0.2696717 0.49122888
0000f0 4c 3a 9c be 11 23 d2 be 6b 27 a5 bf a9 d3 44 be
       -0.30513227 -0.4104238 -1.2902654 -0.19221367
000100 6f 52 0c bf 11 3c db 3d 33 0d a1 bf e4 9b 69 3e
       -0.54813284 0.10704816 -1.2582153 0.22813374
000110 ed 2b 5c 3e 6c 6c 31 c0 d7 2b 19 be 74 04 36 be
       0.21501131 -2.7722425 -0.1495813 -0.17775136
000120 d9 4a f2 3e c8 87 b2 bf 76 39 01 3d 2a e0 3e 3e
       0.4732273 -1.3947687 0.03154894 0.186402
000130 ec f9 89 bf 41 f6 bf bf 36 cf 84 be 82 87 b5 3e
       -1.0779395 -1.4997026 -0.2593934 0.35454947
000140 90 22 04 3f 86 bc 6a be da 9f 51 3e 77 01 db 3d
       0.5161524 -0.22923478 0.20471135 0.10693639
000150 f6 81 0c 3f 34 7f 02 3d 35 d5 a2 bf 0e a9 be 3e
       0.54885805 0.03185959 -1.2721316 0.37238353
000160 cc e2 32 bd a3 87 1b bd 82 7e 56 3e ad 5a be bd
       -0.04367332 -0.03797115 0.20946696 -0.09294639
000170 17 a2 0f bd c9 68 b1 3e c0 7f ed be 97 ef 02 3f
       -0.03506669 0.34650257 -0.46386528 0.51146835
000180 54 6e c9 bd 0d f9 39 3f 36 cb 76 be 0f fb d6 bf
       -0.098354965 0.72645646 -0.24100956 -1.6795367
000190 09 3f 61 3f b5 ef ba be 88 69 8d 3e f3 9c dc bd
       0.8798681 -0.36511007 0.27619576 -0.10772123
0001a0 65 64 46 3e 7f 3d 38 bd 73 78 13 3e 6a 73 66 be
       0.19374235 -0.044980522 0.14401416 -0.22504964
0001b0 4f a0 cc be cf 91 08 bf eb 75 e7 3e 1c 76 f9 be
       -0.39966056 -0.53347486 0.45207152 -0.48722923
0001c0 df 98 2a 3d 6e c6 6f 3e bb e7 81 bc 28 cd 87 3d
       0.041649695 0.23415539 -0.015857568 0.06630927
0001d0 4e dc b5 3e b1 35 38 3e 38 a1 e4 be 3d 85 2a be
       0.35519642 0.17989232 -0.4465425 -0.16652389
0001e0 33 bb 3d bd ef 7a 8d 3f d0 88 64 3f 72 dc 1d bf
       -0.046321105 1.1053141 0.8927126 -0.616645
0001f0 73 13 ab 3e 3c 8d 81 3e 48 4f 3e be cb 95 91 3e
       0.33413276 0.25303066 -0.18584931 0.28434595
000200 f1 de 04 bf f2 2d aa be eb d6 37 be 3d b5 f2 3e
       -0.5190268 -0.33238178 -0.17953078 0.474039
000210 3d 34 04 bf 6e 77 0b 3f ca fb 41 be 7f 79 8d 3d
       -0.5164221 0.5447911 -0.18943706 0.06907939
000220 8d 17 98 be 69 46 b9 3d c0 86 03 3e c4 f4 4d 3e
       -0.29705468 0.09046633 0.12844372 0.20112902
000230 23 6a 19 3f 03 02 0b be 91 a9 ba bd 87 0b a3 bd
       0.59927577 -0.13574986 -0.091143735 -0.07961183
000240 5a 14 18 be 30 ff 19 3e 9f 11 db 3e 42 93 9a 3d
       -0.14851514 0.15038753 0.4278688 0.075476184
000250 df 11 04 3e 49 c9 05 3f 2d ae 4b bf b8 54 61 be
       0.12897442 0.5226026 -0.79562646 -0.22004974
000260 cf a6 7d bf e1 53 98 3d d3 71 13 bf 8f 4a 46 be
       -0.99082655 0.07437874 -0.57595557 -0.1936438
000270 40 d3 3e 3c 4d 56 d8 3e df 76 be 3e e6 43 a8 3e
       0.011647046 0.42253342 0.37200066 0.32864302
000280 40 85 93 3e 45 d1 19 3f f5 d6 29 c0 28 c3 57 be
       0.288126 0.60084945 -2.653745 -0.2107054
000290 84 33 86 be b0 12 f0 be 4f 64 05 c0 b0 57 35 3e
       -0.26211178 -0.46889257 -2.0842474 0.17709231
0002a0 dc 3c 66 3f fb 30 8b 3e 03 cd 86 bc 4d b3 02 3f
       0.89936614 0.27185807 -0.01645518 0.5105484
0002b0 16 fc 32 be e0 08 11 3f 61 a5 98 bd 17 78 96 be
       -0.17478976 0.5665417 -0.074534185 -0.29388496
0002c0 ce f5 86 bc d4 e2 53 3d 74 59 83 3c 59 4e 41 bf
       -0.01647463 0.051729992 0.016033866 -0.75510174
0002d0 d5 58 05 bf fb 6d 21 be 76 46 23 bf ce 97 12 be
       -0.5208867 -0.1576461 -0.6377939 -0.14315721
0002e0 f0 86 11 bf f3 11 8a bf e8 85 e4 3e 68 8d 7c be
       -0.56846523 -1.0786728 0.44633412 -0.24663317
0002f0 a4 99 ad be 32 cc da 3e 76 a1 ea be 2e b5 a7 bd
       -0.3390628 0.42733914 -0.4582631 -0.08188854
000300 71 25 57 be 7a 17 09 bf 3e 66 af be cb 73 ae 3a
       -0.21010377 -0.5355145 -0.34257692 0.0013309655
000310 f9 dc 22 bf 67 ef e1 3e 19 1a 3d 3e 0c e9 86 be
       -0.6361843 0.44127962 0.18466987 -0.26349676
000320 20 f3 60 3f 34 ed 40 3d ad 9f 90 be 9c b2 a2 3c
       0.8787098 0.047101215 -0.28246823 0.019860558
000330 a2 be c9 3e be e4 6f be 85 55 59 3e b2 16 78 bf
       0.39403254 -0.23427102 0.2122403 -0.9690963
000340 ce 31 14 bf 04 d0 31 3f 67 f5 71 3e e3 e0 82 bf
       -0.57888496 0.6945803 0.2362877 -1.022488
000350 1b 20 21 be 6a 96 48 3e 6e a4 26 be 67 af d6 bd
       -0.15734904 0.19588628 -0.16273662 -0.10482674
000360 cf bc fe 3e e4 b6 cd be fc 0f 60 3e 09 63 8c be
       0.49753425 -0.40178597 0.21881098 -0.27419308
000370 8c 68 ad bc b5 d3 6d 3c 98 53 57 3d 8a 03 19 3f
       -0.021168016 0.014515807 0.052569956 0.59771025
000380 71 a8 67 3e ff 69 aa be c0 43 5c 3f 6a be 38 be
       0.22622849 -0.33283994 0.8604088 -0.18041387
000390 9e 7a 5b bf e0 6a 18 bd 63 c9 7b 3e 0d 0d ca bd
       -0.85733974 -0.0372113 0.24588542 -0.098657705
0003a0 48 8d 01 be 04 f5 d6 bd 2b b6 c9 3d 76 8b 56 be
       -0.12651551 -0.10495952 0.09849199 -0.20951638
0003b0 d3 5e 54 3e 93 00 fa bd e9 61 d4 be 9f d0 ae 3e
       0.20739298 -0.12207141 -0.4148095 0.3414354
0003c0 ec d3 17 3e 35 18 67 bf dd c1 aa bf ec 73 1b 3c
       0.14826936 -0.9027131 -1.3340412 0.009488087
0003d0 87 a9 5c 3e 81 89 25 be 8e 5f 84 3d 42 ad c9 bd
       0.21549045 -0.16165735 0.06463538 -0.098474994
0003e0 bd c0 84 be a7 79 b1 bf e5 22 0b bd 5f 9d 6b be
       -0.25928298 -1.386525 -0.033968825 -0.23009251
0003f0 3a 54 06 bc 8d 78 87 bb 82 ef 91 3e 1a ba 1e 3d
       -0.008198792 -0.004134244 0.28503042 0.0387517

total_net.2.net.0.fc.bias f4 [25]
000000 ea cc 4f be 13 96 8e be f8 29 32 3e a9 7f e7 bd
       -0.20293012 -0.27848873 0.17398822 -0.11303646
000010 04 db 30 3e 92 44 82 bd 79 f4 a9 bd 16 34 4f bc
       0.17271048 -0.06360735 -0.082985826 -0.012646696
000020 af 21 9d be 26 39 e7 bd 14 dc 6b be ce 72 75 bd
       -0.3068976 -0.11290197 -0.23033172 -0.05992394
000030 28 9c 06 bd e4 ec 77 3d ce d1 a8 3d e9 8b af be
       -0.032863766 0.06052865 0.08243142 -0.3428643
000040 56 1a e2 bd 6c 3f 9d bd ad 19 cb be 01 45 2b bd
       -0.110401794 -0.076781124 -0.39668027 -0.041813854
000050 b8 d4 2a 3d 6c 41 53 3e d7 08 d2 3e cd a1 75 bc
       0.04170677 0.20630425 0.4102237 -0.01499219
000060 70 bd 35 3e
       0.17748046

total_net.3.weight f4 [3, 25]
000000 0b 1b 2d be b3 a3 21 be 18 ce d3 3e e8 0a 01 be
       -0.16904847 -0.15785103 0.41368175 -0.12601817
000010 ec a4 f7 bd 85 56 2b bc 5b f6 89 3a ff 44 2a 3d
       -0.12092003 -0.01045764 0.001052569 0.041569706
000020 2c e9 9c be 71 1b b7 3e 45 a5 68 3e e3 eb 8e bd
       -0.30646646 0.35763124 0.22719295 -0.069785856
000030 e4 f1 ac 3e 29 b9 4a be 80 f5 69 bd 63 61 d7 be
       0.33778298 -0.19797195 -0.057118893 -0.42066488
000040 37 46 1e 3e 42 2c 47 be ac 43 74 be 16 64 91 be
       0.15456472 -0.19450477 -0.2385394 -0.28396672
000050 e1 62 ee be d4 33 d0 3e cc 67 53 be fc 5c 87 be
       -0.46559814 0.40664542 -0.20645064 -0.2643813
000060 8c 35 97 3e 3f c8 91 3e c4 48 6a 3e fc 2a f9 3c
       0.2953304 0.28473088 0.2287932 0.030416004
000070 fd 5b c6 3e 2b b2 95 be 11 14 63 be db 7a 8e 3e
       0.38742056 -0.29237494 -0.22175623 0.27828106
000080 ec 33 ce be 3f 59 95 be dd 4a a2 be 58 06 d9 be
       -0.40273988 -0.29169652 -0.3169774 -0.42387652
000090 b6 85 be bd b0 5f ec 3e d5 73 0f be c1 90 c9 3e
       -0.09302847 0.46166754 -0.1400903 0.3936825
0000a0 52 28 9a be 8c 46 18 be 56 f2 8d 3e 98 9c a1 be
       -0.30108887 -0.14870661 0.2772395 -0.31564784
0000b0 49 19 12 3e dd 87 6b 3e 80 ef 44 bd d4 ab 98 bd
       0.14267458 0.23001046 -0.048079967 -0.074546486
0000c0 1e 1b cc 3a 41 63 e9 be 15 07 ab be 38 4c f2 be
       0.0015572046 -0.45583537 -0.3340384 -0.47323775
0000d0 21 e1 22 bd 4e e6 15 be 4d 03 99 3e a8 22 7c 3e
       -0.03976548 -0.14638636 0.2988533 0.24622595
0000e0 d6 8d 78 3e 6d bc 54 be 94 b5 cb bd 67 e0 bf bd
       0.24272856 -0.20775004 -0.09946743 -0.09368973
0000f0 16 52 07 3e 10 ee ad 3e 08 58 76 be 03 2d 86 be
       0.13214907 0.3397069 -0.24057019 -0.26206216
000100 19 63 0e be 76 a8 a0 3c 2a 3d c8 be 32 e6 03 bd
       -0.1390499 0.019611578 -0.39109164 -0.032201953
000110 d1 f5 51 be b9 00 bd bd 0e 80 b8 be 81 e9 66 3d
       -0.20503928 -0.092286535 -0.36035198 0.05637503
000120 c9 3f af 3e 8e 33 23 3e ab dd e3 bd
       0.34228352 0.15937635 -0.11126264

total_net.3.bias f4 [3]
000000 50 91 98 3d c7 59 5f 3d 6a 8d c1 3c
       0.07449591 0.054528978 0.023627002
