Modeling eMNS/EMS_ANN.pt (torch, 38976 bytes, 8 tensors)

weight f4 [100, 15]
0	0xbe78ab07	-0.24283992
1	0x3efbe3ca	0.49197227
2	0xbf115fe1	-0.56786925
3	0x3f7e8c11	0.99432474
4	0x3ecccb2d	0.3999876
5	0xbe560500	-0.20900345
6	0xbe33fe3f	-0.17577456
7	0x3f354b1c	0.7081773
8	0xbf1b62fe	-0.60697925
9	0xbec8574b	-0.391291
10	0xbed43d0f	-0.41452834
11	0xbebd5dba	-0.3698557
12	0xbd3bfe18	-0.04589662
13	0x3cd28731	0.02569923
14	0xb93421a9	-0.00017178677
15	0xbdd041b3	-0.10168781
16	0x3f529662	0.82260716
17	0x3e9fc2d9	0.31203344
18	0xbe7cbc7c	-0.24681276
19	0x3e7db4d9	0.24776019
20	0x3d8371a7	0.06418162
21	0xbc331a4a	-0.010931561
22	0x3e3caf90	0.18426347
23	0xbf2926f1	-0.66075045
24	0xbe1990a4	-0.14996582
25	0xbd991abc	-0.07475802
26	0x3ec9f606	0.39445513
27	0xbe5deef0	-0.21673179
28	0xbdc5304d	-0.09628353
29	0xbce6af91	-0.028159888
30	0xbe7cd484	-0.24690443
31	0x3de7ec3e	0.113243565
32	0x3eef5fb5	0.46752706
33	0x3f44b2f2	0.7683555
34	0xbe0bd168	-0.13654101
35	0xbdc95ec5	-0.09832529
36	0x3d5939e3	0.05303372
37	0xbf1169cf	-0.56802076
38	0x3ca58a21	0.020207467
39	0x3dd91161	0.10599018
40	0x3e3b3962	0.18283609
41	0xbe97e829	-0.29669312
42	0x3e22b4c2	0.15889266
43	0x3ddb11cf	0.10696756
44	0xbd20bbaf	-0.03924149
45	0xbe2beafb	-0.16788857
46	0x3db86bd2	0.0900494
47	0xbdc711fb	-0.097202264
48	0x3f49e5d1	0.78866297
49	0xbd93d32e	-0.07218014
50	0xbc2d8d81	-0.010592819
51	0xbdb0048a	-0.08594616
52	0x3f06d2af	0.5266523
53	0x3f5553ce	0.83331
54	0x3e7abd53	0.24486284
55	0xbf2f6cab	-0.6852519
56	0xbf4cbf6e	-0.799796
57	0x3d187d68	0.03722897
58	0x3c893ce6	0.016752671
59	0xbc00bc5b	-0.007857407
60	0x3f5bca70	0.8585577
61	0xbf6a0226	-0.9140953
62	0xbebf2252	-0.37330872
63	0x3e43bd3e	0.19115159
64	0xbf047239	-0.5173679
65	0xbe0c5577	-0.13704477
66	0x3e0ce54f	0.1375935
67	0x3f870898	1.0549498
68	0xbe6e0fef	-0.23248266
69	0xbf665894	-0.8997891
70	0xbe5dff62	-0.21679452
71	0x3ef25ab6	0.47334832
72	0xbcc64c5f	-0.024206338
73	0xbd546aa5	-0.051859517
74	0xbd8acba4	-0.067771226
75	0xbe3c9aa1	-0.18418361
76	0xbcfb85f7	-0.030703528
77	0xbf66743a	-0.900211
78	0xbed621b4	-0.41822588
79	0xbf1d0ebb	-0.613506
80	0x3f5e7270	0.8689337
81	0xbeabe281	-0.33571246
82	0x3ed7fec7	0.42186567
83	0x3d558253	0.05212624
84	0x3f23fd9d	0.6405886
85	0xbe6c57d1	-0.23080374
86	0x3e60f284	0.21967512
87	0xbd8077ce	-0.06272851
88	0x3e2c7e86	0.1684514
89	0x3cc2b576	0.023768168
90	0x3cd273ba	0.025689948
91	0xbefd7be4	-0.49508584
92	0xbdc2366a	-0.09483035
93	0x3e5020c1	0.20324995
94	0xbf0e09cb	-0.5548369
95	0xbf208285	-0.62699157
96	0x3e0c863c	0.13723081
97	0xbe0decde	-0.13859889
98	0x3f2bab04	0.67057824
99	0x3f0249aa	0.5089365
100	0x3dd88e85	0.105740584
101	0xbe99174e	-0.29900593
102	0xbca8197c	-0.020519964
103	0xbd03c410	-0.0321694
104	0x3e2067c7	0.15664588
105	0xbf89d5ba	-1.0768349
106	0xbf824f93	-1.0180534
107	0xbf78f534	-0.9724915
108	0xbf1c7254	-0.6111195
109	0xbdc6d38d	-0.09708319
110	0x3e51b359	0.20478572
111	0xbe4d8f4d	-0.20074196
112	0x3f989558	1.1920576
113	0x3ef90b18	0.48641276
114	0xbdae04ce	-0.0849701
115	0x3e8706c7	0.26372358
116	0x3c6a9ddf	0.014319866
117	0x3dd6c4b6	0.104867384
118	0xbd8aafcd	-0.067718126
119	0x3cec7ce5	0.028868148
120	0x3eedb571	0.4642749
121	0x3f6ed682	0.9329606
122	0xbf44e1f1	-0.7690726
123	0xbd597408	-0.05308917
124	0xbe9e496c	-0.3091539
125	0x3f0167ee	0.5054921
126	0x3f64a2da	0.8931099
127	0x3dd7e0be	0.10540913
128	0xbf6c3d3e	-0.9228095
129	0x3e7a0591	0.24416186
130	0xbe5b4045	-0.21411236
131	0xbe8e62ad	-0.2780966
132	0xbd822b86	-0.06355958
133	0xbd6515f8	-0.055929154
134	0x3da7aece	0.08187638
135	0xbdcd31a5	-0.100192346
136	0x3ec8ef23	0.39244947
137	0x3f4423ca	0.7661711
138	0xbe42cdf4	-0.19023877
139	0xbe4e3055	-0.20135625
140	0xbe35060a	-0.17678085
141	0x3e22fda5	0.1591707
142	0x3eec7281	0.4618111
143	0xbe7c2697	-0.24624096
144	0x3e546824	0.20742851
145	0xbc998c6a	-0.018743712
146	0xbea1ff2b	-0.3163999
147	0x3e47b798	0.19503629
148	0x3ca8b364	0.020593353
149	0xbde442b9	-0.11145539
150	0x3f09d4c1	0.5384026
151	0x3d16c634	0.036810115
152	0x3f203eb5	0.62595683
153	0xbf321fd1	-0.695798
154	0xbfa0af64	-1.2553525
155	0xbf23bbd3	-0.6395847
156	0xbe025d74	-0.12730962
157	0x3f1e331d	0.6179674
158	0xbf16dff5	-0.5893548
159	0xbed77cd8	-0.42087436
160	0x3ed32611	0.4123998
161	0x3f6e6dbd	0.931362
162	0x3c00da2e	0.007864518
163	0xbcb30fcd	-0.02185812
164	0x3cd9dd24	0.026594706
165	0xbead89a4	-0.33894074
166	0x3e0ccaf0	0.1374929
167	0x3be15e8e	0.006877727
168	0xbf0a28fa	-0.53968775
169	0xbecce6c0	-0.40019798
170	0xbf3f95bf	-0.7483787
171	0xbf501424	-0.8128073
172	0x3ec15231	0.3775802
173	0xbe035f96	-0.12829432
174	0xbd9ed844	-0.07756093
175	0xbe428d36	-0.1899918
176	0xbe650fb5	-0.22369273
177	0xbf63429c	-0.8877351
178	0xbec0fc58	-0.37692523
179	0x3d30e9d6	0.043191753
180	0xbe76be7b	-0.240961
181	0x3eee730b	0.46572146
182	0xbeea640c	-0.45779455
183	0xbf359cf4	-0.70942616
184	0xbeb7593e	-0.35810274
185	0xbe2396ae	-0.15975448
186	0xbefd821f	-0.49513337
187	0x3f0ffadb	0.5624215
188	0xbadc0b18	-0.0016787974
189	0xbeb4bc3f	-0.3529987
190	0x3f5bc4b8	0.85847044
191	0xbed9604a	-0.42456275
192	0x3c91557c	0.017740957
193	0xbcb4dce5	-0.022077987
194	0x3c950557	0.018191023
195	0x3f1d8e68	0.6154542
196	0xbe861106	-0.26184863
197	0xbef6924c	-0.4815849
198	0x3f4bc79a	0.7960144
199	0x3dce6a03	0.10078814
200	0x3d7ec09d	0.06219541
201	0xbecdd295	-0.40199724
202	0x3e9c6ae7	0.3055031
203	0xbe661d63	-0.22472148
204	0x3edfd3e4	0.43716347
205	0x3f1e21c6	0.61770284
206	0x3da13ac4	0.07872537
207	0x3b341da0	0.0027483478
208	0x3c4d9d69	0.012549737
209	0xbdf02fab	-0.11727842
210	0xbb9b4e1e	-0.004739537
211	0xbf469879	-0.77576405
212	0xbe31de99	-0.1737007
213	0x3f7b2b4d	0.98112947
214	0xbdc1dba2	-0.0946572
215	0xbccdd8a1	-0.02512771
216	0x3f609c00	0.8773804
217	0xbb279b1d	-0.0025574632
218	0x3e607f15	0.21923478
219	0x3be2e60b	0.006924396
220	0xbf85b8de	-1.0447042
221	0xbedfc63b	-0.43705925
222	0xbdb386a8	-0.08765918
223	0x3df662b3	0.12030544
224	0xbe00b3c1	-0.1256857
225	0x3f2f05e0	0.6836834
226	0xbedd06b3	-0.43169174
227	0xbf9ed979	-1.2410117
228	0xbf49b5b5	-0.7879289
229	0xbd93e719	-0.07221813
230	0x3f0c082e	0.5469998
231	0x3f52931d	0.8225573
232	0xbdb2ead8	-0.08736199
233	0x3f15e5e5	0.58553916
234	0xbefa7ac7	-0.48921797
235	0xbf2a3c45	-0.66498214
236	0x3f40d4a9	0.75324494
237	0xbc081064	-0.008304689
238	0xbcdafce9	-0.026731925
239	0xbd497f14	-0.049193457
240	0x3f015af0	0.50529385
241	0x3e1e3b90	0.15452409
242	0xbcf7a680	-0.03023076
243	0xbe70214f	-0.23450206
244	0x3f78a784	0.9713061
245	0x3f319a3c	0.6937597
246	0x3e87c339	0.2651613
247	0x3e9bb0c0	0.30408287
248	0xbed0c38b	-0.40774187
249	0xbe9e5686	-0.30925387
250	0xbec6fe65	-0.38865963
251	0xbf98c6a0	-1.1935616
252	0x3d00f603	0.031484615
253	0x3d014711	0.031561915
254	0xbd490abb	-0.0490825
255	0x3f36c69b	0.713968

bias f4 [100]
0	0x3e7ac299	0.24488296
1	0x3e2eee22	0.17083028
2	0x3e53c1a9	0.20679344
3	0xbeb3aa60	-0.35090923
4	0x3e1cbe0d	0.15306874
5	0xbd5d0f16	-0.053969465
6	0x3eb289d4	0.3487078
7	0xbe196360	-0.14979315
8	0xbe93254a	-0.28739387
9	0xbbedaa16	-0.007252942
10	0xbe3f0bff	-0.1865692
11	0x00000000	0.0
12	0x3d562106	0.052277587
13	0xbdb80222	-0.08984782
14	0xbe8572b7	-0.26064083
15	0xbd3ced2b	-0.04612462
16	0xbdbc34a7	-0.0918973
17	0xbd8b8f0d	-0.06814394
18	0xbdb482b1	-0.0881399
19	0x3e253537	0.16133581
20	0xbd86e947	-0.06587463
21	0xbe44944f	-0.191972
22	0x3c352e11	0.011058346
23	0x3e179f1c	0.14806789
24	0xbe2f9d77	-0.17149912
25	0xbea043a5	-0.3130161
26	0xbda308e4	-0.0796068
27	0x3e969527	0.2941067
28	0xbe291cf7	-0.16514955
29	0x3ec3c057	0.3823268
30	0xbe9bd684	-0.304371
31	0xbdc855b0	-0.097819686
32	0xbe8263ac	-0.2546667
33	0xbe915a08	-0.28389
34	0xbe8bb3d1	-0.27285627
35	0xbe71f816	-0.23629794
36	0x3d591242	0.052995928
37	0x3eb6ab7a	0.356777
38	0xbe964380	-0.29348373
39	0x3eb46f65	0.35241237
40	0x3e151048	0.14556992
41	0x3e711c73	0.23546009
42	0x3e750862	0.23928979
43	0xbe8faa89	-0.28059795
44	0x3dd22acf	0.10262071
45	0x3d78be95	0.06072863
46	0x3de97d4e	0.11400853
47	0x3e2ba368	0.16761553
48	0x3e37e4e6	0.17958412
49	0x3b082c8a	0.00207785
50	0x3dfa80b2	0.12231578
51	0x00000000	0.0
52	0xbe179361	-0.14802314
53	0x3ea83861	0.32855514
54	0x3e99843a	0.29983693
55	0x3d07d9d0	0.033166707
56	0xbda83c1c	-0.0821459
57	0xbe682fa3	-0.22674422
58	0x3e5855ea	0.21126524
59	0x3db83742	0.089949146
60	0x3e960c06	0.29306048
61	0xbe2ca3a1	-0.16859294
62	0x3e82d4f8	0.25553107
63	0x3d1d9361	0.03847063
64	0x3c521386	0.012822038
65	0xbeab4fea	-0.33459407
66	0xbe85e3de	-0.2615041
67	0x3e14c5dd	0.14528604
68	0xbd65f17a	-0.056138493
69	0xbdfcc1fb	-0.12341686
70	0x3e5c6834	0.21524125
71	0xbe803078	-0.2503698
72	0x3bbd7caf	0.0057826857
73	0x3d4e72d9	0.050402496
74	0x3ec3e034	0.3825699
75	0xbd905e2d	-0.070492126
76	0xbd9ae0fa	-0.07562442
77	0x3edeec29	0.4353955
78	0x3cd1b79d	0.025600249
79	0x3e6b8b9a	0.23002473
80	0xbe88c85c	-0.26715362
81	0xbd492612	-0.049108572
82	0x3dece1ef	0.11566531
83	0xbd32a1f2	-0.043611474
84	0x3da6ce34	0.08144799
85	0x3f1d6494	0.61481595
86	0xbe9c04dc	-0.30472457
87	0x3e39bb43	0.18137841
88	0x3e5fd51a	0.21858636
89	0x3eb09476	0.34488267
90	0xbd9a2445	-0.07526449
91	0xbcc355eb	-0.02384468
92	0xbe5f546c	-0.21809548
93	0xbe4c3c8a	-0.19944969
94	0x3c947dec	0.01812645
95	0xbdfbebdc	-0.12300846
96	0x3dd9b644	0.106304675
97	0x3e9f3acc	0.31099546
98	0x3ea521c8	0.32252336
99	0xbe1bcefd	-0.15215679

weight f4 [50, 100]
0	0xbf00774c	-0.5018203
1	0xbdc6f32e	-0.097143516
2	0x3e1288d4	0.14310008
3	0x3f1c2bbe	0.61004245
4	0x3e179bdb	0.14805548
5	0xbf2aa3ac	-0.66655993
6	0xbdafcb9b	-0.085837565
7	0xbf8f1f3c	-1.1181407
8	0x3e94dde7	0.29075548
9	0xbe4f24b5	-0.20228846
10	0x3e173006	0.14764413
11	0x3c8f12d4	0.017465033
12	0x3f0d6c6b	0.5524356
13	0x3ed3fd88	0.41404366
14	0x3f1a605d	0.6030329
15	0xbe1740d8	-0.1477083
16	0x3e15b144	0.14618403
17	0x3e4e09d0	0.2012093
18	0x3de32770	0.110915065
19	0x3e19850d	0.14992161
20	0xbe1badd9	-0.15203036
21	0x3d30ed56	0.04319509
22	0x3df4590a	0.11931045
23	0x3efbebfd	0.49203482
24	0xbd3e6eec	-0.046492502
25	0xbe7045a9	-0.23464073
26	0xb9e05383	-0.0004278683
27	0xbf5aaaa6	-0.8541664
28	0xbe8767ea	-0.26446468
29	0x3e8f8ff8	0.28039527
30	0x3d2511fd	0.040300358
31	0xbebd2ad3	-0.36946735
32	0x3f30541b	0.68878335
33	0x3ea93c98	0.33054042
34	0xbe5cf030	-0.21576
35	0xbdadae26	-0.08480482
36	0x3ebb7af2	0.36617237
37	0xbe8bb85c	-0.27289093
38	0xbd565919	-0.052331064
39	0x3db0b48d	0.08628187
40	0xbe7cb381	-0.2467785
41	0x3d1af364	0.03782977
42	0x3e8cc9ac	0.27497613
43	0xbe80313f	-0.25037572
44	0xbf076b2b	-0.528979
45	0xbf85e9fa	-1.0462029
46	0x3e9b794d	0.30365983
47	0xbc350c59	-0.011050307
48	0x3e6e34c7	0.2326232
49	0x3da987cd	0.08277855
50	0x3ea9d338	0.3316896
51	0xbe3bc053	-0.18335085
52	0x3d005986	0.031335376
53	0x3eb96cad	0.36215726
54	0xbdff4d2c	-0.12465891
55	0xbea2da8f	-0.31807372
56	0xbe899bdd	-0.26876727
57	0x3e911cdb	0.28342327
58	0xbe9ffbd9	-0.31246832
59	0xbd851cd0	-0.06499636
60	0x3e941def	0.28929088
61	0xbda4e796	-0.08051984
62	0xbf13cd1c	-0.5773485
63	0x3e3831fb	0.17987816
64	0x3e8fff8e	0.2812466
65	0xbcc14214	-0.023591079
66	0xbc86fc4e	-0.01647773
67	0xbedae866	-0.4275543
68	0xbf2267e6	-0.63439786
69	0x3e5657e0	0.20931959
70	0xbd68ba0e	-0.05681806
71	0xbed89b0f	-0.423058
72	0xbf36e901	-0.71449286
73	0x3f23367e	0.63755023
74	0xbcccd2b4	-0.025002815
75	0xbf1a9d4a	-0.60396254
76	0x3f0a71c5	0.5407985
77	0xbdf36b89	-0.11885745
78	0x3f1c8b15	0.6114972
79	0x3dacde2e	0.08440815
80	0xbe0c1c92	-0.13682774
81	0x3e40eda9	0.1884066
82	0x3e0bc099	0.13647689
83	0xbec9afbd	-0.3939189
84	0x39059d2d	0.00012742421
85	0x3dfdcb03	0.12392237
86	0x3f8376c8	1.0270624
87	0xbdf737b2	-0.1207117
88	0x3dee3511	0.11631215
89	0x3e887f1b	0.26659474
90	0xbdb44ae6	-0.08803348
91	0x3e4bb8bd	0.19894691
92	0xbe91cdc1	-0.2847729
93	0x3d571400	0.052509308
94	0xbead9564	-0.33903039
95	0xbe70b7ac	-0.23507565
96	0xbd651909	-0.05593208
97	0x3d928695	0.07154576
98	0x3a28b071	0.0006434983
99	0x3e6d4a8e	0.23172972
100	0xbe1df9d5	-0.15427335
101	0xbecf0688	-0.4043467
102	0x3e444966	0.19168624
103	0xbc76f8c6	-0.015073961
104	0x3e4f73fe	0.20259091
105	0x3e6bac3d	0.23014922
106	0x3e6fcb63	0.2341743
107	0xbeb3dd17	-0.35129616
108	0xbef4bb10	-0.47798967
109	0xbea18c67	-0.3155243
110	0xbe8b2fad	-0.2718481
111	0xbe018f35	-0.12652285
112	0x3f309a1a	0.6898514
113	0x3ebcd551	0.36881498
114	0x3ba2eea6	0.0049722968
115	0xbe247d80	-0.160635
116	0xbe8a8c25	-0.27060047
117	0x3ed359f8	0.41279578
118	0x3df946f8	0.12171739
119	0xbc2d58b1	-0.010580228
120	0x3d78a3d3	0.06070311
121	0xbe2245b7	-0.15846907
122	0xbf4624de	-0.77400005
123	0x3e8234df	0.25430962
124	0x3dd08528	0.101816475
125	0x3ec34039	0.38134935
126	0x3deb264d	0.11481915
127	0x3ef4e4eb	0.478309
128	0xbe471c2f	-0.19444345
129	0xbf4d1413	-0.80108756
130	0x3e3a588d	0.18197842
131	0x3ebeee24	0.37291062
132	0x3d25a02f	0.040435966
133	0x3d956046	0.07293753
134	0x3eb29aec	0.3488382
135	0xbd7449de	-0.059640758
136	0xbe62624d	-0.22107811
137	0x3e967f97	0.29394218
138	0x3e8fd86f	0.28094813
139	0xbe70d40f	-0.23518394
140	0xbe616093	-0.22009496
141	0xbe27d8f0	-0.16391349
142	0xbeebafe8	-0.46032643
143	0xbe9177a1	-0.28411582
144	0xbe993374	-0.29922068
145	0xbee62ed6	-0.44957608
146	0x3e53e8b0	0.20694232
147	0xbd88b761	-0.06675602
148	0x3f84e025	1.0380903
149	0xbf15e101	-0.58546454
150	0xbeb354d6	-0.35025662
151	0x3e80af85	0.2513391
152	0x3e9ae4b3	0.3025261
153	0x3f0ecaa5	0.5577796
154	0x3eadcf71	0.33947328
155	0x3f73ea61	0.9527951
156	0xbc8d4928	-0.017246798
157	0x3e60f499	0.21968307
158	0xbd9eb699	-0.077496715
159	0xbe913971	-0.28364137
160	0xbf0e5129	-0.5559259
161	0xbda29f92	-0.07940592
162	0x3f00d809	0.50329643
163	0x3e8a3a50	0.26997614
164	0xbe93c76a	-0.28863078
165	0xbc6ef567	-0.014584876
166	0x3d8ccc21	0.06874872
167	0xbeab6ecf	-0.33482978
168	0x3eddcd4a	0.43320686
169	0x3ea57bd6	0.32321042
170	0x3effd98a	0.49970657
171	0x3da2c042	0.079468265
172	0x3e24b461	0.16084434
173	0x3df040e7	0.11731129
174	0x3e80ed69	0.2518113
175	0x3e760320	0.2402463
176	0x3e6f490e	0.23367712
177	0x3f22681c	0.6344011
178	0xbe5bc747	-0.21462737
179	0xbee1a61d	-0.44072047
180	0xbde3765c	-0.1110656
181	0xbe811e92	-0.25218636
182	0x3d345cbc	0.04403375
183	0x3e286a00	0.16446686
184	0x3ea3a49f	0.31961533
185	0xbf7e6937	-0.99379295
186	0x3e40cf8f	0.18829177
187	0x3d3c0fe6	0.0459136
188	0x3e384ca5	0.17997988
189	0x3b84490c	0.004037028
190	0x3e5f13f0	0.2178495
191	0x3de81616	0.113323376
192	0x3ed84a0b	0.4224399
193	0xbd3418a6	-0.04396882
194	0x3df67796	0.12034528
195	0xbc1e5b3e	-0.0096653085
196	0x3d70ba6b	0.058771532
197	0xbe8ae5c9	-0.27128437
198	0xbeb21089	-0.3477824
199	0x3ed64f17	0.41857216
200	0x3ec36a4d	0.3816704
201	0xbe746505	-0.23866661
202	0x3e091cca	0.13389888
203	0xbe8684ce	-0.26273197
204	0x3eb72366	0.35769194
205	0xbd8cea70	-0.06880653
206	0x3f2dd8c1	0.67908865
207	0xbf3b125b	-0.73074883
208	0xbe738b99	-0.23783721
209	0xbcd3aa41	-0.02583802
210	0x3e9ff5d0	0.31242228
211	0xbe7be132	-0.24597624
212	0x3e171113	0.14752607
213	0x3e843147	0.25818846
214	0x3f8b02ce	1.0860231
215	0xbf0e0546	-0.55476797
216	0xbe9cde83	-0.30638513
217	0xbef73d9e	-0.48289198
218	0x3ee48767	0.44634554
219	0xbf0d4dbd	-0.55196744
220	0x3d1c5cf5	0.03817459
221	0x3e2e4313	0.17017774
222	0x3e01003e	0.12597749
223	0x3e558582	0.2085171
224	0xbea3e45a	-0.32010156
225	0x3e91668f	0.28398558
226	0xbe69812f	-0.22803186
227	0xbcf3419a	-0.029694367
228	0xbe5dc8b7	-0.21658598
229	0x3e9885ea	0.29789668
230	0x3f1f8e8d	0.6232689
231	0x3da1eb1c	0.07906172
232	0xbe766c14	-0.24064666
233	0xbeb69f32	-0.3566833
234	0xbf1b1b9d	-0.6058901
235	0xbd2d5d76	-0.04232546
236	0x3ece1b5d	0.40255252
237	0xbe9a4fb3	-0.3013893
238	0x3f3f2396	0.74663675
239	0x3e3e30ac	0.18573254
240	0x3df2dc87	0.118584685
241	0xbed54fd2	-0.4166246
242	0x3e5b3b1f	0.21409272
243	0x3ecd6292	0.40114266
244	0x3ec143eb	0.3774713
245	0x3d505396	0.050860964
246	0xbcc7ee32	-0.024405573
247	0x3ea5c620	0.3237772
248	0xbf195ad2	-0.59904206
249	0xbf3a6be6	-0.7282089
250	0xbec72304	-0.38893902
251	0x3d9d556f	0.07682311
252	0x3f03917c	0.51393867
253	0xbe388740	-0.18020344
254	0x3f07a5c3	0.5298731
255	0xbf310120	-0.6914234

bias f4 [50]
0	0xbe188b1f	-0.1489682
1	0x3dd6efd1	0.1049496
2	0xbdad5054	-0.08462587
3	0x3e41e89b	0.18936388
4	0xbe0f363c	-0.13985533
5	0x3c266f32	0.010158347
6	0xbd35c612	-0.044378348
7	0x3df496d5	0.119428314
8	0xbdd1e789	-0.1024924
9	0x3dafbebb	0.08581301
10	0xbd0ee5d3	-0.034887146
11	0xbe915b12	-0.28389794
12	0x3e02a93c	0.1275987
13	0x3e760fb5	0.2402943
14	0x3e419bd6	0.18907103
15	0xbdd1f10d	-0.10251055
16	0xbe00b31b	-0.12568323
17	0x3e6dd798	0.23226774
18	0x3ce6fc2c	0.028196417
19	0xbe5dc842	-0.21658424
20	0xbe5bfd07	-0.21483241
21	0xbcf20fbe	-0.029548522
22	0x3eb04e30	0.34434652
23	0xbd8874bb	-0.066628896
24	0x3dd12225	0.10211591
25	0x3da381c3	0.079837345
26	0x3e8aeb2a	0.2713254
27	0x3e0a2cc4	0.13493639
28	0xbc93a895	-0.018024722
29	0x3b7ede99	0.0038890003
30	0x3e09d2ff	0.13459395
31	0x3ebb2b8e	0.36556667
32	0x3e5aab2f	0.21354364
33	0x3e9c8868	0.3057282
34	0xbcd3631e	-0.025804099
35	0xbe4038e8	-0.18771708
36	0xbd8fdaff	-0.07024192
37	0x3e0bc8a7	0.13650762
38	0x3e8e6787	0.2781336
39	0xbb8d7168	-0.0043164976
40	0xbd56eafa	-0.052470185
41	0x3e4d58cf	0.20053409
42	0x3edcbdd5	0.4311358
43	0xbd90045d	-0.07032082
44	0xbec1628f	-0.37770507
45	0xbde94818	-0.11390704
46	0xbe5db049	-0.21649279
47	0x3dd2a4d2	0.10285343
48	0x3e0012fa	0.12507239
49	0xbc456c4c	-0.012049746

weight f4 [25, 50]
0	0x3e9d2ba0	0.30697346
1	0xbe4fe867	-0.20303498
2	0x3e0227ca	0.12710491
3	0x3e6fb4af	0.23408769
4	0x3d997d87	0.074946456
5	0x3ed3c2df	0.41359612
6	0xbdf8950f	-0.12137806
7	0xbece5439	-0.40298632
8	0xbf761608	-0.96127367
9	0x3dac68fd	0.084184624
10	0xbf1d9bde	-0.6156596
11	0x3e3dccf2	0.18535212
12	0xbe12cd64	-0.14336163
13	0xbea67586	-0.32511538
14	0xbe719e4d	-0.23595543
15	0xbef8c034	-0.4858414
16	0x3f0af92b	0.5428645
17	0xbe235d15	-0.15953477
18	0xbe1166a2	-0.14199308
19	0x3e685f81	0.22692682
20	0x3f88c6b6	1.0685642
21	0x3eb2038a	0.34768325
22	0x3eb9893d	0.36237517
23	0xbdb272f5	-0.087133326
24	0x3dcecde0	0.10097861
25	0xbf0cbb9c	-0.5497377
26	0xbdb20eb4	-0.08694211
27	0x3f3a4be1	0.7277203
28	0xbf43c662	-0.76474583
29	0xbe6e77f4	-0.23287946
30	0xbd33ec00	-0.04392624
31	0x3dcebfb6	0.1009516
32	0x3e0e3d95	0.13890679
33	0xbd55eb67	-0.05222645
34	0x3da9bea8	0.08288318
35	0x3e4ba272	0.19886187
36	0x3f0b502d	0.54419214
37	0xbeb2457f	-0.34818646
38	0xbf41f457	-0.7576346
39	0x3d9c53d1	0.07633174
40	0x3f07d067	0.5305237
41	0xbed896c1	-0.42302516
42	0xbe614497	-0.21998821
43	0xbef4f933	-0.47846374
44	0x3ea07fb2	0.31347424
45	0xbed1fb6f	-0.4101214
46	0x3f1d2066	0.6137756
47	0x3e6fe3fc	0.23426813
48	0x3e114003	0.14184575
49	0xbe83ed32	-0.25766903
50	0x3e72a786	0.23696718
51	0xbdd6706f	-0.10470664
52	0xbe8ecb6a	-0.27889568
53	0x3dfe0ea2	0.12405135
54	0xbda4645b	-0.08026954
55	0xbdc26b6b	-0.094931446
56	0x3d5e12e6	0.05421724
57	0x3dc220c6	0.09478907
58	0xbe59b3a8	-0.2125994
59	0xbe9075ac	-0.28214777
60	0x3e81b18e	0.25330776
61	0xbe095f0a	-0.13415161
62	0xbdda1550	-0.10648596
63	0x3e6e91eb	0.23297851
64	0xbe154c33	-0.14579849
65	0x3cc7f414	0.024408378
66	0xbe885e14	-0.26634276
67	0xbdeb29af	-0.1148256
68	0xbe493246	-0.19648084
69	0xbe8a3921	-0.2699671
70	0xbdbc7592	-0.09202112
71	0xbebca033	-0.36840972
72	0x3f07689c	0.52893996
73	0xbe6c0c43	-0.23051552
74	0xbe1de6b9	-0.15420045
75	0xbf5d6d22	-0.8649465
76	0x3b2c737d	0.0026313954
77	0xbd8fae72	-0.07015695
78	0xbe9308af	-0.28717563
79	0xbe8ee50b	-0.2790912
80	0x3d4bc2a6	0.049746178
81	0x3f09511d	0.53639394
82	0x3f26e8c4	0.6519892
83	0xbe84cd5e	-0.25937933
84	0x3ec3375b	0.3812817
85	0x3db2f9b0	0.0873903
86	0x3cc604ec	0.024172269
87	0xbf9d0b8d	-1.226915
88	0xbe2e112b	-0.16998737
89	0xbfd7ac18	-1.6849394
90	0xbd7baadc	-0.06144224
91	0xbe8ab704	-0.27092755
92	0xbeaa30e9	-0.3324044
93	0xbdba1e3e	-0.090877995
94	0x3f4e5e1b	0.80612344
95	0xbe9d331c	-0.30703056
96	0xbea44c52	-0.32089478
97	0xbf2605a9	-0.64852387
98	0xbf318987	-0.69350475
99	0x3f1179ab	0.56826276
100	0x3f0f91e9	0.56082016
101	0xbf28e754	-0.6597798
102	0xbd2c7c11	-0.042110506
103	0x3ecfbb5e	0.40572637
104	0xbe96bad2	-0.29439408
105	0xbfa1ff34	-1.2656007
106	0xbe5012ad	-0.20319624
107	0xbe7c471e	-0.24636504
108	0x3f07d949	0.53065926
109	0x3e372530	0.1788528
110	0xbec19040	-0.37805367
111	0x3e92e0e1	0.28687194
112	0xbc942217	-0.018082662
113	0xbe410dd2	-0.18852928
114	0xbf15de33	-0.58542174
115	0xbf43bd2a	-0.76460516
116	0x3e245bf9	0.1605071
117	0x3e150a81	0.14554788
118	0xbf371510	-0.71516514
119	0xbd95a75e	-0.073073134
120	0xbe85c0a7	-0.26123545
121	0x3df6588d	0.120286085
122	0x3e52c95d	0.20584626
123	0x3d9f03e9	0.07764418
124	0xbd9fd383	-0.078040145
125	0x3ea0fd69	0.31443337
126	0xc020dba6	-2.5134063
127	0x3ed39b7e	0.4132957
128	0x3e2731ea	0.16327634
129	0x3d7802b3	0.06054945
130	0xbf6641c2	-0.8994409
131	0x3e50b73b	0.20382397
132	0xbdeaa77e	-0.11457728
133	0xbd23da1e	-0.040002935
134	0x3e47b1ec	0.19501466
135	0xbcdb000e	-0.026733425
136	0xbe2c145f	-0.16804646
137	0xbe92dfaf	-0.28686282
138	0xbec32623	-0.38115034
139	0xbe87a37e	-0.26491922
140	0xbf7e2aaa	-0.9928385
141	0x3c4f3337	0.012646488
142	0xbe4baaaf	-0.1988933
143	0x3e63d012	0.22247341
144	0xbdc8c34b	-0.09802874
145	0xbe23cdfb	-0.15996544
146	0xbe853fe6	-0.26025313
147	0x3c135396	0.008992096
148	0xbe4b8496	-0.19874796
149	0x3f130bd8	0.5743995
150	0x3f165a26	0.58731306
151	0x3d89214c	0.06695804
152	0xbed6febe	-0.41991228
153	0xbf46c168	-0.77638865
154	0x3f185043	0.5949747
155	0xbef22d3d	-0.4730014
156	0xbe13f088	-0.14447224
157	0x3e7e2430	0.24818492
158	0x3e787bad	0.24265929
159	0xbe57c30a	-0.21070495
160	0xbe8c9bd0	-0.27462626
161	0xbf1a21cc	-0.6020782
162	0x3ea24999	0.31696776
163	0xbf3ed0e7	-0.7453751
164	0x3f1301e9	0.5742479
165	0xbf4fbc6b	-0.8114688
166	0xbf0fb441	-0.5613442
167	0xbd9744fe	-0.07386206
168	0xbf4cde9d	-0.8002718
169	0xbd4fa763	-0.05069674
170	0xbedddba2	-0.4333163
171	0x3df86ecd	0.121305086
172	0xbf127191	-0.5720454
173	0x3c6d7600	0.014493465
174	0xbf07b786	-0.5301441
175	0xbe1e9e79	-0.1549014
176	0x3bae5ec5	0.005321356
177	0x3d8814ba	0.06644578
178	0xbd0e356d	-0.03471892
179	0x3e5cd949	0.21567263
180	0x3e1e2183	0.15442471
181	0x3e463b30	0.19358516
182	0x3e925a44	0.28584492
183	0xbeb631b5	-0.35584798
184	0x3dde927f	0.10867786
185	0x3e305564	0.17220074
186	0x3db827db	0.08991977
187	0xbe994632	-0.29936367
188	0xbfdb4592	-1.7130606
189	0xbe46642e	-0.19374153
190	0xbe4d43d2	-0.20045403
191	0xbd9a47ec	-0.07533249
192	0x3f281383	0.6565477
193	0x3e43e7b1	0.19131352
194	0x3f8b74b3	1.0894989
195	0xbe868dd5	-0.26280084
196	0xbe9953cc	-0.29946744
197	0x3e802ec9	0.25035694
198	0xbebb2f90	-0.36559725
199	0xbe55a62c	-0.20864171
200	0x3e3a4edd	0.18194146
201	0x3e89a5db	0.2688435
202	0xbbece4a1	-0.007229403
203	0x3e2d16d9	0.16903247
204	0x3e903179	0.28162745
205	0x3d0ab64f	0.03386527
206	0xbee979dc	-0.45600784
207	0x3dd29c5a	0.10283728
208	0xbdb732cf	-0.08945238
209	0xbe3b4c32	-0.18290785
210	0x3e2b5061	0.16729881
211	0xbe5cfe1f	-0.21581315
212	0xbcd793df	-0.026315628
213	0x3f0a550f	0.5403604
214	0x3e2eb071	0.17059495
215	0x3e2f7cd5	0.17137463
216	0x3e4bcf8c	0.19903392
217	0xbc25b19a	-0.010113144
218	0x3e3d5cab	0.18492381
219	0x3de11f18	0.10992259
220	0x3e6d0fec	0.23150605
221	0xbee2c9fa	-0.4429472
222	0x3d07c63c	0.033148035
223	0xbe243baa	-0.16038385
224	0x3b8acd81	0.0042359238
225	0x3cc89457	0.024484796
226	0x3eee27b0	0.46514654
227	0xbe288af5	-0.16459258
228	0x3b88b115	0.0041715004
229	0x3e22c981	0.1589718
230	0xbdceaf8f	-0.10092079
231	0xbe4c25b1	-0.19936253
232	0x3d103ea5	0.035215992
233	0xbdccb88f	-0.09996139
234	0x3e6c8adc	0.23099846
235	0xbd90ea3d	-0.070759274
236	0x3e2e9fcc	0.17053145
237	0xbe823999	-0.2543457
238	0xbf5f255f	-0.871664
239	0x3dd42beb	0.10359939
240	0xbd7db5b4	-0.061940864
241	0xbe0bb716	-0.1364406
242	0xbe8a3866	-0.26996154
243	0x3db87293	0.09006228
244	0xbea0bda9	-0.313947
245	0xbe845530	-0.25846243
246	0x3e09055d	0.13380952
247	0x3e16fbe6	0.14744529
248	0x3d7fff9b	0.062499624
249	0x3e100a45	0.14066418
250	0xbc83481f	-0.016025601
251	0xbeeb811c	-0.4599694
252	0xbf88275f	-1.0637015
253	0xbe31588f	-0.17318939
254	0xbd4a5cee	-0.04940503
255	0xbea38d3e	-0.31943697

bias f4 [25]
0	0x3d3ed49a	0.04658947
1	0x3ed2de26	0.4118511
2	0x3d24a803	0.04019929
3	0xbe19ccf8	-0.15019596
4	0x3a9c75c3	0.0011936951
5	0xbec03431	-0.3753982
6	0x3e4fa609	0.20278181
7	0x3d5bacfe	0.053631775
8	0x3dce2bc8	0.10066944
9	0x3e0fb442	0.14033607
10	0xbe6031ab	-0.21893947
11	0x3e0214ad	0.127032
12	0xbd8f6fec	-0.07003769
13	0xbc67edee	-0.014155848
14	0xbd879c67	-0.06621628
15	0xbd6c2de4	-0.057660952
16	0x3e081364	0.13288647
17	0x3e3f592a	0.18686357
18	0xbd80c59c	-0.06287691
19	0xbd825abb	-0.06364962
20	0x3dbd7562	0.092509046
21	0x3e10e55c	0.14149994
22	0x3e9a6d65	0.30161586
23	0xbe8d1931	-0.27558282
24	0x3ef4e26f	0.47829005

weight f4 [3, 25]
0	0xbf00ff73	-0.50389785
1	0xbebdafbe	-0.37048143
2	0x3e6acb97	0.22929226
3	0xbeb3820f	-0.35060164
4	0x3886afe9	6.422384e-05
5	0xbe6017c5	-0.21884067
6	0x3e4c31d2	0.1994088
7	0xbe9ef647	-0.3104727
8	0xbe785494	-0.24251014
9	0xbede9d02	-0.43479162
10	0xbd763a0b	-0.060113948
11	0xbe1b47a9	-0.15164055
12	0xbecdf534	-0.40226138
13	0xbe807fd2	-0.2509752
14	0xbe6c61bd	-0.23084159
15	0x3d2a81a4	0.04162754
16	0x3e36a801	0.17837526
17	0x3e7ea0f3	0.24866085
18	0xbea784a3	-0.3271838
19	0xbe9068fd	-0.282051
20	0x3e89fc49	0.2695029
21	0x3eb7b2c6	0.3587858
22	0x3da92d54	0.08260599
23	0xbd9f8d51	-0.07790626
24	0x3ee73bc5	0.45162788
25	0x3e8219ee	0.25410408
26	0x3e16e484	0.1473561
27	0x3ee679c9	0.4501479
28	0x3c91a874	0.01778052
29	0x3d9cfebd	0.07665775
30	0xbead3e55	-0.33836618
31	0xbe4ac01c	-0.19799846
32	0x3e1cdc31	0.15318371
33	0xbdcb2a09	-0.09920127
34	0x3e01a0d5	0.12659009
35	0xbec2a772	-0.38018376
36	0x3db893c1	0.09012557
37	0xbe1eae8b	-0.1549627
38	0x3ebae427	0.3650219
39	0xbc891560	-0.016733825
40	0x3d1991df	0.03749263
41	0x3ee5af70	0.4486041
42	0xbdcdafc8	-0.10043293
43	0x3e197b98	0.14988554
44	0x3e076535	0.13222201
45	0xbe409018	-0.18804967
46	0xbe6bc2f8	-0.23023593
47	0x3ef8889c	0.48541725
48	0xbed84720	-0.42241764
49	0x3eae29db	0.34016308
50	0x3e2a525b	0.16632979
51	0x3e317f6c	0.17333764
52	0x3e95041d	0.291047
53	0xbe84f501	-0.25968173
54	0xbe5e138a	-0.21687141
55	0xbd610e62	-0.054945357
56	0x3e9f5fa4	0.31127656
57	0xbe614606	-0.21999368
58	0xbe81e6f2	-0.2537151
59	0xbe7b5d75	-0.2454737
60	0xbe44c92b	-0.19217364
61	0x3e8c67d2	0.2742296
62	0x3e8aaa87	0.27083227
63	0xbe067e48	-0.1313411
64	0x3e477e87	0.1948186
65	0xbeb21670	-0.34782743
66	0x3d9f0953	0.0776545
67	0x3d3fc622	0.046819814
68	0xbdcf8e8a	-0.10134609
69	0x3ea0e4c0	0.31424522
70	0x3e615f5c	0.22009033
71	0xbdb48764	-0.08814886
72	0xbdc17798	-0.09446639
73	0x3e0c00b3	0.13672142
74	0x3d9f8770	0.077895045

bias f4 [3]
0	0x3c69a61f	0.014260798
1	0x3d780469	0.06055108
2	0x3e7fb457	0.24971138
