Modeling eMNS/EMS_ANN.pt (torch, 38976 bytes, 8 tensors)

weight f4 [100, 15]
00000000: 1c60 9dbe a0b0 6d3e 567c 893e 4a33 8f3e
00000010: 4caf 1bbf 4230 6d3e 516b 333d bab8 37bd
00000020: b896 aebe 337e 143d bf9a c63e e2a4 fc3c
00000030: 07cb 8937 eb05 453e 69fa 093e 62a3 45be
00000040: 9801 3bbe b39b 20be e47c 45be ff39 febe
00000050: 3def 683e e5ce c5be c5cc 48be 3226 f33d
00000060: c040 c4bd 8c14 b93d 83c9 dfbe 0270 803f
00000070: c59f 9a3e 6b91 c63d f23b 773e 2c74 d6be
00000080: 98b3 2fbe 70e9 663d 2ed9 b3be 1043 8b3d
00000090: ff74 6a3d 6df8 0dbe 6e09 893d 1747 153e
000000a0: 170c 1fbc 8233 77bd 7f43 a33d b769 4b3e
000000b0: 255b 38be df51 55bc 7d03 cebe c191 333f
000000c0: ddb5 c4be 8245 7bbe f248 25be d08c 0fbf
000000d0: ebfb ebbc 6549 7e3d c13d 0a3e 600c de3d
000000e0: c9df 06bf 4ba3 86be d538 a93f 4f1d 36be
000000f0: 40ea 2d3e 7a42 75be c1e4 8a3e 5f81 03be
00000100: 9e1c 7cbd 80ac 98be b53f 053c 5e2e a7be
00000110: 70b9 dd3e f6f9 3abe 8eca 623e f515 2cbe
00000120: a21e 09bf f9eb d4bd a48d dd3e 901b 573e
00000130: 64ab b2be 0ddc c13d f717 2d3e 9e48 a6be
00000140: 6515 14bf 3228 413e a7fa ef3e 8227 52bd
00000150: 3024 5f3e 8822 6d3e 8bf5 9e3d 306b 263f
00000160: b24f d6be 30c3 5abd 4da5 ad3e d6f9 073f
00000170: 5329 1f3e 5577 873e 267b ab3e 37fa 493e
00000180: 6065 993e 97f5 f73e ce94 a93e 6836 9cbe
00000190: ba91 4e3e ec6e adbd 6d81 9f3f 9e0d 933c
000001a0: 8c2c 19bf 13e0 ef3d b577 3fbe 1655 063e
000001b0: 56ca 3ebf a918 b9be 5a2b 5e3d 309e 38bf
000001c0: 1ccb b1be 82cb 02be c722 2d3e 3664 403d
000001d0: 0f3d 503e 663e 9c3c 8887 f83e fc6b 89bc
000001e0: 39e1 cbbd b9c9 bc3e eee4 483e d02f 37bd
000001f0: 8bec 03be ac5a 0c3f 46f9 cebd a012 9dbe
00000200: 4db0 45bf 6697 8e3e 309a 3c3e 7ee4 413e
00000210: 6e71 efbe d219 cebe 6296 d03f 355b 533e
00000220: 9aae 24be bcf3 43bd 0481 0b3b 5fb0 a03e
00000230: 01cf 75be 83c9 233e f4a3 113f 5493 b0be
00000240: c59d d03c 0386 6abe d075 8fbc e898 483f
00000250: 50d5 1a3f 3307 1cbf 668a 1d3c a036 2abe
00000260: 4558 ddbd 8be3 d13d d0ea 90be cfe6 4c3b
00000270: ee98 df3e 5b09 07be 50c7 943d 7e32 b4bd
00000280: 1b09 133d af5e 0a3f 9c87 363c 824f 81bf
00000290: e841 cc3e aaa9 e33e 5214 ca3b 17a2 cebd
000002a0: 091b 6fbe c2ad 2fbe c3ed 8ebd f07e 02be
000002b0: c271 f83e 9323 b8bb 1082 12be 16d4 f13e
000002c0: 1d17 b33e 06bb 80bf 4116 0a3f 5f67 ef3d
000002d0: 7990 aebd 8188 a0be 9f64 85be eb56 db3e
000002e0: 99e3 523e 7994 94be 6ff2 f3bd e5df 9dbe
000002f0: 6970 b23e 5e78 ecbd fc01 ad3d 2479 01be
00000300: c670 c6be 6304 4e3d 86f5 d4bd a0e2 bfbe
00000310: 49e0 f6bd d039 bf3d 9666 4fbc 5e1e a03d
00000320: 30db 513e 2adc e33d 477e 7ebe af5a 12bf
00000330: cfa7 883e e527 03bf 6bfd 963e eb47 a3be
00000340: 97b0 5abf e660 a43e 4210 e23c 15fb b9be
00000350: eda0 67be cfb1 023f 5390 813e 7fb4 3ebd
00000360: 0dd8 c8bd 9af5 d23d b408 90be 06f8 92be
00000370: 5282 223d 4d00 03bf 2f59 bd3d 1f21 193f
00000380: 8cc8 4f3f 3e70 6cbd 2f40 d43c c472 66be
00000390: 48c9 163d 32ea 99be 37a9 303e e048 9e3e
000003a0: 5ea8 833e 4188 3d3f 8a68 28be 6892 883d
000003b0: 9010 6a3d 634e 6c3f 12b3 1dbf a3b9 19bf
000003c0: 7d5a bf3e 9135 90be b13f a5bd b942 c4be
000003d0: 7bf1 2bbd 11c2 663f 3772 96bd 7f57 ddbc
000003e0: 81df 773e 3d18 02be 0e8f 43be c02b d2be
000003f0: 0fda 2abe 433f dd3e 9f27 813e da48 96be
-0.30737388 0.23211908 0.26852673 0.27968818 -0.60814357 0.2316294 0.043803517 -0.044853903
-0.34099364 0.036253165 0.38789937 0.030840341 1.6426215e-05 0.19240539 0.1347443 -0.19300607
-0.18262327 -0.15684395 -0.19285923 -0.49653623 0.22747512 -0.3863441 -0.19609363 0.118725196
-0.095826626 0.09037122 -0.4370843 1.0034182 0.3020002 0.09695705 0.24143961 -0.41885507
-0.17158353 0.056374967 -0.35126632 0.067999005 0.057240482 -0.13864298 0.06691252 0.145779
-0.009707472 -0.060351856 0.07971858 0.19864546 -0.18003519 -0.013020008 -0.40237036 0.7014428
-0.3842 -0.24538234 -0.16141108 -0.5607424 -0.028806647 0.062081713 0.1350012 0.10842204
-0.5268522 -0.26296458 1.3220469 -0.17784618 0.1698389 -0.2395114 0.2712765 -0.1284232
-0.06155073 -0.29819107 0.008132865 -0.32652563 0.4330554 -0.18259415 0.22147581 -0.16805251
-0.53562367 -0.10396571 0.43272126 0.21006608 -0.34896386 0.094657995 0.16903673 -0.32477278
-0.57845145 0.1886299 0.4687092 -0.05130721 0.21791148 0.23157704 0.07761677 0.65007305
-0.41857678 -0.0534088 0.33915177 0.53115594 0.15543108 0.2645823 0.33492392 0.19724356
0.29960155 0.48429558 0.3312134 -0.3051026 0.20172778 -0.08468422 1.2461373 0.01795083
-0.598336 0.11712661 -0.18698008 0.13118395 -0.7452749 -0.36151627 0.054240562 -0.72116375
-0.34725273 -0.12772945 0.16907798 0.04697057 0.20335792 0.019072723 0.48540902 -0.016775124
-0.09955067 0.36872652 0.1961858 -0.044723332 -0.12883203 0.54825854 -0.10106139 -0.30678272
-0.7722214 0.27849883 0.18418193 0.18934819 -0.46766227 -0.40254074 1.6295893 0.20640261
-0.1608223 -0.047839865 0.0021286616 0.3138456 -0.24004747 0.1599484 0.568908 -0.34487402
0.025465855 -0.22902684 -0.017512232 0.78358316 0.6048174 -0.60948485 0.009615516 -0.166224
-0.10807852 0.102484785 -0.28304148 0.0031265502 0.43671364 -0.13187163 0.07264578 -0.08798693
0.035897356 0.54050726 0.01114073 -1.0102389 0.39894032 0.4446538 0.006166973 -0.1008951
-0.23350157 -0.17156127 -0.06978943 -0.12743735 0.4852429 -0.005619475 -0.14307427 0.4723212
0.34978572 -1.0057075 0.53940207 0.11689638 -0.0852365 -0.31354144 -0.2605333 0.4283975
0.20594634 -0.29019526 -0.11911475 -0.3083488 0.34851387 -0.11546396 0.08447644 -0.12643868
-0.38757914 0.050297152 -0.103983924 -0.3747759 -0.12054498 0.09337199 -0.012658736 0.07818292
0.2049377 0.11125977 -0.24852858 -0.5716962 0.26690528 -0.5123275 0.29490218 -0.31890807
-0.85425705 0.32105178 0.027595643 -0.36324373 -0.22619982 0.51052564 0.25305423 -0.046558853
-0.098068334 0.10300751 -0.2813164 -0.28704852 0.039675064 -0.51172334 0.09245526 0.59816164
0.81165385 -0.05772423 0.025909511 -0.22504717 0.03681305 -0.3006149 0.1725205 0.30914974
0.2571439 0.7403603 -0.16446128 0.0666855 0.0571447 0.9230711 -0.61601365 -0.60048884
0.37373725 -0.28165868 -0.08068789 -0.38332155 -0.04197834 0.9013987 -0.073460035 -0.02701926
0.24206354 -0.12704559 -0.1909754 -0.41049004 -0.16684745 0.43212327 0.2522554 -0.29352456

bias f4 [100]
00000000: eabb 20be a4cd 2f3d acb5 2fbe 6e7a 2cbe
00000010: 4460 21bf 803c a7be 1864 91be 8a26 14bf
00000020: e5df 90be 3176 ecbe a3d3 2ebe a4b8 ffbe
00000030: f46a ddbe 8752 cabd d872 e1be 9633 13bf
00000040: ba1e 5ebe 2b75 96bd 5410 0bbd daae 27bf
00000050: a98c 8cbe 9901 32bf 2699 d4bc f70d 3cbe
00000060: 94a0 ebbe 1e3e 97be 208c 11bf a528 eebd
00000070: b9a6 38bf 14f3 28bf af10 b0be 7b7e c1be
00000080: 42ce 9dbe 7da1 1dbf 7056 82be c271 413e
00000090: a249 5fbe 9cde 23be 760c cabe 7dce 87be
000000a0: 9ce8 38be efb4 713c af42 18bd 5774 24bf
000000b0: ac7a 2cbd a96f 0fbf f67e d8be 6b8a 9bbe
000000c0: 77bb 1cbf 0709 d7be 17cc 4ebe b9f3 9cbd
000000d0: ce62 97be 9099 2bbf 9cd4 d4bd 3ccf 13be
000000e0: 73ca c1be 00c6 d5be 6697 3cbf e892 04bf
000000f0: 09a5 babe ad61 4dbf 4175 b7be 2db8 c3bd
00000100: f878 32be be16 8abe 2b8a ecbe 1046 02bf
00000110: 0acb 4dbd 6328 c7be d454 dabe 3d96 983e
00000120: c05d e9be 0e37 f6be e105 59be e4c8 fbbe
00000130: f55a c3be 1493 41be f7e6 c7bd a987 b7be
00000140: 2b2c aabe 882b 89be 3a19 aebe c00c 25bf
00000150: e738 dd3d 0471 69be 071d b7be b40a 24bf
00000160: 79ae 64be b61e 97be 482f 2dbf a768 c9be
00000170: dfd6 9bbe 6809 4fbf d734 05bf ae1d 19be
00000180: 8180 a0be ed81 16bf 5740 4ebf 4274 76be
-0.15696684 0.042920724 -0.17159146 -0.16843578 -0.63037515 -0.32663345 -0.28396678 -0.57871306
-0.28295818 -0.46183923 -0.1707292 -0.49945557 -0.4324566 -0.09879022 -0.4403293 -0.5750059
-0.21691409 -0.07346567 -0.03395112 -0.6550118 -0.27451065 -0.6953369 -0.025951933 -0.18364702
-0.4602095 -0.2953958 -0.5685444 -0.11628846 -0.721294 -0.6599591 -0.3438773 -0.3779181
-0.30821425 -0.61574537 -0.25456572 0.18891051 -0.21805432 -0.16002887 -0.39462632 -0.26524726
-0.18057483 0.014752611 -0.03717297 -0.6424002 -0.042109177 -0.56029755 -0.42284364 -0.30379042
-0.6122355 -0.41999075 -0.20195042 -0.07663674 -0.2956757 -0.6703119 -0.103921145 -0.14434522
-0.3784977 -0.41752625 -0.73668516 -0.5178666 -0.36454037 -0.80227166 -0.35831645 -0.09556613
-0.17428958 -0.26970476 -0.46199164 -0.50888157 -0.05024246 -0.38898 -0.42642844 0.29802123
-0.45579338 -0.48088878 -0.21193649 -0.49176705 -0.38155332 -0.18903762 -0.0976085 -0.35845688
-0.33236822 -0.26791024 -0.3400362 -0.6447258 0.10801869 -0.22797018 -0.35764334 -0.6407883
-0.22332181 -0.29515618 -0.6765027 -0.39337656 -0.3043737 -0.8087373 -0.5203375 -0.14952728
-0.3134804 -0.58792 -0.80566925 -0.24067786

weight f4 [50, 100]
00000000: 5ece f53d 09d6 113e e229 713c 208a fbbc
00000010: 5ef6 91be 9ced 433d 1e40 91bd b4ad 20bd
00000020: c873 95be d957 1dbd d536 36be 1541 863e
00000030: 88ed 01be 9b1d d6bc 02b9 bfbd 5452 44bc
00000040: 2082 9ebb af76 dcbd be1f 89bd 2b12 8e3b
00000050: e423 c63d 4c3e b0bd 9809 793d 6738 9a3e
00000060: 4adb 4d3e 22b1 3ebe d99d 9fbe b844 36bd
00000070: bf79 023c 9efa 503e 8bf1 3abe 0f09 e8be
00000080: 9c8c 5d3d 4e97 00be 915f 8cbe 97fe 9e3d
00000090: 33cc 313e f2d2 e73d 1718 f7be 09e6 4fbe
000000a0: c2d1 acbe c272 24be 828a 963d e216 1dbe
000000b0: 7505 4c3e b350 0fbe b9ef 00be 4ca6 acbc
000000c0: 9f41 cc3e 1e05 303e 3298 4abd db4d 45be
000000d0: 87ca 93bd 98c1 f9bc 32d7 393d 47a9 d33d
000000e0: 3a31 ccbc 6046 09be 5d79 3abd f9a2 2a3e
000000f0: cee9 4c3e bb6a 3a3c 2def 6b3e a802 6c3d
00000100: 0f20 c73d c4e7 43bd 8422 443e 5c4e 9b3e
00000110: 5cf7 edba 5364 47be 8109 aebe 420c 503e
00000120: 4f52 ed3c 0a1b 673d a844 863d 3eef a33d
00000130: a8e9 3e3e d907 30bc fbb5 243e 4fba d2be
00000140: 07d0 d1bc e4b6 f8bd f1bc 2abe 3079 99bd
00000150: 20f5 a6bd abe9 f03c c558 e4bc 97c2 abbd
00000160: 393d 813e 0d2e c93d 58a5 733e dcc0 0bbe
00000170: cbc3 083d 1e1a ad3d 0776 70bd 7d91 393d
00000180: f5f9 34bf 51f4 58be cbca cebc 856f 9b3d
00000190: de58 093e 2fb2 95bd 6748 34be d42c aebe
000001a0: a738 bc3e 82ad 823c 4100 0cbd 07b6 c8bd
000001b0: 1ae6 92be 8f93 ad3d bd85 61bc d3bf debc
000001c0: 568c 98bd 1a71 433e 996b 16bd 6242 05bc
000001d0: bbaf 783e 7730 013e 0b74 25bd f870 d5bc
000001e0: 6707 3fbd fa3e 2d3d fa88 61be 299d f93d
000001f0: fee8 12be aafd 753c 7a2c 123e 6e94 083e
00000200: b344 2d3e ceaf c2bb c9c7 8a3d 38a9 febd
00000210: 60d2 21be 814d 913d ffd6 45be 3b42 19be
00000220: 0637 9e3d 22eb 893e 751b 853e 1d17 ac3c
00000230: 0818 c23d d359 0c3e 894b cd3d a9e0 f13c
00000240: 957f 88bd a757 ae3c 6b89 8ebd 25b8 a83c
00000250: 4103 103d 9c1c 7a3c 1eeb bd3c 56c4 503c
00000260: 9760 27be 18f4 e6bd 2820 863d 9c28 9f3e
00000270: 9726 013e f825 cebc c10f 25bd 708d 923d
00000280: 6c71 f73d e7a4 8c3d ff46 fc3b fbb3 d93a
00000290: 64cc b63e ada2 9fbe 6f34 003e 5514 1a3d
000002a0: ae00 5dbd 28a8 763e 304b 25be bab7 a3bd
000002b0: 2585 223e c43c 433e 1fbf 273e f55d ac3d
000002c0: 26a3 49be e8aa 2cbd ce46 27bd 0b6b 1c3e
000002d0: 432c b93c fdfa 42bd b092 9e3e baa4 21be
000002e0: a4d5 10be 7932 38bc 09fe d3bd e24c 15be
000002f0: 7d62 72be db09 0d3d c31f d2bd 781c 543b
00000300: 6ea2 9b3e 218f b83d de70 d3bd 2e9c 89be
00000310: e048 973e 33cd 4e3e c709 6d3c 30d7 e63b
00000320: 7307 aebc 9485 b23d 5a24 41bd a782 423e
00000330: 5985 523d 1a7b a5be 90f9 54be 105c 05be
00000340: dba2 c5bd 9b6c 7c3e 8ff2 25be 17be 45be
00000350: f90e d9bd 4502 53be d2bd 2bbe fade 94be
00000360: f9da 8fbb deb0 1c3c 8cc0 253d cd6a adbe
00000370: 5200 fb39 ef2b 143d 0fcb 76be b30c 8cbe
00000380: 345f a9be de48 eebd e28e 5c3e b6a7 d4be
00000390: dad3 68be e828 043d ebbf 5c3e b6b2 41be
000003a0: 153c 4dbe 49b8 96bd b2a6 123d 6421 8fbe
000003b0: 6202 49be 91e3 3a3e 4d82 a13d 40c0 2dbe
000003c0: 1f69 61be d2f0 3cbe 5010 0abe fca5 69bd
000003d0: 7ae9 fa3d 744b 00be 6c0d 583d ca85 6f3e
000003e0: ed79 bebc 83a6 0bbe c1b7 fd3b 74fb 9d3c
000003f0: c2fb f2bd 7f99 3fbe e3b6 513d 4c4a e5bd
0.12002252 0.14241804 0.014719458 -0.030705512 -0.28508276 0.047834024 -0.070923075 -0.039228156
-0.29189897 -0.038413856 -0.17794354 0.2622153 -0.12688267 -0.026137164 -0.09361459 -0.011982519
-0.0048372895 -0.107648246 -0.066955075 0.004335662 0.09674814 -0.08605632 0.060800165 0.30121157
0.20103183 -0.18622258 -0.31175116 -0.04449913 0.007963597 0.20408103 -0.18256204 -0.4531941
0.054089174 -0.12557718 -0.2741666 0.07763403 0.17363052 0.113195315 -0.48260567 -0.20302595
-0.33753783 -0.16059402 0.07350637 -0.1534076 0.19923957 -0.13995628 -0.12591447 -0.02107539
0.39893815 0.17189452 -0.04946155 -0.19267981 -0.072163634 -0.03048782 0.045371242 0.103350215
-0.024925817 -0.13405752 -0.045525897 0.16663732 0.20011064 0.011377986 0.23040457 0.05761972
0.097229116 -0.04782845 0.19153792 0.3033322 -0.0018155384 -0.19471864 -0.33991626 0.20317176
0.028969912 0.05642227 0.06556064 0.08004616 0.1864382 -0.0107440585 0.16085045 -0.41157767
-0.02561189 -0.121442586 -0.16673638 -0.07493818 -0.08152223 0.029408297 -0.02787436 -0.083867244
0.25242022 0.098232366 0.23793542 -0.13647789 0.033389848 0.08452247 -0.05870631 0.045304764
-0.70693904 -0.2118695 -0.025243184 0.0758963 0.13412806 -0.073093764 -0.17605744 -0.34018576
0.36761972 0.015951876 -0.03417993 -0.09800344 -0.2869118 0.0847541 -0.013764796 -0.027191078
-0.07448642 0.19086114 -0.036723707 -0.008133503 0.24285786 0.12616144 -0.04039387 -0.026054844
-0.04663792 0.042296387 -0.22024909 0.12188179 -0.14346692 0.0150140915 0.14274779 0.13337871
0.16920738 -0.0059413677 0.06776387 -0.1243462 -0.15802908 0.07094861 -0.19320296 -0.14966671
0.07725339 0.26937205 0.2599751 0.021007115 0.0947724 0.1370614 0.10024173 0.029526072
-0.06664959 0.02128203 -0.06959804 0.02059562 0.035159353 0.01526561 0.023183402 0.012742123
-0.1634544 -0.11277026 0.06549102 0.3108567 0.12612377 -0.02516459 -0.040298227 0.07155883
0.120821804 0.0686739 0.007698893 0.0016609424 0.35702813 -0.311788 0.12520002 0.037617046
-0.053955726 0.24087584 -0.16141963 -0.079940274 0.15871103 0.19066149 0.163815 0.084163584
-0.19691142 -0.042155176 -0.04083901 0.15275209 0.022604113 -0.047602642 0.3097129 -0.15785494
-0.14143997 -0.011242502 -0.10351188 -0.1458011 -0.23670383 0.034433227 -0.10259964 0.0032365602
0.30397362 0.09011675 -0.10324262 -0.26876968 0.29547787 0.20195465 0.014467663 0.0070446953
-0.021243786 0.08716884 -0.04715381 0.18995152 0.0513967 -0.32320482 -0.20798326 -0.130234
-0.09650203 0.24650805 -0.1620581 -0.19310795 -0.10598559 -0.20606335 -0.1677163 -0.29076368
-0.0043901172 0.009563653 0.04046683 -0.33870545 0.0004787469 0.03617471 -0.24100898 -0.2735344
-0.33080447 -0.11634992 0.2153888 -0.41534203 -0.22737065 0.032265574 0.21557586 -0.18915829
-0.2004245 -0.07359368 0.035803504 -0.27955163 -0.19629815 0.18250872 0.07886181 -0.16967869
-0.22012757 -0.1845124 -0.13482785 -0.05704306 0.12251563 -0.12528783 0.052747175 0.2339088
-0.023251498 -0.13637738 0.0077428524 0.019284941 -0.11864425 -0.18710898 0.051199805 -0.11195812

bias f4 [50]
00000000: fec2 40bb 4a83 0b3d f5bb 62bd 9916 8e3d
00000010: 4e3b 5cbc 0103 5e3d e77b 653d 434a af3c
00000020: 7ddc 8ebd 98ec 1d3d ec06 c6bc 934a 90bc
00000030: 90bc d83d 986e b93d ac75 9b3d 8553 da3c
00000040: 3093 073d 92a7 7b3d 85e8 acbd 3a4f 243e
00000050: edee c8bc a304 a93d b7ea b1bd efad a33d
00000060: 7c7a 21be 009c 893a cc14 1dbd 98ca 0e3e
00000070: 7e76 04bd c374 33be 66ed 1ebc 1c65 0a3e
00000080: 0812 3bbd 7489 d43d 70d6 c43d e6ce 0ebe
00000090: 9c6a 2e3c e2d3 8abd 32fb 3cbd 565e 57bd
000000a0: d2fa d2bd 56cd e83d 61f5 3ebd b600 09be
000000b0: 6fe3 0c3e f24c 35bd b799 f0bc 48e2 f0bd
000000c0: 22a8 0b3c 9520 803d
-0.00294131 0.034060754 -0.05535503 0.06937904 -0.013441874 0.054202083 0.056026366 0.021397715
-0.069756486 0.03855571 -0.024173222 -0.017613685 0.105828404 0.09054297 0.075908035 0.026651153
0.033099353 0.061439104 -0.08442787 0.16045848 -0.024527991 0.082528375 -0.086873464 0.079921596
-0.1576938 0.0010498762 -0.03834991 0.13944471 -0.032339565 -0.1752501 -0.009700155 0.13515133
-0.045671493 0.103777796 0.09611213 -0.13946113 0.010645535 -0.06778695 -0.046137996 -0.0525802
-0.103017464 0.1136729 -0.04662073 -0.13379177 0.13758634 -0.044262834 -0.029370172 -0.1176191
0.008523973 0.062562145

weight f4 [25, 50]
00000000: 9644 903e 9972 a43c 8ce0 85bd c26a 4c3e
00000010: cd2e 083e edd5 bf3d 1241 033e b97f 43be
00000020: f859 ebbd caa6 153e 58fc df3d ca54 063e
00000030: 547e abbe f799 133e 2fc3 143e 9660 17bc
00000040: c45c 39be 96ec ac3d 2981 413d 5cf4 82bd
00000050: 068d 67bd 5b59 183e af57 99bd f9e3 23bb
00000060: 0273 9abd 384f 6bbd 512c 8bbe c830 53be
00000070: e8e5 1f3e ba6d 10bd 0ca3 003d e5cb 3e3e
00000080: 501b 813d 1316 e5bd 6612 4bbe d462 07bc
00000090: 5d05 9b3d 4bcc cabd da63 693c 6a31 cb3d
000000a0: b3a5 56be 1ddb 58be a7bd f6bd 188a 0cbe
000000b0: 496a 563d e9ee 8cbd bc09 953c 74e7 9f3e
000000c0: 44cc 7abd 669a b73d c311 b1be ae79 093d
000000d0: 3c2b b23e b0c7 113e 0c3e cbbd 0b03 373d
000000e0: e310 5fbd a8ac ba3d 9465 dbbd 8d7d 98be
000000f0: de52 4b3e 9fc2 a2bd 9951 73be 5e7d aa3c
00000100: 3d83 1cbf 6102 593e f929 483e 1a2e f539
00000110: 9047 c2bd 9b35 973d 5ad4 40be b373 f8bd
00000120: a140 4cbe 40a6 0fbe 7153 04be a2a6 86be
00000130: 6932 ba3d 5d5e 013c 84ba 26be 44a2 6dbe
00000140: d588 603e 8249 a1be f478 4b3e c646 363d
00000150: 585e 21be 99cc 3cbe b707 f23d c1d5 343e
00000160: 7747 0b3d ed08 13be 249c 97bd ebc4 723e
00000170: a27d 53bd c12c ac3c 13e1 d13c 61cd 09be
00000180: 9354 763d 397f 27bd 8b7a 6f3c 0865 ed3d
00000190: 1797 ab3d b32c f7be a2a5 c8bd cf58 ee3d
000001a0: 3ce7 2bbd e5fa 533e adcc 7ebe 7b73 b0be
000001b0: cba2 f4bd a67c 24be 4faf dabc 7a27 133e
000001c0: e4c6 033d 725b 213d f218 743d 791d d93d
000001d0: 7385 3cbe 4322 96be deb1 f63d 5788 c53c
000001e0: 6692 38be 9ded b2bc eace 21be 9b7f 343d
000001f0: 57af 213d a640 143e a7ea 8ebc 7485 bebe
00000200: 4d89 0f3e 734d 8fbd 32aa 853b 6e6e 2d3e
00000210: c43f 41bc 0bfc 1cbe 615a fabd 4b2c 103e
00000220: af06 d3be ca6e 4bbc 4a5a f6bd d005 333e
00000230: 2d97 16be c24d e7bc 5332 9f3d 80fa 00be
00000240: 3a2e 43be dddf bbbe 4bc1 8bbe ea49 89bd
00000250: be14 14bd bee3 a73e 56d8 c6bd a864 edbe
00000260: c1d8 83bc 7e2a abbd 0929 48bd d78b 613e
00000270: 99e4 3ebe f3fa 9a3e 3604 e03d 3fb9 193c
00000280: f6b8 66bd 719a b3be 38ed 2bbe 8f9e 04bf
00000290: ab75 c73e dd05 1bbc ef6f fa3d d41e 20be
000002a0: 2230 a7be 6964 ffbd 3aee 833e 1126 5ab9
000002b0: dc82 363e 50a1 2bbe 867a 34be 9dd8 1d3e
000002c0: 4633 20be 0264 81bb d241 92be 69c8 08be
000002d0: d2bc 1ebe 42b7 88bd 506a 223d 8049 00be
000002e0: ad7c 973d 3883 753d 8cc8 a5be 496c 4a3d
000002f0: 890e 06bc 941c b7be 1970 acbe f8fb c6bd
00000300: 431e 813b ff06 5dbc 33e9 1e3d fbbe 773d
00000310: 5850 1ebe 2d63 243e c338 b6be e558 7f3d
00000320: 5ec1 f1bd 6faf 7e36 2d54 e0be 53a7 833b
00000330: 5f1d a1bd b8fa 633d 1fbd 23bd d71b db3d
00000340: adba e83d c9d9 62be daf4 29bd 397e 45bd
00000350: 3a30 89bd c685 0abe 4f1e 3cbe 9958 f83c
00000360: b261 093e 523b 8abd a904 8a3c 6077 f1bd
00000370: d1ba 593c 0a90 71bd aae1 de3d 08c4 de3d
00000380: f148 8abe 9cc6 08bf c93c 89be 5241 873d
00000390: f1a3 613e 92db 07bf 74a2 8fbe e2ce f2bd
000003a0: 971b 673d 0110 b2bd 06ac 52be a98a 1dbe
000003b0: e674 c6bd e564 e1bd 240b d83d 622e 00be
000003c0: b300 df3c 51cd 06be e60d 78be cbe3 b53d
000003d0: b416 4abd d017 c2bb 3307 843e 0838 043e
000003e0: e989 a6bd a8b1 ebbd 7b1e e93c db0d 24be
000003f0: 7420 85be d4ab 64be f83a cd3d 2254 1bbd
0.28177327 0.020074176 -0.065369695 0.199626 0.13299103 0.09366975 0.12817791 -0.19091691
-0.114917696 0.14614406 0.109368026 0.13118282 -0.33494818 0.14414202 0.14527582 -0.0092393365
-0.18101794 0.08443563 0.047242317 -0.06394264 -0.056530975 0.14877836 -0.074874274 -0.0025007708
-0.07541467 -0.057448596 -0.27182248 -0.20624077 0.15615046 -0.035260893 0.031405494 0.18632467
0.063040376 -0.11185851 -0.19831237 -0.008263309 0.07569382 -0.09902247 0.014244998 0.09921534
-0.20961647 -0.21177335 -0.12047892 -0.13724554 0.052347455 -0.06881506 0.018193118 0.31231272
-0.06122996 0.08964996 -0.34583864 0.03356331 0.3479861 0.14236331 -0.09923944 0.044680636
-0.054459464 0.09114963 -0.10712734 -0.29783288 0.1985583 -0.07947277 -0.23761596 0.020811733
-0.61137754 0.21192314 0.19547261 0.0004676439 -0.09486306 0.07383271 -0.18831006 -0.12131443
-0.19946529 -0.14028263 -0.12922455 -0.26299006 0.09091646 0.007896033 -0.16282088 -0.2320643
0.21927197 -0.31501395 0.19870359 0.04450109 -0.15758646 -0.18437423 0.11817878 0.17659666
0.0340037 -0.14358874 -0.07402828 0.2370793 -0.051633485 0.021017434 0.025620019 -0.13457252
0.06013925 -0.040892813 0.014616619 0.11591536 0.083784275 -0.4827629 -0.09797217 0.11638033
-0.04196857 0.20701177 -0.24882765 -0.34463105 -0.11945113 -0.16063175 -0.026694922 0.14370528
0.0321721 0.03939385 0.059594102 0.106013246 -0.18410282 -0.29323015 0.12045644 0.024112863
-0.18024597 -0.021841818 -0.15801588 0.044067007 0.039473858 0.14477786 -0.017445875 -0.37211192
0.1401722 -0.06997194 0.0040791268 0.16936657 -0.011794988 -0.15330522 -0.1222427 0.14079396
-0.41216037 -0.012416551 -0.1202894 0.17482686 -0.14706106 -0.02823532 0.077732705 -0.12595558
-0.19060603 -0.36694232 -0.27295908 -0.06703551 -0.036152594 0.3279094 -0.097092316 -0.46365857
-0.016094567 -0.08357714 -0.04886726 0.22026001 -0.1864189 0.30269584 0.10938303 0.009382545
-0.056328736 -0.35078767 -0.1678971 -0.5180444 0.3895696 -0.009461847 0.12228381 -0.1563676
-0.3265391 -0.124703236 0.2576769 -0.00020804281 0.17823356 -0.16760755 -0.17624864 0.15414663
-0.1564456 -0.0039486894 -0.28565842 -0.133577 -0.15501717 -0.06675579 0.03965217 -0.12528038
0.07396827 0.059939593 -0.32379568 0.049419675 -0.008182176 -0.3576399 -0.33679274 -0.09716028
0.003940375 -0.0134904375 0.038796615 0.060484868 -0.15460336 0.16053458 -0.3559018 0.062340636
-0.1180446 3.7951065e-06 -0.4381422 0.0040177493 -0.0786693 0.055659026 -0.03997528 0.106986694
0.113637306 -0.22153391 -0.041493274 -0.04821608 -0.066986516 -0.13527593 -0.18370937 0.030315684
0.13416174 -0.06749596 0.016847925 -0.11790347 0.013289169 -0.058975257 0.10882886 0.10877234
-0.27008775 -0.53428054 -0.26804188 0.06604256 0.22035195 -0.5306941 -0.2805363 -0.11855866
0.056422796 -0.08694459 -0.20573434 -0.15384926 -0.09690265 -0.11005572 0.10549 -0.12517694
0.027222013 -0.1316426 -0.24224052 0.08881339 -0.049338058 -0.005923249 0.25786743 0.12911999
-0.08131773 -0.115084946 0.028456917 -0.1602091 -0.26001322 -0.22331172 0.10021013 -0.037922032

bias f4 [25]
00000000: 45ea 80bc 4d9e b43d 76fc 35be 66e8 1dbe
00000010: 7a95 08be 060c f73d 48f0 7ebe f277 a6bd
00000020: aa1f 1e3e a187 34be 269a 4d3c 835d 1dbe
00000030: 3f1c 12be 7c51 b83c 861d 36bd c5ef a1bb
00000040: c85f 2f3e 67ed 1ebe d563 8b3d c14f ffbd
00000050: 9793 c7bd 9841 1dbe 1d3f 6ebe 1fa4 dbbd
00000060: ef57 1fbe
-0.015736708 0.08819256 -0.17772087 -0.15420684 -0.13338271 0.1206284 -0.24896348 -0.081283465
0.15441766 -0.17629863 0.012548959 -0.15367703 -0.14268588 0.022499792 -0.04446175 -0.004941913
0.17126381 -0.1552025 0.06806151 -0.12466384 -0.097449474 -0.15357053 -0.23266263 -0.10724663
-0.15560888

weight f4 [3, 25]
00000000: d622 3ebc 32d5 94bc 9962 a6bd 803d 46be
00000010: b738 603b dcfd 413c d080 e1bc fa1e 02bc
00000020: b31e 133c c0ae 463e eabf c73b e62c 4abe
00000030: fe36 f93d d557 03bc b06d 903c deb5 ac3c
00000040: 2520 453a 26f0 e9be 87c5 5a3c 13c1 19bc
00000050: c591 12bc 4c7c b43e 4f45 333d 9954 34bc
00000060: f904 943d 3e85 afbc 938e 1cbc df25 a4bd
00000070: f50a 93be 61b2 1c3c 0847 9a3c ed62 463b
00000080: 2c11 87bc b7bd 543b c4a4 a83e a366 9cbc
00000090: 2d84 88be aecd 043d edb2 1c3d 1491 973c
000000a0: bb4c 67bb 03bd b93b 2307 013e d117 30bc
000000b0: ed14 853c c85a d2bc e9bc f63e 662a 1a3d
000000c0: c9b0 b63b 1b85 1dbd a58a edbb 7fed c43b
000000d0: 13e1 86be 49e0 9fbd 062d d73c 1a6f b0bb
000000e0: 34dc 26bc 74a9 9b3a c2b9 ba3c 69f6 bd3d
000000f0: 70ff cbbc 293a be3e 9b09 6bbd 6598 c33c
00000100: 3e1f 93bc 42e9 47bb 86ec a6bc f830 dd3d
00000110: ddee b63a 693b 32bf 85c9 6c3c 42db e3bd
00000120: 010d e53c 6588 713d 7d3d 19be
-0.011604985 -0.018168066 -0.08124275 -0.19359398 0.0034213492 0.01184031 -0.027527243 -0.007941956
0.008979487 0.194026 0.006095876 -0.1974369 0.12168692 -0.008016546 0.017630428 0.021082815
0.00075197435 -0.4569103 0.013352758 -0.009384411 -0.008945887 0.3525108 0.04376727 -0.011006498
0.07227511 -0.02142584 -0.009555477 -0.08015036 -0.28719297 0.009564013 0.018832698 0.0030271367
-0.01648768 0.0032461712 0.32938206 -0.01909191 -0.26663342 0.032422714 0.038256574 0.018501796
-0.0035293538 0.005668284 0.12600379 -0.010747866 0.01624533 -0.025678053 0.48191002 0.03763809
0.0055752737 -0.038457017 -0.0072491937 0.006009757 -0.26343593 -0.07806451 0.026266586 -0.005384338
-0.010184336 0.0011876062 0.022793654 0.09275515 -0.024902076 0.37153748 -0.057382207 0.023876378
-0.017959233 -0.0030504023 -0.020376455 0.10800356 0.0013956685 -0.696219 0.014452343 -0.111258045
0.027960302 0.058967967 -0.14964862

bias f4 [3]
00000000: bbcd cd3a 2bf9 ad3a 6c94 9c3b
0.0015701571 0.001327311 0.0047784355
