Modeling eMNS/EMS_ANN.pt (torch, 38976 bytes, 8 tensors)

weight f4 [100, 15]
000000 b5 06 c2 be 56 0d f9 3d a9 3e 33 3e 94 45 45 3c
       -0.37895742 0.12160747 0.17504372 0.0120405145
000010 77 7f 9d 3e de 2b 39 3c 1b 04 d9 3d e3 da 82 3c
       0.3076131 0.011301963 0.10596486 0.015973514
000020 1c 57 87 bc 6e 20 9a 3e 03 6e 2e bd bd cb e1 3e
       -0.01652103 0.30102867 -0.042585384 0.44100752
000030 5d 3f 5a bd 09 b2 83 bd 47 84 0a be e8 e4 ee 3e
       -0.053283084 -0.06430442 -0.13527022 0.46659017
000040 7e c1 81 3e b9 37 67 3d 18 25 16 bd 07 58 28 3d
       0.25342935 0.056449626 -0.03665647 0.041099574
000050 77 d1 d0 3e 41 5e be 3e fe af 89 be ce 2a db bd
       0.4078481 0.37181285 -0.26892084 -0.10701524
000060 84 b5 f2 be 25 56 4a 3f 9f db a4 bc 80 6b e5 3d
       -0.4740411 0.79037696 -0.020124255 0.112021446
000070 51 09 30 3d e1 3e 8d bd 21 04 02 be 05 0f 19 3f
       0.042977635 -0.06896759 -0.12696888 0.59788543
000080 ea 35 a2 bf 5e 56 8b bf a0 42 ac 3e 54 37 cc 3e
       -1.2672703 -1.0885732 0.3364458 0.39885962
000090 5f 2e 6d 3f 14 24 f4 3e 77 d4 a9 be 4a c3 7a be
       0.9264888 0.47683775 -0.3316991 -0.2448856
0000a0 1d 06 4a 3f f8 9d 47 bf a7 99 8b bd ed 7e 85 3b
       0.7891558 -0.77975416 -0.06816416 0.0040739686
0000b0 fd 41 c4 bb 98 c0 c0 be 44 2d 13 3f 42 a2 79 be
       -0.0059893117 -0.37646937 0.57490945 -0.24378303
0000c0 00 d7 0f 3f aa 20 c1 3e 21 59 3e 3d 1c a3 80 3d
       0.5618744 0.37720233 0.04647172 0.06281111
0000d0 90 33 c9 bc b5 de a5 be 1d e4 1f be c6 3b 9f 3d
       -0.02456072 -0.32396474 -0.15614362 0.07775073
0000e0 b9 51 86 3e 1a fd e4 bd d2 ce 96 bc 99 cc c7 3c
       0.26234224 -0.11181088 -0.018409166 0.024389552
0000f0 e8 60 da 3e 6c 00 9d bf 53 b5 36 bf fe eb 65 3c
       0.4265206 -1.2265754 -0.7137043 0.014033316
000100 f6 6a 05 bf 50 d5 cd bf fb 17 57 3e 43 13 2d 3e
       -0.52116334 -1.6080723 0.21005242 0.16901879
000110 44 b9 c8 bf 46 9d a6 3f 98 ce 8c 3c 7d ed 1c bf
       -1.5681539 1.3016746 0.017188355 -0.6129988
000120 cf ff db b9 aa 85 f0 3c 3a ba 5e 3d e2 f4 50 3f
       -0.00041961527 0.029360611 0.05437682 0.8162366
000130 d9 f9 9f 3e d9 2a 0b 3e 6c 2a 98 be 3f 64 cb 3d
       0.31245306 0.13590564 -0.29719865 0.0993123
000140 d9 6d f3 bd a6 89 db be 0a 44 b5 3e 51 ef cd 3e
       -0.11886186 -0.42878455 0.35403472 0.40221646
000150 74 09 d9 3e bc 5e bc bf cb 21 32 bf ea 9b 64 3d
       0.42390025 -1.4716411 -0.69582814 0.055812754
000160 b5 10 a5 3c a2 11 a1 bb 3e a8 8c 3e 9b ca 51 3f
       0.020149568 -0.004915432 0.2747211 0.81949776
000170 9a b4 14 3f a2 96 86 3e 15 ae a4 bf 43 e4 cc be
       0.58088076 0.262868 -1.2865626 -0.400179
000180 2c 6d 3c be d4 5e 81 3d c6 15 1a 3f 3e b1 a3 bf
       -0.18401021 0.06316915 0.60189474 -1.2788465
000190 16 d7 de be f5 70 42 3e 4c 44 33 3d 74 d6 45 3c
       -0.43523473 0.18988402 0.043766305 0.012075055
0001a0 20 00 01 3c 81 dd 39 3f 14 57 cb bd 01 f6 7c bf
       0.007873565 0.72603613 -0.09928718 -0.9881287
0001b0 17 41 8c 3d 7a f8 7c 3f 4b e9 cd bd a2 78 90 bf
       0.068483524 0.98816645 -0.10054263 -1.1286814
0001c0 d4 6b 83 3a fc ff 6d bf 1d f7 e9 3e 6f 05 1d 3d
       0.0010026642 -0.92968726 0.45696345 0.03833526
0001d0 24 b6 2d 3f fc 92 62 3d eb a7 86 bb db a7 7e bb
       0.6785605 0.055315956 -0.004109373 -0.0038857374
0001e0 9c 51 47 3f d4 6a 86 3f 4d d4 1b 3d a2 37 e0 be
       0.778589 1.0501351 0.038044263 -0.43792444
0001f0 c8 10 ee be c5 6f 33 3f 9d 4d fb be cc a0 1c be
       -0.46497178 0.7009242 -0.49082652 -0.15295714
000200 14 60 58 bc 75 8d af be 75 e0 27 3e 4d cf 95 3e
       -0.013206501 -0.3428761 0.16394217 0.2925972
000210 cc ef 2e bd b8 de 30 bd 7d ef 1c bd c1 73 2f 3f
       -0.042709157 -0.04318115 -0.03831433 0.68536
000220 43 66 41 be 7a d6 65 be 88 4d 4a bf 7e d5 a9 3c
       -0.18886666 -0.22445098 -0.79024553 0.020731684
000230 97 c1 53 bf 5f 34 4d be 7c c0 ea be e1 bb 35 bd
       -0.8271727 -0.20039509 -0.4584998 -0.04436863
000240 5b b6 b0 3f 83 82 ca 3d 28 bd b6 3e 44 88 cf bb
       1.380565 0.098881744 0.3569119 -0.006333383
000250 27 f0 8d 3d 3d 89 c9 bb 3c 0a 8b be d5 61 bf be
       0.06930571 -0.0061503933 -0.27156246 -0.37379327
000260 ca c3 76 3f da 3e 57 3e c9 a8 ba 3e 94 e2 da 3e
       0.963925 0.2102007 0.36456898 0.4275099
000270 be eb f1 3e c1 2a 0b bf 16 15 a1 bf d6 dd af 3e
       0.4725017 -0.5436211 -1.258456 0.34348935
000280 a7 f5 b4 3d ad da e1 be 28 b7 01 3d 91 ce 80 3b
       0.08835917 -0.4411215 0.031668812 0.0039308746
000290 06 67 3b bd 46 35 0a 3e 94 32 07 3f 68 4c 5b 3f
       -0.045752548 0.13496885 0.5281155 0.8566346
0002a0 41 30 ac 3e 5c ef d4 3e 2f 18 9b 3f f0 08 7f be
       0.33630565 0.41588867 1.2116755 -0.24905753
0002b0 88 fd de 3d 24 d4 dc bf d8 13 3b bf 1b 98 a2 bf
       0.10888201 -1.725224 -0.73077154 -1.2702669
0002c0 7e d5 08 bf 6f e5 42 bc 15 e9 0e bb 5f 52 ce 3c
       -0.53450763 -0.011895522 -0.0021806408 0.025185762
0002d0 c5 18 2c be 90 2d 62 bf 1b 88 f6 3e e3 03 90 3c
       -0.16806324 -0.8835077 0.48150715 0.017579978
0002e0 8f eb 94 3e bb 64 1c 3e b9 01 39 bf a8 4b 62 3e
       0.29085967 0.152728 -0.72268254 0.22099173
0002f0 aa 5f a5 3e 24 db b7 3e 65 b5 9f be 23 1e 5f 3f
       0.32299548 0.3590938 -0.3119308 0.8715536
000300 0f 21 9e 3d 22 75 59 bd 5f 22 58 bd 60 43 dc 3d
       0.07721149 -0.053090222 -0.052767154 0.10755038
000310 0b 61 08 be af 34 c4 3e 11 f9 22 3f 4f ba c5 3e
       -0.13318269 0.38321444 0.63661295 0.38618705
000320 ae 62 3f bf 5f fc 23 3d 21 fd 43 3f 19 4c 08 bf
       -0.7475995 0.0400356 0.7655812 -0.53241116
000330 59 59 60 bf f9 ef 54 3f 26 db da 3d e7 c0 b2 bc
       -0.87636334 0.8317867 0.106863305 -0.021820499
000340 e7 47 9e bc a5 e2 b6 bd 85 93 8c be 16 18 23 bd
       -0.019321395 -0.08929948 -0.27456298 -0.039817892
000350 f8 d0 a5 3e 5a a1 70 be ea eb f9 be e7 f0 01 bf
       0.32385993 -0.2349905 -0.488128 -0.5075821
000360 67 f5 9c 3e 7d f2 c5 bd 4f f0 a8 3d 69 31 3d 3f
       0.30655977 -0.096653916 0.0824896 0.7390352
000370 51 32 95 3e 98 41 89 bd 2e b2 4f 3c 47 6d 24 3e
       0.2913995 -0.06701964 0.012676759 0.16057311
000380 10 57 10 3c 5d 18 b7 3d 95 94 11 bd 42 08 98 3e
       0.00880982 0.08940194 -0.03554209 0.296938
000390 5c 0f 8e be 19 f0 de 3d 78 7f 13 3f d3 07 dd 3e
       -0.27746093 0.10885639 0.57616377 0.43170032
0003a0 d2 39 79 bf c8 2f 17 bf 73 60 38 3f 5b 01 da 3e
       -0.9735385 -0.59057283 0.7202217 0.4257916
0003b0 0c e4 ad 3d 64 8b 94 bb fb 26 6d bc 88 8b 89 3a
       0.08490762 -0.004533218 -0.014474626 0.0010493854
0003c0 34 1a 63 3e 6d bb 1d bf cf 5e 11 be e1 6f 20 be
       0.22177964 -0.61614114 -0.14196323 -0.15667678
0003d0 a4 73 4d 3f 33 45 a8 3e 77 64 b0 be bc 43 77 3f
       0.8025458 0.32865295 -0.3445165 0.9658773
0003e0 28 8c e5 be 46 39 97 3d 12 f4 13 be 10 45 66 3e
       -0.44833493 0.07383971 -0.14448574 0.22487283
0003f0 9d 50 1c 3c d3 ba 80 bb ea fe 18 bd 5d 2c 33 bf
       0.009540704 -0.003928521 -0.03735248 -0.6998957

bias f4 [100]
000000 7e 6b 84 bd 75 f7 c5 be 86 57 6d be d9 98 c3 bc
       -0.06465815 -0.38665357 -0.23177919 -0.023876594
000010 de 84 7a 3e 8e 4b 88 bd c5 54 95 bc 67 75 6c bd
       0.24464747 -0.06655036 -0.018228898 -0.05772915
000020 a8 64 69 be df 1f ae bd b7 e6 0b 3e f1 27 2d be
       -0.22792304 -0.08502173 0.1366223 -0.16909768
000030 85 ab 2a 3e 19 58 ef bd 3e f5 1a 3e 0d f2 4f be
       0.16666992 -0.11686725 0.15132615 -0.20307179
000040 61 75 9f be 6d f3 a3 3e c1 21 0d be ee 5a 5f be
       -0.3114424 0.32021657 -0.13782407 -0.2181203
000050 2d e6 62 3e 0f d0 26 bd 72 ab 11 bc 74 82 bf bd
       0.22158118 -0.040725764 -0.008890973 -0.09351054
000060 cb ce 89 be ad d9 65 3e b8 e9 ef 3e 4a eb 3d b8
       -0.26915583 0.22446318 0.46858 -4.528024e-05
000070 dc 25 9a bc 43 26 2c 3e 43 16 02 3f 56 31 d8 3d
       -0.01881688 0.1681147 0.5081522 0.10556285
000080 7c 40 35 be ee dd 96 be 9a 26 bd 3e 1e 9b 43 3d
       -0.1770038 -0.29466194 0.36943513 0.047755353
000090 f4 31 20 bd 68 51 2e be 16 f6 70 3e f2 a9 c3 3c
       -0.03911014 -0.17023242 0.23531374 0.023884747
0000a0 89 dc 0e 3d 33 be 26 3e fb 34 69 be ef a3 07 bd
       0.034878287 0.16283493 -0.22774117 -0.033115324
0000b0 43 ba ce bd 82 fc 52 3e 8f a7 67 be 1e 3b ef bd
       -0.1009412 0.20604137 -0.22622512 -0.116811976
0000c0 2f 5b 09 3f be 4c b5 be 04 87 a4 bd b3 b0 39 3e
       0.5365476 -0.35410112 -0.08033565 0.18133812
0000d0 60 d5 99 3e 48 4e 81 3e 8f e4 4b 3d 83 ac 8e be
       0.30045605 0.25255036 0.049778517 -0.2786599
0000e0 db db d4 bd 24 c9 00 3f 9e f7 bb bd 41 e7 03 3f
       -0.103934966 0.50306916 -0.091780886 0.5152474
0000f0 a9 b0 d2 bd 43 be 59 3f 7f 9b 95 3e b8 78 de 3d
       -0.102876015 0.8505594 0.29220197 0.10862869
000100 ff ba 8a bd 1b bc e7 3d 79 b6 b5 3e 67 f7 50 be
       -0.06773948 0.11315175 0.35490778 -0.20406877
000110 21 e6 29 3e e2 24 9e bd b1 8b 11 3f ff 1b 13 bd
       0.16591693 -0.077218786 0.5685378 -0.03591537
000120 83 7a a1 3e fe 31 01 3e 87 4d 46 be 26 af 23 bf
       0.31538782 0.12616727 -0.19365512 -0.6393913
000130 e6 d3 62 be f9 84 48 bd 24 55 84 3e 26 97 81 bd
       -0.22151145 -0.048954938 0.25846207 -0.063276574
000140 bb 77 85 be 2a a2 c0 3e ac d0 c5 bd c1 a1 68 3f
       -0.2606791 0.3762372 -0.096589416 0.90871817
000150 51 ec ca be a4 48 55 3e 2d 59 71 be 16 f5 22 ba
       -0.3963342 0.20828491 -0.23569174 -0.000621633
000160 15 46 23 3e 97 03 8b 3d e0 c3 02 bd 1e 52 c6 be
       0.15944703 0.06787794 -0.031925082 -0.38734525
000170 4b 5f 62 3d c0 60 43 bd 19 de 8d 3d 59 e4 e1 bd
       0.05526666 -0.04769969 0.069271274 -0.11029882
000180 4a dc 0b 3e c8 ac cd be ed a3 df 3d ca cc 44 bf
       0.13658252 -0.40170884 0.10919938 -0.76874983

weight f4 [50, 100]
000000 a4 dc 40 3e 52 dc 17 be 35 4f 93 3e 32 ab ae bd
       0.18834168 -0.1483014 0.28771368 -0.08528747
000010 65 5b 7e bf c8 85 e9 be 7e 6f 82 3e db d3 0e bd
       -0.99358207 -0.4560988 0.25475687 -0.03487001
000020 e0 f8 18 3e e0 48 29 3e e3 79 4a 3e 1d a4 0e 3f
       0.14938688 0.16531706 0.19773059 0.55719167
000030 fd fd 04 bf 42 88 c7 3e 8e 97 13 be a1 02 93 3e
       -0.51950055 0.38971144 -0.14413282 0.28712943
000040 02 97 d9 bd 3a 61 e0 3d 42 3c f4 bd b5 77 1d bf
       -0.106245056 0.109560445 -0.11925556 -0.61510783
000050 a3 c5 7e 3e 8f 07 88 bd 3f 82 69 be 05 2f 90 be
       0.2488008 -0.06642067 -0.22803591 -0.28160873
000060 d6 74 64 bf 4c 88 bb ba 3d 13 ec be b7 3e 40 3f
       -0.8924078 -0.0014307587 -0.46108428 0.75095695
000070 42 65 94 be 89 09 9d be ae 64 b0 3e 7b 2a 97 3e
       -0.28983504 -0.30671337 0.34451813 0.29524598
000080 d8 9d 48 be b9 b7 62 3f 38 52 b4 3d d4 64 6b be
       -0.19591463 0.8856159 0.088047445 -0.22987682
000090 c9 eb 99 be 6e 4b 03 bf e7 75 da 3e 4e da 3d bf
       -0.30062702 -0.5128697 0.42668077 -0.7416123
0000a0 b3 39 f8 3b 1f f1 04 be fd e3 03 3e ca aa 23 bf
       0.0075752377 -0.12982605 0.1287994 -0.6393248
0000b0 b3 34 31 3f 81 fc d8 be 4e a2 bc 3e bc 87 24 bf
       0.6922104 -0.42380145 0.3684258 -0.64269614
0000c0 b6 90 5f 3f e7 a5 2f bf 7e bc 77 be 95 37 a3 3e
       0.87330186 -0.6861252 -0.24192998 0.31878343
0000d0 31 f2 f8 3e 1b b9 a8 3e e6 ae ff bd 9b 8d 7e bd
       0.48622277 0.32953724 -0.12484531 -0.062146764
0000e0 71 1c e0 be 5b aa 60 be 7a 8a 44 3f 7d 21 2a 3f
       -0.437717 -0.21939985 0.767738 0.6645735
0000f0 e7 88 5f bf 46 b7 8c bf e3 04 98 3e 50 8f ef 3d
       -0.8731827 -1.0993431 0.29691228 0.116972566
000100 80 83 91 be cb 1c 72 3e dc 82 05 bf 03 44 11 be
       -0.2842064 0.23643796 -0.521528 -0.141861
000110 c2 07 cf 3e b3 bf 35 3e f4 93 3c 3f e6 8f 13 be
       0.40435606 0.17748909 0.7366326 -0.14410362
000120 0b 11 f8 be c9 ee f3 3c 32 a4 5f bf 69 2b dd 3f
       -0.48450503 0.029776948 -0.8735992 1.7278873
000130 71 b5 11 be 13 67 03 3d 76 18 68 bf 33 06 0c 3f
       -0.1422937 0.03208072 -0.90662324 0.5469696
000140 bc 3f 09 3e 7f f8 cd be 9a fb ca 3e 9d 36 74 b9
       0.13403219 -0.4022865 0.39645082 -0.00023289998
000150 de 3c 1d bf ff c6 47 be bf 67 05 3f 71 d8 0a 3e
       -0.61421 -0.19509505 0.5211143 0.13559128
000160 d9 57 07 bf 33 0a a7 bc 02 38 7b 3f 0a 28 ad be
       -0.5286842 -0.020390606 0.98132336 -0.3381961
000170 8e ac 09 bf c7 c1 fc bd d6 59 da bd 9b a0 48 be
       -0.5377892 -0.123416476 -0.10661666 -0.19592516
000180 64 fc 16 3f ed 6a 0a 3f 89 68 1e bf c2 39 f0 3d
       0.5897887 0.54069406 -0.6187826 0.117297664
000190 a1 4f a0 3e 61 f9 5e be 29 0a 79 3d 61 d1 bd 3e
       0.31310752 -0.21774818 0.060800705 0.37073806
0001a0 be 9e 98 bd 42 ab a1 3e 23 9c f8 3e cb e7 87 be
       -0.07452153 0.31575972 0.48556623 -0.26544032
0001b0 4b 64 25 bf 6c 2a 79 be 52 ce 1a 3f 1d a0 d8 bd
       -0.6460616 -0.24332589 0.6047107 -0.10577414
0001c0 14 27 ca bd bd b4 c8 be 0b 4d 07 3e 59 61 fb be
       -0.09870735 -0.39200392 0.13212983 -0.49097708
0001d0 d8 ad ff be 10 07 87 bc d0 e8 65 be 38 0b 16 3e
       -0.4993732 -0.01648286 -0.22452092 0.14652717
0001e0 0e 2b 8d 3e 25 b2 d2 3e 49 dd bb 3e 13 4f a6 bd
       0.2757191 0.41151538 0.36692265 -0.08120551
0001f0 eb ab 17 3c bd 81 c4 3e 9d 8e 48 c0 75 c5 f9 be
       0.009257297 0.38380232 -3.1337044 -0.4878346
000200 d0 39 69 be ac b9 41 3f 37 1b 09 3f 1c 9e 69 bf
       -0.2277596 0.7567394 0.5355715 -0.9125688
000210 22 0f 25 be 03 7b 23 3e d2 df d7 be 8f 2e be be
       -0.16119054 0.15964894 -0.4216295 -0.37144896
000220 9c e4 e7 be fb 6a 0e 3f 75 0c 0b 3f f0 43 b1 be
       -0.45291603 0.5563199 0.5431588 -0.34622145
000230 71 47 b6 be 3c 7c 9f be 0e 20 80 be 48 e6 84 3e
       -0.3560138 -0.3114947 -0.25024456 0.2595694
000240 d2 18 8a c0 bc b7 bd 3e bc 75 ae bd 82 76 04 3f
       -4.31553 0.3705424 -0.0851855 0.5174333
000250 96 19 bb bf a4 84 f6 bd 1d cd ed 3e 35 a5 1e 3d
       -1.4617183 -0.12037018 0.46445552 0.038731772
000260 70 2a 56 bf ca 54 20 3e 37 48 35 3e 33 54 c1 bd
       -0.83658504 0.15657344 0.17703329 -0.09439888
000270 fe 9d b6 bd 7d 86 67 be f2 b7 e3 bd 32 d2 85 3e
       -0.08916853 -0.22609897 -0.11119069 0.2613693
000280 2f 29 80 3f 0c 67 82 c0 0c b4 24 3c 9c 91 f3 bd
       1.0012568 -4.075079 0.010052692 -0.11893007
000290 d3 0b 4c be dd aa cc bf c3 df dd 3f 6b 1f c1 be
       -0.19926386 -1.5989643 1.7333912 -0.37719283
0002a0 53 c2 5e bf 99 5d fd 3e ea 30 43 3f 9a d1 72 3e
       -0.87015265 0.49485472 0.7624651 0.23712769
0002b0 5f 69 e2 3d 8b 35 a2 3e f3 aa 64 3f e8 88 8c bf
       0.11055254 0.31681475 0.8932335 -1.097928
0002c0 72 6f c9 be 2e 10 39 be 23 03 ec 3e 28 58 cc 3d
       -0.3934284 -0.18072578 0.46096143 0.09977752
0002d0 3a 4e 15 bf c1 a8 eb be 13 60 bf 3d aa 33 49 bf
       -0.5832249 -0.46027187 0.093444966 -0.7859446
0002e0 d7 24 d3 3d a7 1d 3e 3e 66 49 99 be fa 1b c0 bd
       0.10309761 0.18565999 -0.2993881 -0.09380336
0002f0 8b 9d cb 3d e9 ad b8 3e c7 49 0e 3e 9a 12 00 3e
       0.09942158 0.36070183 0.13895331 0.12507096
000300 ec 9e e3 bc 52 fa 77 3f 55 da 7a bd 0c 3e 47 3e
       -0.02778574 0.96866333 -0.061243374 0.19457263
000310 9d f3 41 be 54 cf 16 bd 9f 5f 08 bf ba 3d 5b bd
       -0.18940587 -0.036818817 -0.53270906 -0.053525664
000320 04 f5 99 be ac 7f 2e 3e 20 ac 57 bf 06 2b 82 3c
       -0.30069745 0.1704089 -0.84247017 0.015889656
000330 c8 81 9b bd 2b 5e 76 be be 59 9e 3e f2 2f e0 bf
       -0.07593113 -0.2405936 0.30927843 -1.7514632
000340 17 d0 9b be 10 d9 1e 3e 38 c2 f3 bc 7f 9e 7f be
       -0.30432197 0.1551249 -0.029755697 -0.24962805
000350 07 8b 19 3f 52 22 36 3e be 80 5a 3e 24 76 93 bc
       0.59977764 0.1778653 0.21338174 -0.01800067
000360 33 e9 8f bf 81 cb df 3e 46 1f d8 bd 13 79 0f 3d
       -1.1243042 0.4370995 -0.1055284 0.035027575
000370 dd f1 7b 3f 2a 14 07 3e b8 d1 24 3e b8 6b 32 bc
       0.9841593 0.13191286 0.16095626 -0.01088994
000380 b5 9a 07 3e 88 9f 51 3e 21 f7 c5 be 85 fb fb be
       0.1324261 0.20471013 -0.38665107 -0.49215332
000390 1f cd 4e 3e 55 a5 39 bf ae ae 5a 3e ee c4 c4 be
       0.20195435 -0.725179 0.21355698 -0.38431495
0003a0 a7 57 9d be 7a d5 0b c0 2d be 96 3e c6 57 c8 3e
       -0.30730936 -2.1849046 0.29441968 0.39129466
0003b0 1d ce c6 3e a7 58 b8 3d e4 36 17 3f 7d 63 1c be
       0.38829127 0.09001284 0.5906813 -0.15272327
0003c0 a9 ca 27 3d 95 b2 08 be ae 3d 08 bf e6 28 51 bf
       0.040964756 -0.13349374 -0.53219116 -0.8170303
0003d0 bd 8f e6 be fc 5f e5 bd dd 76 04 3e 1e 49 c8 be
       -0.4503154 -0.11199948 0.12935968 -0.39118284
0003e0 51 2b 61 bf 0a a8 e5 be 41 d6 23 bd 34 47 ba bd
       -0.8795672 -0.44854766 -0.03999925 -0.09095612
0003f0 21 c8 cf bd be ee eb 3d b4 65 f4 3d 75 9c 84 3e
       -0.101455934 0.11520146 0.11933461 0.25900617

bias f4 [50]
000000 99 87 24 be b9 be 5d 3e b5 ed 3a 3e 76 b9 ad 3d
       -0.16067351 0.21654786 0.1825474 0.084826395
000010 60 13 54 bc a1 3f 60 3d dc 7a c0 bd 64 e6 40 3e
       -0.0129440725 0.05474818 -0.093984336 0.18837887
000020 56 bb 31 3d b6 2f 99 bd 35 ae 2d 3e 4b 7a fb be
       0.043391548 -0.07479803 0.16960986 -0.4911674
000030 9f 09 b6 3e 0c 6a cd 3d a4 57 12 3f 40 10 00 be
       0.35554215 0.100299925 0.5716498 -0.12506199
000040 4a b5 1a bd ff b6 de 3e 22 71 82 bd f1 be 95 3d
       -0.037770547 0.4349899 -0.063692346 0.0731181
000050 de e2 9b be 6c ad 3c bc 6d ad 81 3e 39 ea 12 bf
       -0.30446523 -0.011515956 0.25327626 -0.57388645
000060 c4 c0 60 bc b9 ab 9d 3d d3 4d 0a 3d 30 70 e2 3d
       -0.013717834 0.07698769 0.033765625 0.11056554
000070 e3 fe 3b be 71 fa 6a bd 3f 79 ad be 4e 1c b6 3e
       -0.1835895 -0.057367746 -0.33881566 0.3556847
000080 0e 0e fe 3e c5 35 ad 3d a3 70 15 bd bd 2f e1 bd
       0.49620098 0.08457521 -0.036484372 -0.109954335
000090 d6 e7 8a 3d e4 c6 19 3e 36 b4 3d 3e 26 4f 67 3e
       0.067825004 0.15017277 0.18525776 0.22588786
0000a0 00 c1 0b 3e c0 d8 bb 3c 29 e2 54 bd 67 0c 2e 3e
       0.13647842 0.022930503 -0.051973496 0.16996919
0000b0 4b 62 98 3e f3 98 64 3d 21 ff c1 3e 65 18 32 3e
       0.29762492 0.055809926 0.3788996 0.17392118
0000c0 d1 0a 42 bb f7 28 0f 3c
       -0.0029608498 0.008737794

weight f4 [25, 50]
000000 7a 13 54 3e c7 2f f7 3e 39 d9 b2 bf 68 ab ea bd
       0.20710555 0.4827864 -1.3972541 -0.114584744
000010 16 4e ab be 37 13 55 bf 90 0d e5 3d e2 ce a4 3d
       -0.33458012 -0.83232445 0.111842275 0.08047272
000020 18 2d 7c be b5 94 b2 bf 1c c9 dd 3e 8d 7a de bf
       -0.24626577 -1.3951632 0.43317497 -1.738115
000030 44 00 40 be 62 fb c9 be d7 db 6e 3e ff 4b 97 3d
       -0.18750101 -0.39449602 0.2332605 0.07387542
000040 75 91 36 bf 9b d8 c0 3e 6b d5 30 3e b4 29 12 3f
       -0.713157 0.37665257 0.17268912 0.57094884
000050 d9 dd c2 be 8c 73 bc 3d 3f 80 e7 bd fb ee 6b bf
       -0.3805988 0.09201726 -0.11303758 -0.9216153
000060 cb 50 93 3c 87 83 c1 be 45 4f 2b bd ee 6a ff 3c
       0.017982861 -0.3779566 -0.041823644 0.031178918
000070 a8 65 1a bf 35 57 a3 3f 2e 16 29 3e 75 32 b7 3c
       -0.60311365 1.2760988 0.16512367 0.022362927
000080 57 90 06 3f 02 44 13 3f 7a 1f 46 3f e0 1c 9e 3d
       0.52563995 0.57525647 0.7739178 0.07720351
000090 cb 5f 37 bd ef 08 22 3f c4 96 cf be bb a1 7d bf
       -0.04476909 0.6329488 -0.40544713 -0.99074906
0000a0 d1 05 d9 3e c0 ec 3a 3e 0b ae 17 bf b0 52 11 bf
       0.4238725 0.18254375 -0.59249943 -0.56766796
0000b0 5b c0 9d 3e cf 73 98 3e 64 79 37 bf d8 db d4 bd
       0.30810818 0.29775855 -0.716696 -0.10393494
0000c0 fc 0f 9b 3e 7a 3d 45 3f 0b 1b 9e 3f 3f 6b d7 bf
       0.30285633 0.7704693 1.2352003 -1.6829604
0000d0 7d d5 01 bf c8 8a aa be 14 09 88 3e 53 8c 2e 3e
       -0.5071638 -0.33309007 0.26569426 0.17045717
0000e0 43 e2 dd 3d de 9b 3b bd 8c c1 97 3e f7 97 ce 3e
       0.108341716 -0.045802943 0.29639852 0.40350315
0000f0 e5 8e 9e be 20 71 ed be 37 08 a2 bf b9 46 0a be
       -0.30968395 -0.4637537 -1.2658757 -0.13503541
000100 a7 3e 15 bf 80 61 fa 3d ef f8 a9 bf a7 d3 55 3e
       -0.58298725 0.12225628 -1.3279094 0.2088152
000110 b9 b6 19 3f 7b 06 4e c0 6b 03 26 be 4a 87 51 be
       0.6004444 -3.2191455 -0.16212241 -0.20461765
000120 8f 4a 05 3f 44 8e da bf 45 f3 be 3d ab fc 40 3e
       0.5206689 -1.7074666 0.09323744 0.18846385
000130 65 7a 98 bf 19 02 ce bf 09 a2 ee bd cd 39 e4 3e
       -1.1912352 -1.609439 -0.116519995 0.44575348
000140 cb 10 04 3f 8b ba 90 be e2 66 78 3e 77 01 db 3d
       0.51588124 -0.2826732 0.24257997 0.10693639
000150 4f d6 21 3f 29 41 e6 bc ee 44 c2 bf bb 96 be 3e
       0.63217634 -0.028107243 -1.5177286 0.37224373
000160 dc 94 d4 bd 3c 0a de bd 74 c2 80 3e 68 90 03 be
       -0.10379955 -0.10841796 0.25148356 -0.12848055
000170 45 a9 23 3d 12 27 d6 3e 63 d9 f9 be 96 ec 0e 3f
       0.03995635 0.41826683 -0.48798665 0.5582975
000180 9e 9f c6 bd 32 c1 4d 3f 04 9f 88 be ed 53 14 c0
       -0.09698413 0.8037292 -0.2668382 -2.3176224
000190 7c 98 59 3f 42 c1 bc be 09 c8 a2 3e 0b 73 ec bd
       0.849983 -0.36866194 0.3179324 -0.1154538
0001a0 29 d5 4e 3e e8 e6 bc bc 73 78 13 3e f7 6c 80 be
       0.20198502 -0.023059323 0.14401416 -0.25083134
0001b0 1c 41 ce be a2 4d 05 bf 63 1f f9 3e f3 fa ee be
       -0.4028405 -0.52071583 0.4865676 -0.46675834
0001c0 cb 5f 24 3c 92 d7 86 3e e5 c1 31 bd 25 ab 98 3d
       0.010032604 0.26336342 -0.043397803 0.07454518
0001d0 73 7e c2 3e a4 2a 2d 3e 6e 26 de be be 10 2e be
       0.37987098 0.16910797 -0.43388695 -0.16998574
0001e0 27 b6 a3 bc 33 43 91 3f 43 70 76 3f a0 30 25 bf
       -0.019984318 1.1348633 0.9626505 -0.6452732
0001f0 6b 5b c0 3e ae 8d 78 3e 67 4a 32 be 4d bd 8e 3e
       0.37569746 0.24272797 -0.17411195 0.278788
000200 47 c0 06 bf 37 7f a4 be cd 36 f8 bd 7b 30 2c 3f
       -0.5263714 -0.32128307 -0.121198274 0.67261475
000210 81 ff 08 bf 43 e8 1c 3f 93 db 73 be ca 48 49 3d
       -0.5351487 0.61291903 -0.2381423 0.049141683
000220 b6 02 a1 be 86 2f 11 3e 62 18 04 3e 9e 51 6e 3e
       -0.3144738 0.14178285 0.12899926 0.23273322
000230 05 0e 42 3f 62 fa 20 be a2 2b b3 bd 06 b4 c9 bd
       0.7580264 -0.15720513 -0.08748557 -0.0984879
000240 7f aa 21 be 96 5a 22 3e fb e0 e2 3e 85 d1 34 3d
       -0.15787695 0.15854868 0.4431227 0.044145126
000250 38 5f b9 3d c9 c9 24 3f 62 07 7b bf 7a 82 ea bf
       0.09051365 0.643704 -0.9805814 -1.8321068
000260 d0 d2 56 bf ea f3 a7 3d 7e ee 18 bf eb d8 5c be
       -0.83915424 0.0820082 -0.5973891 -0.21567123
000270 40 d3 3e 3c 27 c6 dd 3e 77 70 07 3f c6 d5 57 3e
       0.011647046 0.4331524 0.5290598 0.21077642
000280 57 1a 98 3e 6f 3b 60 3f 28 3a 69 c0 c7 c1 a2 be
       0.29707596 0.8759069 -3.6441746 -0.31788465
000290 06 0f a3 be 4d 5b f9 be 6d 41 4c c0 7f 63 a6 3e
       -0.318474 -0.4870247 -3.1914933 0.32497784
0002a0 33 3a 4a 3f e1 c0 c9 3e 9f 38 1c bc a1 d4 16 3f
       0.78995055 0.39404967 -0.009534984 0.58918196
0002b0 22 3a fd be 5f 74 3f 3f dc 3a f6 bd ac 9d 9c be
       -0.49458414 0.74786943 -0.12022945 -0.30589044
0002c0 82 98 be bd b0 d5 8f 3d 74 59 83 3c 59 4e 41 bf
       -0.09306432 0.070231795 0.016033866 -0.75510174
0002d0 c0 21 b5 be c8 e4 7b be 24 f9 18 bf e1 57 51 be
       -0.35377312 -0.24598992 -0.5975516 -0.2044368
0002e0 f0 86 11 bf 39 9f 42 bf b0 9a 05 3f 2f 6e df bd
       -0.56846523 -0.76024204 0.5218916 -0.10909688
0002f0 cc d8 cc be 95 11 e1 3e b4 52 67 bf 70 5a e4 3d
       -0.40009153 0.43958727 -0.9036057 0.11150062
000300 ca db 0c bf e3 05 25 bf a9 7d 9e be 6d bd 85 3d
       -0.5502287 -0.6446211 -0.30955246 0.06530271
000310 a6 41 34 bf 5d 1c 9b 3e 07 83 3a 3e 0c e9 86 be
       -0.7041267 0.30295077 0.18214045 -0.26349676
000320 13 c9 5e 3f bc 39 f5 3e 98 df c0 be 08 e0 99 3c
       0.87025565 0.4789561 -0.37670588 0.018783584
000330 43 e9 ab 3e c7 c0 78 be 85 55 59 3e 1c e9 a1 bf
       0.33576402 -0.24292289 0.2122403 -1.2649264
000340 72 31 12 bf 20 09 6a 3f 03 3a 46 3e d1 06 6c bf
       -0.571067 0.91420174 0.19358067 -0.921979
000350 49 fa 3d be 6c 10 9c 3e c7 6e c9 bd d6 5a 11 be
       -0.18552507 0.3048128 -0.09835582 -0.14194807
000360 91 ab fd 3e 6f 53 03 bf fc 0f 60 3e fe 3f 4d be
       0.49544957 -0.51299185 0.21881098 -0.20043942
000370 7d 51 11 be cc 44 b3 be b8 14 9e 3e 63 9a 34 3f
       -0.14191242 -0.35013425 0.30875182 0.70548075
000380 4c 6c 8a 3e f8 9e d0 be 11 1c 75 3f af 6a 39 be
       0.2703575 -0.40746284 0.9574595 -0.18107103
000390 86 36 58 bf dd 6f 8b be 45 35 d0 3e 0d 0d ca bd
       -0.84458196 -0.27233782 0.4066564 -0.098657705
0003a0 26 9d 63 bd ac a9 8a 3d 3d 9e f7 bd ff 14 6e be
       -0.05556979 0.067706436 -0.120907284 -0.23250197
0003b0 b1 e1 64 3e c2 c1 da 3b 5a b0 d6 be 88 9a 87 3e
       0.2235172 0.0066759298 -0.4193142 0.26485085
0003c0 6b c1 0d 3f 90 87 81 bf 73 bb 8d bf 5e 29 37 3b
       0.5537326 -1.0119495 -1.107283 0.002794824
0003d0 06 e6 8c 3e 8c 19 70 be 5a 7e 91 3d d9 5e 41 be
       0.27519244 -0.23447245 0.07104178 -0.18883838
0003e0 0f 32 6d be e3 6e be bf 66 5d cc 3e 26 fa b2 be
       -0.23163627 -1.487759 0.39915007 -0.34956473
0003f0 27 09 56 3d 0e f7 59 bd d6 4b 8a 3e dd 5a 37 3d
       0.052254822 -0.053214125 0.27010983 0.04476439

bias f4 [25]
000000 95 be 60 be 2c 5c b6 be 37 06 58 3e 3a c3 9b be
       -0.21947701 -0.35617197 0.21096121 -0.30422384
000010 6d 5d 45 3e 79 58 dc bd e7 e6 d6 bd 5f 4c 8f bd
       0.1927392 -0.10759062 -0.1049326 -0.069969885
000020 e6 c9 a9 be 23 3b 21 be 48 6c 9f be dd 9d e0 bd
       -0.3316185 -0.15745215 -0.311373 -0.1096761
000030 f6 9f 94 bd d3 c1 af 3d 01 fe b8 3d 77 8c fc be
       -0.07257073 0.08581891 0.090328224 -0.49325916
000040 56 1a e2 bd 1b 56 d1 bd 27 78 f6 be 01 45 2b bd
       -0.110401794 -0.102215014 -0.48138544 -0.041813854
000050 4a 40 f8 3c 40 84 79 3e 8e c0 0b 3f cd a1 75 bc
       0.030304093 0.24366856 0.5459069 -0.01499219
000060 56 19 54 3e
       0.2071279

weight f4 [3, 25]
000000 98 ee 08 be 0c 67 18 be b6 11 b8 3e 76 d1 a9 bd
       -0.13372266 -0.1488306 0.35951012 -0.08291905
000010 b9 7f d3 bd e9 f9 b0 bc 88 99 05 3a 47 9e f9 3c
       -0.103270955 -0.021603541 0.00050964253 0.03047098
000020 fb 3d 81 be f7 73 95 3e a5 c4 39 3e e1 fe 91 bd
       -0.252426 0.29190037 0.1814142 -0.071286924
000030 1a 0e 8a 3e c1 3c 2d be c7 cd 46 bd 54 bf b9 be
       0.26963884 -0.16917707 -0.04853609 -0.36278784
000040 37 46 1e 3e 95 ec 32 be f6 e5 37 be 16 64 91 be
       0.15456472 -0.17473061 -0.17958817 -0.28396672
000050 a1 d4 c3 be d8 75 b3 3e 11 3c 34 be fc 5c 87 be
       -0.3824816 0.35050845 -0.17601039 -0.2643813
000060 5f 90 7c 3e 9d e3 65 3e 1c bd 24 3e f0 c0 d2 3c
       0.24664448 0.22450109 0.16087765 0.025726765
000070 1a c5 ab 3e 26 b2 69 be f7 79 51 be 4c 97 82 3e
       0.33548814 -0.22821864 -0.20456682 0.25506055
000080 75 e3 ad be 23 b7 73 be 33 de 6f be cf 5b b4 be
       -0.33962598 -0.2380033 -0.23424606 -0.35226294
000090 69 50 a6 bd 3c 71 c4 3e 26 84 e9 bd 3b e0 a3 3e
       -0.08120806 0.3836764 -0.114021584 0.32007012
0000a0 89 70 85 be 8c 46 18 be d2 4c 55 3e ec ae 7d be
       -0.2606242 -0.14870661 0.20830086 -0.24773759
0000b0 49 19 12 3e d5 5e 3d 3e a6 61 2c bd 6b f4 76 bd
       0.14267458 0.18493207 -0.042085312 -0.06029169
0000c0 1e 1b cc 3a 81 5e c4 be 69 ae 92 be b3 a2 be be
       0.0015572046 -0.3835335 -0.2864869 -0.37233505
0000d0 2c b0 d3 bc bc a7 03 be 7f 2c 64 3e 17 a8 40 3e
       -0.025840841 -0.12856954 0.22282599 0.18814121
0000e0 f4 89 59 3e cb e4 23 be ed af 9a bd d7 d9 86 bd
       0.21244031 -0.16005246 -0.075530864 -0.065845184
0000f0 f9 c4 d8 3d 25 dd 95 3e 84 6e 4a be 0b 9e 62 be
       0.105844446 0.29270282 -0.19768721 -0.22130601
000100 f4 01 f8 bd 4a 14 e1 3c 2a 3d c8 be f8 2c 74 bd
       -0.121097475 0.027475495 -0.39109164 -0.059613198
000110 8d 72 1c be b9 00 bd bd a0 e8 8e be c4 ca 42 3d
       -0.15278073 -0.092286535 -0.27911854 0.047556654
000120 2e cf 89 3e 8e 33 23 3e 62 75 bc bd
       0.26915878 0.15937635 -0.092020765

bias f4 [3]
000000 3f 79 a0 3d 5c 5a ab 3d 0b 7d 1f 3d
       0.07835626 0.08366844 0.03893761
