Modeling eMNS/EMS_ANN.pt (torch, 38976 bytes, 8 tensors)

weight f4 [100, 15]
00000000: 8ae4 1f3e 4244 1f3e 39c1 d3be 7fc2 89be
00000010: 76dd 3fbe c0a7 8a3e 2daf d3bd 1ad3 47bd
00000020: df9d c7bc 45d0 c03e 2e5f b83e 5c9d 0f3e
00000030: 68ac 9ac0 fe40 4cbe 47f3 f1be 446c dfbd
00000040: fbc0 4d3f ae18 7e3c 7ac4 1d3e 99e2 c9bd
00000050: 292f 87be 2d00 d23d 37ae 683d 9c9a b63d
00000060: 5ab3 9abd 391f 86bd 4eab ba3d 6401 1940
00000070: 4a55 f83d 3dd5 e2bc dd36 c43e ea4d 693e
00000080: 0570 92bd 1b7c 07be aad7 c9be efc3 18be
00000090: fb9e 073e 5c2c fbbe 848b aa3e aac7 c53e
000000a0: 9697 163e 491d 403e 2c4f 863f f6c1 5cc0
000000b0: d3b9 ab3f 602d cdbe a0ee 403d 20db 38be
000000c0: c43c e33e f2dc 27be aebb 6e3e 2396 3e3e
000000d0: 92ef 89be 00f7 b8bd 6361 233e 4843 0cbe
000000e0: 99c2 9a3e 8a61 d5be 45a3 97bf d7a5 c7bf
000000f0: ec89 59be 93b1 4ebc c606 29be cd80 0b3e
00000100: ba14 a63d 731d 59be ee74 03be ad30 6c3e
00000110: 5c60 1abe 7466 28be 7456 f93b e214 1d3f
00000120: fd69 1c40 d4f9 a9bf 8434 6d3f 23e9 39bd
00000130: 1a70 893d 53da afbe 6cc5 81be e2fa 78be
00000140: 3615 4bbe e2aa e53d b6fc b9be 2b44 19be
00000150: b178 e93e ba19 60be 6979 49be 9b08 56bf
00000160: bd9d 5c3e 19da 223d 2dbc 51be 6a92 713e
00000170: 4f30 c7be d9c7 103e b2bd 46be 175f 063e
00000180: ca1d 813e 944c 8f3e 599b f7bc 3ce7 2dbe
00000190: 7e6c 313e c6e8 ec3e 1535 64c0 f0d1 0e3f
000001a0: ab70 eebf fe61 f8be 5ab7 0f3e 4bf7 9b3d
000001b0: 2586 823e 1985 c3be ed21 1e3e d2a5 093f
000001c0: a30e a7bd 3498 2abe 26d2 f73d 8de2 3c3e
000001d0: 2398 99bc 6ebc 61be d291 fc3f 358b 0540
000001e0: 4cf1 a23b 2f80 6dbe 44ec d53e 5c26 b73e
000001f0: 82a6 35bd 36ba a93e 1ca3 a23e 90a3 05be
00000200: 03b2 9c3e a133 383f 71ad 3e3b a926 7d3d
00000210: 3ea8 5ec0 4498 0ac0 3717 103e 39d3 683d
00000220: 3de3 bc3e 1363 32be 1677 febd acab 00bf
00000230: a4b5 a1be 8de9 473d dd16 8c3e 1eb3 8bbe
00000240: 2b3b bd3e 8690 a03d 6ce7 2bbb a80b 0e3f
00000250: e4d2 31c0 0a65 98bf 7fcd 133f 1e19 123e
00000260: c1c0 b0be bd20 a3be a8f2 ab3a 07cc 0d3e
00000270: 2659 833c c3d9 8d3d bc57 c4be 60bd 583d
00000280: d01d a23c 23a6 383e 5e5f e93e 404f 2a40
00000290: b567 4bc0 f8b5 4c3e 036b a4bd 6241 e23e
000002a0: 8cfc bdbd c53a 123e 9c92 ab3e 1637 043f
000002b0: d730 ac3e 8f39 7f3e 4203 07be bd8b 943e
000002c0: 7403 8dbe b725 9240 4bd6 1dbf 28a5 8d3f
000002d0: 3d7b 113d 05b5 883d 351e dd3d 621d 41be
000002e0: 2dea ca3d 4a75 243e 8bf2 063e bd4c 9f3e
000002f0: 9785 cfbe 8732 073e 388f 973e 9cde d4be
00000300: 0975 be3f 8e50 5b40 89e2 9ebd 2ae1 b73e
00000310: 5793 853c 4d29 bebe a920 013e 982e 4cbe
00000320: ea61 783e 69fa d03e f247 91be 9bac 2d3d
00000330: 5945 123e 4126 c83e 8bc3 4cbe a984 a6bf
00000340: 7e99 8240 5505 143f 3766 b7bd 7956 dabd
00000350: de6b 8f3e 1e40 e83e 7a74 be3e 142f 693e
00000360: 8b0f 15be d5f1 c13e 573d ed3c c492 2cbe
00000370: 8f32 663e bed8 7a3d ae92 e3c0 29fe 5ebf
00000380: 39e1 e03f bd98 d6bb 3144 8cbd 013e 7bbe
00000390: a89d 093f d667 cc3e 9ef6 03bf 3597 8e3d
000003a0: 1120 c3bd 00e0 ac3d 47c8 47bc 9799 083d
000003b0: 38ec 8f3e 84df 5cbe 041c 3dc0 b8d3 6040
000003c0: d2a0 e53d de8f b1be a24c 0ebd 3f5b 563e
000003d0: 81f9 a53d 8ea6 07be 1225 273d 5eef 413e
000003e0: db1e 9b3c 13ec d83d 9fc9 9e3e 480a b3bd
000003f0: 2d6a 0a40 190f 15bf f394 35c0 7d66 b53e
0.15614524 0.15553382 -0.41358355 -0.269062 -0.18736824 0.27081108 -0.103361465 -0.048785307
-0.024367271 0.37658897 0.36010116 0.14024872 -4.8335457 -0.19946668 -0.47255918 -0.10909322
0.8037259 0.015508814 0.15406981 -0.09857673 -0.26403168 0.1025394 0.05680677 0.08916208
-0.0755374 -0.06548924 0.09114705 2.3907099 0.121256426 -0.02768957 0.38323107 0.22783628
-0.07150272 -0.13230936 -0.3942235 -0.14918493 0.1324424 -0.4905728 0.33309567 0.38628894
0.14706263 0.18761171 1.0492911 -3.4493384 1.3416084 -0.4007368 0.04710257 -0.1805234
0.44382298 -0.16392878 0.23313782 0.1861196 -0.2694059 -0.090314865 0.15955119 -0.13697541
0.3022659 -0.4167598 -1.1846701 -1.5597485 -0.2124402 -0.012615579 -0.1650649 0.13623352
0.08109422 -0.2120264 -0.12837574 0.23065443 -0.1507582 -0.16445333 0.007609183 0.6135999
2.443969 -1.3279366 0.9265826 -0.045388352 0.06710835 -0.34346256 -0.25345933 -0.24314454
-0.1983231 0.11214234 -0.36325616 -0.1496741 0.45599893 -0.21884814 -0.1967522 -0.8360688
0.21544547 0.039758775 -0.2048194 0.23591009 -0.38904044 0.14138736 -0.194083 0.13122211
0.2521804 0.27988112 -0.030225443 -0.1698274 0.17326543 0.46271342 -3.5657399 0.5578909
-1.8628134 -0.48512262 0.14034787 0.07615527 0.2549297 -0.38187483 0.15442629 0.53768647
-0.081570886 -0.16659623 0.121006295 0.18445797 -0.018749302 -0.22044536 1.9732001 2.0866215
0.0049726125 -0.2319343 0.4178182 0.35771453 -0.044348247 0.3314988 0.31765068 -0.13050675
0.30604562 0.7195378 0.0029095078 0.061804447 -3.4790187 -2.1655436 0.14071356 0.056842063
0.3689212 -0.17420606 -0.124250576 -0.5026195 -0.31583893 0.048806716 0.27361193 -0.27285093
0.36959204 0.07840066 -0.0026230467 0.55486536 -2.7784967 -1.1905835 0.5773544 0.14267394
-0.3452206 -0.31860915 0.0013118582 0.13847362 0.01603372 0.069263004 -0.38348186 0.052914977
0.019789606 0.18032126 0.45580572 2.661087 -3.1782048 0.1999129 -0.08028223 0.44190508
-0.09276685 0.14280231 0.33510292 0.51646554 0.33631012 0.249243 -0.13184837 0.29012862
-0.27541697 4.567104 -0.6165511 1.1066027 0.03551792 0.06675152 0.10796777 -0.18858865
0.09907947 0.16060367 0.1317846 0.31113234 -0.40531608 0.13202868 0.29601455 -0.41576087
1.4879466 3.4267917 -0.07758052 0.35913974 0.016305609 -0.37140885 0.12610115 -0.19939649
0.24256101 0.40816048 -0.28375202 0.042400938 0.14284267 0.39091685 -0.19996469 -1.3009235
4.081237 0.57820636 -0.08955043 -0.106610246 0.28011984 0.45361418 0.3719824 0.22771865
-0.1455671 0.37879816 0.028959913 -0.16852862 0.22480224 0.061241858 -7.111655 -0.8710657
1.7568733 -0.0065489695 -0.06848944 -0.24535371 0.5375619 0.3992297 -0.5154818 0.06962434
-0.095276006 0.08441162 -0.012193746 0.0333496 0.28109908 -0.2156964 -2.954835 3.5129223
0.11212315 -0.34680074 -0.03474105 0.20933245 0.0810423 -0.1324713 0.040806837 0.18938968
0.018935611 0.105919026 0.310132 -0.08742195 2.1627305 -0.5822616 -2.8372161 0.35429755

bias f4 [100]
00000000: 774a 453e 7ea3 0fbe 8834 00bf e751 6c3e
00000010: c11a b7be 5f82 603d 0406 debe ed5e ddbe
00000020: ad0d 51bf 0233 56be 81b6 c1be e4b1 853e
00000030: fd98 00bf b49d 6b3e 9d95 7bbf 8185 3cbf
00000040: cf8e 203f cae0 12bc be97 7ebe 0666 b5be
00000050: a7bb 13bf 64d8 363e 990b 9cbe a36d 04bf
00000060: 2dfd b53d 382b f6be d388 29bf 23ae 19bf
00000070: 59fe 67bf 1975 7e3d f3c9 b0be f7c4 e93d
00000080: 7c6a 6fbf f17d 753d 34cb 74be f8b1 03bf
00000090: f530 71be c2d7 0dbf 8538 29bf 3b0c 5b3e
000000a0: 381d b0be ead4 1dbe b4cf 14bf 3bef 62bf
000000b0: 0548 053e 8a56 32bf c23a 9abd 64ed 12bf
000000c0: fe13 dfbe 94d8 6dbe f8ea 4fbe e25f 923e
000000d0: 591b 7fbf 3a88 11bf 82d5 e7be 9df0 abbe
000000e0: a484 19be 3820 1c3d c3b4 a7be 04c8 12bd
000000f0: 2afc afbe b6a8 94bf 1758 03bf 26c2 93be
00000100: 9ff2 183b 55e5 78be 841d a8bc b56f febe
00000110: fa7a 3abf b636 39be 7266 00bf 527c f9bb
00000120: b378 0dbf c17a 04be b9b4 b6be fa70 d1be
00000130: 81da 09bf a045 0ebf 8140 a6be 2ec6 22bf
00000140: fce6 d9be f98b 713d 0a20 963e e1f8 e13d
00000150: c85d 34bd dc78 58bf 03a2 e83d ecc2 0dbe
00000160: 3cf5 40bf 8381 55be 2290 2b3e 8460 1fbf
00000170: b0a6 d3be d05b 98be 3430 91bf 5c92 abbe
00000180: d8e0 21bf b8d6 32bf 0ee3 40bf b200 1dbf
0.19266687 -0.14027211 -0.50080156 0.23078118 -0.357626 0.05481183 -0.43363965 -0.43236485
-0.8166149 -0.20917895 -0.37834552 0.26112282 -0.5023344 0.23009378 -0.98275167 -0.7364121
0.6271791 -0.008964727 -0.24862573 -0.354294 -0.5770821 0.17855984 -0.30477598 -0.5172979
0.0888618 -0.48079848 -0.662244 -0.60031337 -0.9062248 0.06212339 -0.34529075 0.11414521
-0.9352186 0.05993456 -0.23905641 -0.51443434 -0.23553832 -0.55407345 -0.66101867 0.21391384
-0.34397292 -0.15413252 -0.5812943 -0.88646287 0.13015755 -0.696633 -0.075307384 -0.5739348
-0.4356994 -0.23227149 -0.20304477 0.28588778 -0.99651104 -0.5684849 -0.4528008 -0.3358201
-0.14992005 0.038116664 -0.32755098 -0.03583528 -0.34372073 -1.1613986 -0.5130629 -0.2885906
0.0023337973 -0.24306233 -0.020521887 -0.496946 -0.728439 -0.18087277 -0.5015632 -0.007613697
-0.552623 -0.12937452 -0.35684755 -0.40906507 -0.53849036 -0.5557499 -0.32471088 -0.6358365
-0.4255904 0.05897138 0.2932132 0.11033798 -0.04403475 -0.84559417 0.11359026 -0.13843888
-0.753742 -0.20850186 0.16754201 -0.62256646 -0.4133811 -0.29757547 -1.1342835 -0.335101
-0.6323371 -0.69858885 -0.7534646 -0.61329186

weight f4 [50, 100]
00000000: aed1 d53d 7983 4a3e ee7e 9439 a0d5 56be
00000010: 92f6 44be 8699 083e 017d a83d bfd4 b43d
00000020: 0d1e bfbd aa8a 203e af8b 99bd 7048 c23d
00000030: c0f7 39bc 9b09 6dbe 8d6c 3bbe 3c89 823e
00000040: 8724 fabb fbac 4a3d d515 83bd 1f37 9ebd
00000050: c7f5 3c3e f6f0 c8bc 1ed1 09be 9230 91be
00000060: b86f 63bc f662 6dbe 024e eabe f80e 943e
00000070: 4750 2e3e be0c f5bd abae bebe 91f5 3e3d
00000080: 8fd8 83be e159 f43b 50c6 f7be 92d0 20be
00000090: d3b8 f93e bcfa 1ebd b325 643e 9a6e 5d3e
000000a0: 124d 0cbe 9cc7 2b3e 71eb c53d f815 69bc
000000b0: b297 a4bd c6b6 1fbe 9258 723e 9c66 afbc
000000c0: f1a3 87bd 7f32 89bc 4518 b63d 59b0 6bbc
000000d0: ae5e ba3d 2fbc f4bd 8f1d 36bd 28d6 323e
000000e0: 14e1 edbd 393e 403e 7724 88be 21c8 5b3e
000000f0: 561c 58bd 498b 77be 8325 70be bb02 533d
00000100: bf21 27be 0a17 863e b671 4cbd 499a a8bd
00000110: aa86 fc3c e16e a03c b887 2cbd 7eae 4d3d
00000120: 6e78 b13d 6915 2e3e 24c5 943e cc37 4abd
00000130: de0d 4b3e e1d3 3dbe 7cc5 32be eac0 83bd
00000140: a0f7 40be b6aa 97bd eebd b5bd 2370 cabc
00000150: c53d 89be 9cbc a6bd 98f2 c0bd c672 45be
00000160: a345 4c3e f5e3 e53d f24e 8fbe 0535 debe
00000170: c2d4 d53e b3bc 14be 135e d8bd dcd8 4fbd
00000180: d2d9 a3bd 3db3 493d 90a8 8dbd bb32 58be
00000190: e28a 803c 64f2 35bb daf9 2ebf 0c61 723d
000001a0: e11b a43d 5c5b b3bd 6f4a b5bd b76e 713e
000001b0: 2b67 9d3d 88c5 fabd d3fc 593d 2060 b4bd
000001c0: f460 803c b0ba 25be e299 23be f74c d73b
000001d0: b19a 7ebd 5883 0ebd c9af 2bbe 65f9 da3d
000001e0: 3d0a b23d a5fc dbbe 7342 e23d cc0c 13be
000001f0: fbbe 09be 7c7e e1be c808 17bd 44b6 d43c
00000200: a950 fcbe 3359 72be 4887 043e af18 003e
00000210: 4cf3 243e 6703 1ebf 97b1 d1bd 577c dcbd
00000220: 2856 5dbe 4b75 0e3e d2c2 d6bb 0ff1 46be
00000230: 2979 423e e189 923e e7d6 adbd 8a3f 89be
00000240: 20cd 0fbe d3c6 33be 2cb9 583d 3a28 24be
00000250: 35dc 8dbd a9cb c63d 7512 74be 120c 09bd
00000260: 1c10 9ebe 5ce1 66bf 264c 8bbd 5edb 793c
00000270: f28d 01bf 2930 1e3d 8658 433e 3235 953d
00000280: b7d6 d63d 789d 953e 707f c33d 3ca5 f23d
00000290: 6018 86be e856 933d be70 4e3e af06 923e
000002a0: 6230 98bd a49a 36be 2f37 60be eafa 193c
000002b0: 294e bdbc 744e f5be 73d8 cfbe 26c2 08bf
000002c0: 5ccb 2d3e 0a9c f2bd ced6 b8bc 5885 c3be
000002d0: 9af2 b83e 8021 703d 5f49 1c3e 653d 4b3d
000002e0: 5f27 1abe 8a67 223c cd0b 013e 5d4d c6bc
000002f0: 028c 54be 9f5f e3bc e42c 973d 91db 8cbe
00000300: 344e 77bd 8756 5abd 2725 213d 8ba2 64be
00000310: 76b1 a8be 9dc5 07bd 4d78 df3d 6cdd ef3a
00000320: b281 963d f4ba a0ba 8963 483c bda3 ccbe
00000330: 2692 4a3d 5daa dcbd 3076 6dbd 94c5 7d3e
00000340: 0c0c 163d 4d5a 283e cd30 a0be f366 c3be
00000350: a9af 783d 63be 8a3e ac69 83bd 4354 7b3e
00000360: 32e3 573d 02c0 df3d fbf9 36be 7564 18be
00000370: 7ba3 2cbd e88d 493c d289 753e 2f67 3b3e
00000380: 7e7c 383d 6faa 1fbd d70a 54bd 6ebd 07bd
00000390: 950f e13d ca9a 4b3e 46c3 7dbe bcf6 ec3d
000003a0: 0b19 483e 1bb3 6a3e 75de 333e 3370 51be
000003b0: cf6c 48bb b5ad 05bd 0ff6 ccbd 93bc 4e3e
000003c0: 7fe7 05bd 4f83 263e 228a 18be dd75 c4be
000003d0: fca7 733d bfd2 153d 3a2b 503e ce97 5f3e
000003e0: b15c e63d 3743 203c b605 d63d dbd2 b9be
000003f0: 7375 d33d db44 e4bc 0fcc 793d b637 523e
0.10440384 0.19776715 0.0002832333 -0.20979929 -0.19234684 0.13339815 0.082269676 0.088296406
-0.093319036 0.15677896 -0.07497346 0.094864726 -0.011350572 -0.23148195 -0.18303128 0.25495327
-0.007633749 0.049481373 -0.064006485 -0.07725357 0.18453132 -0.024528962 -0.13458678 -0.2835737
-0.013881616 -0.23182282 -0.4576264 0.2891767 0.17022811 -0.11965321 -0.37242636 0.04662091
-0.2575116 0.0074570035 -0.48393488 -0.15704563 0.48773822 -0.038813338 0.22280006 0.21624222
-0.13701275 0.16775364 0.096640475 -0.014226429 -0.08036746 -0.15597066 0.236666 -0.021411233
-0.06623066 -0.016747711 0.08891348 -0.014385306 0.0910009 -0.11949956 -0.044461783 0.17464507
-0.11615196 0.18773736 -0.2659032 0.21463062 -0.0527614 -0.24174227 -0.2345181 0.051516276
-0.16321467 0.26189452 -0.04991313 -0.082325526 0.030825932 0.019584121 -0.04212162 0.050215237
0.08665548 0.17000355 0.29056656 -0.04936962 0.19829509 -0.18537857 -0.17458147 -0.0643328
-0.18844461 -0.074056074 -0.08874117 -0.024711674 -0.2680494 -0.08141443 -0.09421271 -0.19282064
0.1994844 0.1122512 -0.27989918 -0.43399826 0.41763884 -0.14525108 -0.10564818 -0.050743923
-0.0800053 0.0492432 -0.06916916 -0.21113102 0.015691224 -0.0027762884 -0.68349993 0.059174582
0.0801313 -0.0875766 -0.08852088 0.2357739 0.07685693 -0.12244707 0.053219628 -0.08807397
0.01567123 -0.16184497 -0.1597667 0.006570454 -0.062159244 -0.034793228 -0.16766275 0.106920995
0.08693359 -0.4296619 0.110478304 -0.1436035 -0.1345176 -0.44041812 -0.03687361 0.025965817
-0.4928029 -0.2366684 0.1294223 0.12509416 0.16108435 -0.6172394 -0.10238951 -0.107659034
-0.21614897 0.13911931 -0.006553986 -0.19427894 0.18991531 0.28620818 -0.08488255 -0.2680629
-0.14043093 -0.17556314 0.05291097 -0.1603097 -0.06926767 0.09706814 -0.23835166 -0.033458777
-0.30871665 -0.9018762 -0.068016335 0.015250055 -0.50607216 0.038620148 0.19076738 0.07285537
0.10490172 0.29221702 0.09545791 0.11847922 -0.26190472 0.071943104 0.20160195 0.28520724
-0.07431103 -0.17832428 -0.21896051 0.0093982015 -0.023108559 -0.47911417 -0.40594825 -0.53421247
0.16972107 -0.11846168 -0.022563364 -0.3818767 0.3612259 0.058625698 0.15262364 0.049619097
-0.15054081 0.009912381 0.12602158 -0.024206812 -0.20756534 -0.027755557 0.07381609 -0.27511266
-0.060377315 -0.053305175 0.03934207 -0.2232763 -0.32947892 -0.033147443 0.109116174 0.0018300242
0.07348956 -0.0012262748 0.012230762 -0.39968672 0.049455784 -0.10774682 -0.05797404 0.24782401
0.036632583 0.16440697 -0.31287232 -0.38164482 0.060714398 0.2709838 -0.0641664 0.24543862
0.052706905 0.109252945 -0.17868797 -0.14882071 -0.042148095 0.0123018995 0.23978356 0.1830108
0.0450406 -0.038980898 -0.05176815 -0.03313964 0.109893 0.19883266 -0.24781522 0.11570498
0.19540803 0.22919886 0.1756533 -0.20452957 -0.0030582433 -0.032636363 -0.100078695 0.20189123
-0.032691475 0.16261028 -0.14896443 -0.38371173 0.059486374 0.036577936 0.2032899 0.21835253
0.11248148 0.00978165 0.10450308 -0.36293682 0.10325136 -0.027864864 0.06098562 0.20529065

bias f4 [50]
00000000: 48e8 0abd 6547 9dbd 5605 8b3e 234f 3ebe
00000010: 3de4 e1bc 5149 0fbd 1737 4abe 2f0e 43bc
00000020: 448f f93d 8b44 bebd 066d 02be f20a 8fb8
00000030: 6fc5 d3bd 40e7 2b3e 3e26 9b3e 0dae c8bd
00000040: c7ab c63c 6a98 be39 6a63 f23c 78ab 3b3c
00000050: ced8 473b 87a3 c43c 0086 2ebc 5071 67bd
00000060: 62c7 aebd 40e5 05bd 2102 35bd f175 a7bd
00000070: 6b4e 3d3e 1a36 b2bd c292 6f3d eafe 433e
00000080: 6bf6 bd3d a491 43bd 4cfa 583e 259d 2cbd
00000090: 1b64 14bd c2f6 103d fe5a 143e 47d7 023d
000000a0: a7df 263d 6765 6a3d 13c5 01be 5e66 6c3e
000000b0: a21d 58bd 3979 043e 7445 b4bd 4a08 33bd
000000c0: 3aed ff3d 00c8 b43d
-0.033912927 -0.07679633 0.27152508 -0.18584876 -0.027574653 -0.03498203 -0.19747578 -0.011905237
0.12185529 -0.09290417 -0.12736902 -6.82081e-05 -0.10340392 0.16787434 0.30302614 -0.097988226
0.024251832 0.0003635318 0.02958842 0.011454456 0.0030494216 0.024003757 -0.010652065 -0.056504548
-0.08534123 -0.032689333 -0.044191483 -0.081767924 0.18486945 -0.08701725 0.05848957 0.19140211
0.09275516 -0.047746316 0.2118923 -0.042142052 -0.03622828 0.035391577 0.14487836 0.031943586
0.040740635 0.05722561 -0.12672834 0.23085925 -0.052762635 0.12936868 -0.0880231 -0.043709077
0.12496419 0.088272095

weight f4 [25, 50]
00000000: fcc3 01be afd4 e13d eac4 6b3e e0e2 1b3e
00000010: 6657 f83d 1143 8e3e 4992 143e 0a88 ab3c
00000020: 98b6 033e b4cd 47bd 2f86 94bd 494f ab3c
00000030: 6008 fd3d f56f 183e c6b3 243e b140 553e
00000040: 433f 223d 4cae 253e 2a59 c2be 7462 913e
00000050: 547d 4dbd ef3a 833d bb51 773e c649 14be
00000060: 2db6 b2bd 4d2b 3abc 5463 48be b875 383e
00000070: 66e3 063e b4d4 7a3d 9426 253b 372a 953d
00000080: ea98 e2bd e61f 9c3c 917b d03e d4f8 5b3e
00000090: 5f36 363d 4a52 c63d 7b4e ad3e 130f 943e
000000a0: 7318 9fbc 4067 80bd 9000 8dbd 593d e2bd
000000b0: cd00 6c3d 37e0 583e 3b8d 94be e976 943e
000000c0: 7538 40be 657f 273e a9a7 0abe d07d 09be
000000d0: a216 ebbd b164 843e 36ed f43c 9297 5e3e
000000e0: 7d9a 52bd d875 8f3e c6a0 07be 3b22 a43c
000000f0: 81eb 8c3d 1dcf 09be 6479 71bd 615a 8bbe
00000100: 2865 643e e03a 513e a21d aebe 450e a93c
00000110: ddc4 0abf 9f04 debd 7a37 3ebe 2da3 a43e
00000120: 4405 bfbd 0e19 65bd 21d9 cf3d e938 a1bd
00000130: e0bc 0b3e a132 8b3d cf82 c8bd 92a3 593d
00000140: 7de8 a53d 4ce1 dcbd 1232 8fbe ee01 0d3d
00000150: bbdf 96bd 1a21 4fbb 311a 02bf 37b4 8bbd
00000160: 1d55 813e 3f9c 583d 0f45 28bd 5730 11be
00000170: 6c12 603d de09 d8bd 664e 19be cc6b 4f3e
00000180: c1df 003d 5bb9 1cbe bd04 273d 35c7 4f3d
00000190: ef83 8d3d add1 943e 4ede 49be cad2 283e
000001a0: eada 1dbe 17a9 8dbe 5da4 ed3d 4e8f e53d
000001b0: a5ad d2be e747 843e d3b5 a03d cc9f 353e
000001c0: e283 71bd dc69 70be 6a81 4abd dddb 6e3e
000001d0: 46eb 843e f214 1bbd e93b 9cbe a3f0 1c3d
000001e0: 1577 1e3e 7f0e 963e 6b2a b8bd d279 10be
000001f0: 9598 56be 9adc 0e3e cbce e1bd 95e7 4c3d
00000200: 3e00 b3be 10c9 2cbe 8be0 5ebe 1aa4 9bbe
00000210: 144e 403d 1e13 7a3c 469b 85be c8a2 fbbd
00000220: 84e9 b7bc c306 b53d 9b41 e0bc dbb7 bfbd
00000230: 99f5 853e 6add 86be a850 e5bd 3a58 42be
00000240: eb65 0abe 60b5 46bd 891d a5be c433 12be
00000250: 638e 083e 254c 2ebe 6d84 4a3e b371 503e
00000260: 03b1 203e 4f9e 52be 5800 1f3e a497 d93c
00000270: d9c5 2b3e 8782 e73c 2905 8abe fc07 abbe
00000280: bcc3 b03c d514 8d3e 38a9 233e 84b1 48bb
00000290: 08b0 9fbd 5aa7 fe3c 444d 80bd af59 64be
000002a0: 2a72 393b e5e7 793e 7474 afbe 184c 70bd
000002b0: 39ac adbf 8887 3bbe 1d7f 71bd e802 adbd
000002c0: 662a 0b3e 1510 c4bd 9113 90be 5c79 4ebe
000002d0: 8e36 f6bd ac81 bbbe 4a0f cebd e2cd c8bd
000002e0: 5f05 f1bf 2b9c 3b3e e6bc 7f3d 502b 3bbe
000002f0: bb7a a23d 1390 64bd fd2c 27be 9e14 2cbe
00000300: db79 c0be 581e 17be 8ff1 9dbf 7b48 84bd
00000310: 188d 0ebf ef52 183e e6d2 82bd 4f27 77bd
00000320: 79a9 823d bd76 03be a993 153e 2fbb 15be
00000330: 54e5 22be 6dd4 95bc 3562 75be 9c7a 063e
00000340: 2ee2 a7be 1174 883d 12ca 173d 9dcb c3bd
00000350: d421 0cbe b1ba b9be 5bd7 17be bfc0 64be
00000360: 9047 83be 97e3 08be d4e7 00bf b68a 37bd
00000370: 04f5 9fbe 84ae c3bd 58e7 e33e f907 acbd
00000380: f97e 5abc 9894 d8bd 7120 773e 4206 14be
00000390: 541d 37be 04ed 053f 5a0e fc3d 856b 6dbe
000003a0: 9ff0 b7bb 04f9 b0bd 977a b3bd 3564 c73e
000003b0: 6efd 48be fc11 8f3e 2611 823e 347b 8ebe
000003c0: 4dd4 3d3e ae32 91bd 98bc c43e b847 97be
000003d0: 703a 913c 151e c8be 8611 753e ddf8 c8bc
000003e0: fa04 2cbe f3f8 68be 0c91 3a3e 0ace 89bd
000003f0: a407 86be b48f 42be 2a12 66bd 350b 0abd
-0.12672418 0.11026894 0.23024336 0.15223265 0.12126045 0.27785543 0.14508928 0.020938892
0.12862623 -0.04878016 -0.07252156 0.02091183 0.12355113 0.14886458 0.16084203 0.20825459
0.039611112 0.1617977 -0.37958652 0.28395426 -0.05016835 0.06407725 0.24152271 -0.14481267
-0.087261535 -0.011362863 -0.1956914 0.18013656 0.13172683 0.061238006 0.0025199996 0.072834425
-0.11064322 0.01905818 0.40719274 0.21481639 0.044485446 0.09683664 0.33848938 0.2891775
-0.019420838 -0.062696934 -0.06884873 -0.110468574 0.05761795 0.21179281 -0.29014 0.2899697
-0.18771537 0.16357191 -0.1354052 -0.134269 -0.11478926 0.2585807 0.029898267 0.21737507
-0.051416863 0.28019595 -0.13244924 0.020035854 0.06880856 -0.13457914 -0.058953658 -0.2721739
0.22304213 0.20432615 -0.34006983 0.020636687 -0.5420664 -0.10840725 -0.1857585 0.32155743
-0.09327176 -0.055932097 0.10148836 -0.07872183 0.13646269 0.06796766 -0.09790575 0.05313451
0.08100984 -0.107851595 -0.27967888 0.03442567 -0.07366892 -0.0031605423 -0.50821215 -0.06821483
0.2526025 0.052883383 -0.041081484 -0.14178596 0.05470507 -0.10548757 -0.14971313 0.20255965
0.03146339 -0.15305082 0.040776003 0.050727088 0.0690993 0.2906622 -0.19713709 0.1648666
-0.1541554 -0.27668068 0.116036154 0.11208974 -0.41148105 0.25836107 0.0784718 0.17736739
-0.058963664 -0.23477882 -0.049439825 0.23326059 0.2596075 -0.037861772 -0.30514458 0.038315427
0.15475114 0.29307935 -0.089924656 -0.14108971 -0.20956643 0.1395134 -0.11025771 0.05002554
-0.34961122 -0.16873574 -0.21765344 -0.30398637 0.04694946 0.015263347 -0.26095027 -0.122869074
-0.022450216 0.0883918 -0.027375033 -0.093612395 0.2616394 -0.263408 -0.111970246 -0.18978968
-0.13515441 -0.048512816 -0.32249096 -0.1427756 0.13335566 -0.17021234 0.19777079 0.20355873
0.15692525 -0.20568202 0.15527475 0.026561566 0.16774692 0.028260482 -0.26957062 -0.3340453
0.021577708 0.27554956 0.1598252 -0.0030623386 -0.07797247 0.031085659 -0.06264737 -0.22299837
0.0028296807 0.24404867 -0.34268534 -0.05866632 -1.3568183 -0.1831342 -0.058959115 -0.0844782
0.13590392 -0.0957338 -0.28139928 -0.20163482 -0.12022124 -0.3662237 -0.1006151 -0.09804894
-1.8829764 0.18321292 0.062436007 -0.18278241 0.07933565 -0.055801462 -0.16325755 -0.1680474
-0.37592968 -0.14757669 -1.2339343 -0.06459137 -0.5568404 0.14875387 -0.06387882 -0.060340222
0.063799806 -0.12838264 0.14607109 -0.14622186 -0.15907794 -0.018289769 -0.23963244 0.1313271
-0.3278975 0.06662763 0.037057944 -0.095603205 -0.1368478 -0.36275247 -0.14828245 -0.22339152
-0.25640535 -0.13368069 -0.5035374 -0.04481002 -0.3124162 -0.095547706 0.4451244 -0.08399958
-0.013335937 -0.10575217 0.24133469 -0.14455512 -0.17882282 0.5231478 0.12307425 -0.23185547
-0.005613401 -0.08641246 -0.087636165 0.3894364 -0.19627926 0.27943408 0.25403708 -0.27828372
0.18538018 -0.070897445 0.38425136 -0.29546905 0.01772806 -0.3908545 0.23932466 -0.02453273
-0.16798773 -0.22751217 0.18219393 -0.06728752 -0.26177704 -0.19000131 -0.056169666 -0.033702094

bias f4 [25]
00000000: c65b 813d 95f4 33be b0e5 3cbe 157e 2fbe
00000010: 486c 25be 1347 71be ee9a 07be 0429 70be
00000020: b55c 413d a6c0 a43d e815 073d b247 58be
00000030: 8eac a8bb d3ff 0abe 4eec 23bd 3d83 88be
00000040: 5a91 77be 9f4d 77be 3ea4 72be 7de4 63be
00000050: c7db 7abe a88f 04be ae0a 55be 0c55 72be
00000060: ea62 28bd
0.063163325 -0.1757377 -0.18446994 -0.1713794 -0.16154587 -0.23562269 -0.13242695 -0.23453146
0.047207553 0.08044557 0.032979876 -0.211211 -0.0051475232 -0.13574152 -0.04002028 -0.26662627
-0.24176541 -0.24150704 -0.23695466 -0.2225513 -0.24497901 -0.12945426 -0.20804855 -0.23665255
-0.041109957

weight f4 [3, 25]
00000000: 280f aebc 5c1e 1b3e 50be b33e c440 f03c
00000010: 3cf6 8f3d 7a7a 4ebe fb8c d4bd 7f9a 423d
00000020: cd65 953b a932 bdbb 6470 893b c1ff 933e
00000030: 2940 0bbc d7d0 3bbe 78dc b4bc a7d4 12bd
00000040: 545b 9c3b 7e25 213e 8961 a6be 5542 8ebb
00000050: 6471 163b cbc8 c83d 2f51 0abd 2394 44be
00000060: a009 103d d8ca edba dd2a c53b b327 ea3d
00000070: 2bda 4abb 0c6b 94be 5b29 1abd 5b6d fcbe
00000080: 90fd 823d baf6 8cbc 6826 d7bc 63f1 a73b
00000090: 2995 2fbe 25ac 01bc 8e9a a63e 8076 10bc
000000a0: 3413 643d 0b8a 2a3c 1d2a 4dbd 43ce cbbd
000000b0: e0bd 2dbd 81d1 ccbc 5447 aebd 41f5 efbd
000000c0: fcb3 543e f7d2 233d b43d 8b39 0194 0cbe
000000d0: 063b 90be a764 633c 63b5 0fbf e0ce ff3d
000000e0: 4cb5 c3bc 1556 c1be cfff dcbb e6c2 543b
000000f0: 2d44 a3bc d21e 833e 24c8 ff3a 712f 7abc
00000100: 6a27 c7bc ffa4 74bc bfad 26be a19f 3fbd
00000110: 8785 b83d 2fca 81be 5bb4 a2bc 5b97 b33d
00000120: d95c 8fbe 897f 283e 4c6d 203d
-0.021247461 0.151483 0.35106134 0.029327758 0.07029387 -0.20163909 -0.103784524 0.04751062
0.0045592547 -0.0057738614 0.004194306 0.28906062 -0.008499184 -0.18341385 -0.022077784 -0.035847332
0.0047716293 0.15736958 -0.32496288 -0.0043414035 0.002295577 0.09803923 -0.03376883 -0.19197135
0.03516543 -0.0018142117 0.0060170726 0.11433353 -0.0030952792 -0.2898792 -0.037637096 -0.49302182
0.063960195 -0.017207492 -0.02626343 0.005125211 -0.17146744 -0.007914578 0.3253979 -0.008817315
0.055682376 0.010408889 -0.05008899 -0.09951451 -0.042417407 -0.025002243 -0.085096985 -0.117167
0.20771784 0.039996114 0.00026558118 -0.13728334 -0.2817003 0.013878978 -0.5613615 0.1249063
-0.02389016 -0.37760988 -0.006744362 0.0032464801 -0.01992997 0.25609452 0.0019514603 -0.0152701
-0.024310786 -0.014931916 -0.16277216 -0.046783093 0.09009843 -0.25349566 -0.01986139 0.08769103
-0.28000525 0.16454901 0.039166734

bias f4 [3]
00000000: 9888 393c 7eaa f23b 7ef3 ffba
0.01132407 0.007405578 -0.0019527522
