Modeling eMNS/Trained_model/EMS_ANN_v2.pt (torch, 58157 bytes, 16 tensors)

total_net.0.net.0.fc.weight f4 [128, 15]
00000000: 3b02 09be 2847 69bd 6c33 85bd 81e2 4a3c
00000010: 4055 293d 1492 26bd 4f06 083e bdbd 573e
00000020: 8a26 8abd 4578 00bd 6bb1 c73d 6670 a5be
00000030: ae70 253f 4295 053f 996b 2cbf a020 0bbd
00000040: ffe4 98bd dbcb e43d 0a83 473e e3ed 3dbe
00000050: d259 cabc fc04 ef3d cf13 cfbe 0c86 dfbe
00000060: d0e4 6e3e c691 b63d eeae e53d 628e 093c
00000070: 1e38 b4be a931 11bf a3ba adbd 9d38 a13f
00000080: 36a8 6dbd 3703 61bd 80d8 40bc aa95 823c
00000090: 1780 c63b be83 e0bd 87a0 23bd 3936 d7bd
000000a0: 991f 5ebd 8f7b 60bd 0815 783e 0d64 ad3e
000000b0: 82bf 823e 8c25 95bd 3495 d93b 5bc0 35bc
000000c0: a3e7 3bbd 753b 29bc 4c83 5b3d 60b0 8a3f
000000d0: da5c e1bd 60b2 bbbc 6d1e 2ebd 1d16 3ebc
000000e0: dc67 c5bd 1eab 813e 005a 19bd a8ec 2dbe
000000f0: 9a4a e1bc 8be2 c7bd 45fe 243f b057 86be
00000100: 851a b1bc a62c e53c 0abf 9c3c d1b4 dfbd
00000110: 058d f7ba a693 cdbd ff88 9e3d 1128 fa3d
00000120: 867a a03e 1a00 793f b5d0 173e 9741 f1bd
00000130: bc0b 89bd 0900 973d de84 4dbe d8ea 3f3e
00000140: 730c 043e 5112 80be 3eb6 e83d ea3c eb3d
00000150: 47e3 d4bd 1454 7ebd 5946 a33d 41b9 833e
00000160: 5d83 82bf c1e7 793d 8aed 5c3e 5d05 28bd
00000170: 4b3a 00be 831d 2fbe 3e42 9abd 732d 7c3d
00000180: e474 dbbe 5b0d 11be 9187 b93d 9b3c 563e
00000190: 5ce0 053e aab8 acbd 15ba 85be 4c22 2f3c
000001a0: 54c8 91bf c77c 883e 9871 c5bb 9155 d13d
000001b0: ba31 bebd 8452 edbd e43b b13e 43d8 c2bd
000001c0: 8dfb 5d3b 0231 38bf dda8 8e3d b775 fbbd
000001d0: 175f c33b 83c1 493f 3ccb 29bb d711 733e
000001e0: ce32 c23d 477d 79ba b4e0 02bd 5f72 7dbd
000001f0: cc92 e13d 00e7 75bf c3f0 6d3c 0ac6 963c
00000200: 89cd 24bc 6fa4 4b3d 6666 9a3b 893c 8c3d
00000210: 8a61 553e a38f b9be 31c6 2b3d 1198 923e
00000220: 4c96 15bf cc82 68be a93c 5d3b 40e1 a63d
00000230: 0c07 6c3e 9220 b83d bf60 4b3e e13b 2b3e
00000240: 7390 44bd 3ce1 15be 2097 033c ed62 8c3e
00000250: daaa c93e a257 bb3e 2b1e c5bd d7ff 7d3e
00000260: 87a5 b23e e7aa 103e 10d0 a2bb 39e0 053d
00000270: b66c ae3d 9701 17bd d6c2 35bf 20ee 65be
00000280: ca3a adbd ca63 8d3e 3f39 d6be 36cd d53e
00000290: 9790 b6bd 7548 3bbc 0f35 5dbb de2a 2dbe
000002a0: 92d5 a6bd 1673 293f a991 a137 7ed4 71bb
000002b0: 2a16 873b 628b c43d 763e 05be 3ce5 e9bd
000002c0: fde7 91be ed1a 053d cb42 5fbf fce5 19be
000002d0: 1413 8abc a047 933e 30eb 4b3f 8ee4 a0be
000002e0: 65d0 5d3e fd0a 6fbe 3509 303e b450 1a3e
000002f0: 2dc3 91be 00fe 103d 240d 5ebe 7256 a9bd
00000300: 6c4b b4bd ab2a e73d 6ffd a73c b458 c33c
00000310: c48d 803d 4163 343d ff2f dc3c 21b1 60ba
00000320: 7eb1 4f3c 1b1d e63d be32 86bf f7d2 953d
00000330: 824a 3dbd 31a7 1ebb d563 a03c 7f81 be3c
00000340: d009 263e 774d 15be 0bde 323e 4f98 ad3d
00000350: 2794 a5bd d84b 233e f11a b5be c220 9ebd
00000360: 5630 ac3e d851 a1be 88a5 a23d b847 0f3e
00000370: 4deb acbe 08c7 9d3d e6fe a33e d65b 8fbf
00000380: c562 fabc 8159 09be 3e49 3abe 750d 8dbe
00000390: 20c5 b3bd d8b7 3f3e 0192 b53d 1b6d a0bd
000003a0: d098 a83d 1381 823e 6176 47be e3ce a1bd
000003b0: 5584 c5bc 67be 0d3d f5c2 7f3f 7676 f5be
000003c0: 98ce 2c3d e0d1 7d3e f489 91be fbe7 1a3b
000003d0: a2ec abbe cb47 d93d 9826 4b3c 6a96 8b3c
000003e0: cf13 30bd 9e3d 13be 02dc cf3e 1dac 1a3e
000003f0: 3387 cebe df47 42be d272 c1bc fd90 b2bd
-0.13379757 -0.056952626 -0.065039486 0.012383104 0.041341066 -0.040666655 0.13283657 0.21068473
-0.06745632 -0.031364698 0.09750637 -0.32312316 0.6462506 0.52180874 -0.6735168 -0.03396666
-0.074655525 0.11171695 0.19483581 -0.18547778 -0.024701033 0.116708726 -0.404448 -0.43656957
0.23329473 0.08914523 0.11215006 0.008395763 -0.35199064 -0.567164 -0.08482864 1.2595402
-0.058021747 -0.054934707 -0.011770368 0.015940506 0.00605775 -0.10962628 -0.039948013 -0.10508389
-0.054229353 -0.054805335 0.24226773 0.33865395 0.25536734 -0.07282552 0.006640101 -0.011093224
-0.045875203 -0.010329117 0.05359201 1.0835075 -0.11004038 -0.022912204 -0.042509485 -0.011601952
-0.0963895 0.25325865 -0.037439346 -0.16984808 -0.027501393 -0.097600065 0.64450485 -0.26238775
-0.02161909 0.027975392 0.019134063 -0.1092316 -0.0018886632 -0.10037927 0.07740974 0.12214673
0.31343478 0.9726578 0.14825709 -0.117800884 -0.06691691 0.073730536 -0.20070216 0.1874193
0.12895374 -0.25013974 0.11362885 0.11486228 -0.10394912 -0.062091902 0.07972402 0.25727275
-1.0196339 0.061012033 0.21574989 -0.04102074 -0.12522237 -0.17101102 -0.07532166 0.06156678
-0.42862618 -0.14165251 0.0905906 0.20921557 0.13073868 -0.084336594 -0.26118532 0.010689329
-1.138926 0.26657698 -0.0060255043 0.102213986 -0.09286828 -0.11588004 0.34616005 -0.09513905
0.003387186 -0.7194978 0.06965802 -0.12278312 0.0059622633 0.788109 -0.002590849 0.23737274
0.094823465 -0.0009517264 -0.031952575 -0.06187665 0.110143274 -0.96055603 0.014522734 0.01840498
-0.010058769 0.049717363 0.004711914 0.06847484 0.2083799 -0.362424 0.041937057 0.28631642
-0.5843246 -0.22706145 0.003375808 0.08148432 0.23049563 0.08990587 0.19861124 0.1672206
-0.04798932 -0.14636701 0.0080316365 0.27419224 0.39388162 0.36590296 -0.09624895 0.24804626
0.34891912 0.14127694 -0.0049686506 0.03268454 0.08516829 -0.03686675 -0.7100042 -0.22454119
-0.08458479 0.27615196 -0.4184055 0.41758126 -0.08914297 -0.011430849 -0.003375355 -0.16910884
-0.08146204 0.6619123 1.9260524e-05 -0.0036900337 0.004122515 0.09596898 -0.13012108 -0.11420676
-0.28497306 0.03249638 -0.87211293 -0.15029138 -0.0168548 0.28765583 0.7965574 -0.31424373
0.21661527 -0.23344035 0.17191012 0.15069848 -0.2846922 0.035398483 -0.216847 -0.08268441
-0.08803448 0.11287435 0.020506589 0.023846008 0.0627704 0.04403997 0.026878355 -0.0008571316
0.012676595 0.1123602 -1.0484235 0.07315629 -0.046213634 -0.002420854 0.019578854 0.023255108
0.1621468 -0.14580332 0.17467515 0.08476316 -0.080848984 0.15946901 -0.35372117 -0.07721092
0.33630627 -0.31507754 0.07941729 0.13992202 -0.3377327 0.07703978 0.3203041 -1.1199901
-0.030564675 -0.1341305 -0.18192002 -0.2754933 -0.08777833 0.18722475 0.08865739 -0.0783331
0.08232272 0.254891 -0.19478752 -0.07900789 -0.024110952 0.03460541 0.99906856 -0.4794194
0.04218921 0.24787092 -0.28425562 0.0023636806 -0.33578974 0.106093965 0.012399338 0.017039496
-0.04298764 -0.14378974 0.4059754 0.15104719 -0.40337524 -0.18972729 -0.02361432 -0.087190606

total_net.0.net.0.fc.bias f4 [128]
00000000: b685 c2be 9628 abbe b5a6 703e a8b9 b03e
00000010: 9e87 d8be f9b0 52be 19f8 bbbe 49ed f83c
00000020: 8b55 583e 57e0 fabd cee1 20be 7ed9 abbd
00000030: 47ca 7cbd 196e 053f 7108 5b3d c49c 96be
00000040: 1bcb bd3d d919 af3e 5ed4 803b 4c17 04bc
00000050: 6a2c eabc b89b 02bf cd08 77be 8662 cd3e
00000060: 0375 db3d ac08 37be 7a23 b9be 221c c33e
00000070: 300e d5be 0d07 963e 782a 0b3f 97de 813e
00000080: bc32 a3bd ac6a 7f3e 0045 f23e f6d5 cf3e
00000090: 1cf1 ea3d 92da 3b3e 0efc df3e 46e4 613e
000000a0: a492 463e f577 e13d be94 5ebd c55e 743e
000000b0: 1d9b 8f3d 0e58 61bd e37a 043f 1bff 333e
000000c0: 30ee e03e 0820 fa3e 067a b03b 217f 6b3d
000000d0: ce7a 1d3e 8d01 b5be 49be a5bd ce46 d7be
000000e0: 34bb ca3e 316a db3c 79fc 51bd f05b 153d
000000f0: 4a7c fdbd 88d2 0cbf 4f3f e3bd 8ecb 65be
00000100: bc7f 0cbf b806 813f 349e 4bbc 18ba ee3d
00000110: cf3b 513e 7d93 e33c 0011 f33d f800 41be
00000120: 9ec6 f33e dce7 b03d 2c31 2c3c 632b e43d
00000130: 45d5 f7be a392 03be 6336 f5be ff86 9c3e
00000140: 6eb0 4ebc 4347 9f3d cc88 e63d ca2c 9abe
00000150: 2365 a13e 9bd3 92be a896 da3d 1c79 b93e
00000160: 9b31 d2bd 0f26 563e 6582 4e3e 0a8d 003f
00000170: eee6 18be 8826 18bd a9d2 ee3c 1eab 95be
00000180: 3c1d cb3a 5a97 163f 65fb a0be 7a31 28bc
00000190: 85ad e33e fcaf f5bd 19f8 243d b78a d13d
000001a0: 4dd5 0bbe 9539 523d dd96 d3bc dd72 813d
000001b0: 439d 023f aacd 903c 5ca7 45bb afb6 8f3e
000001c0: fb70 9abe 030a 31be 479b 02bf b995 3bbe
000001d0: 1e15 5e3e 0817 bf3e 5ca9 c33e c0cd 62bd
000001e0: b4e9 353f 308d 8f3e d2e4 f5bd f1a0 80be
000001f0: f36e 793e 7970 96be 5c76 ab3d b0fa fa3c
-0.37992638 -0.33429402 0.23501094 0.34516644 -0.42290968 -0.20575322 -0.3671272 0.030386584
0.21126382 -0.12249821 -0.15711138 -0.08391093 -0.061716344 0.5212112 0.053474847 -0.29416478
0.09267255 0.34199408 0.003931566 -0.008062195 -0.028585631 -0.5101886 -0.24124451 0.4011423
0.107156776 -0.17874402 -0.3615988 0.381074 -0.41612387 0.29302254 0.5436168 0.25365135
-0.07968661 0.24943036 0.47318268 0.40592927 0.11471769 0.18345097 0.4374699 0.22059736
0.19391876 0.11009208 -0.05434107 0.23864277 0.070120074 -0.055015616 0.5175001 0.17577784
0.43931723 0.48852563 0.00538564 0.057494286 0.15378878 -0.35352746 -0.08092935 -0.42046207
0.3959595 0.026784034 -0.051266167 0.03646463 -0.12377222 -0.55008745 -0.110960595 -0.22440931
-0.5488241 1.0080175 -0.012427855 0.11656588 0.20432971 0.027780289 0.11868477 -0.18848026
0.4761247 0.08637974 0.01050977 0.11141088 -0.484049 -0.12848906 -0.47893056 0.30571744
-0.012615306 0.07777264 0.11256561 -0.30112296 0.31522474 -0.28677067 0.10673267 0.36225212
-0.10263368 0.20912956 0.20166929 0.5021521 -0.14931843 -0.03714612 0.029153185 -0.29232115
0.0015496383 0.58824694 -0.314418 -0.010265702 0.44468322 -0.11996457 0.040275667 0.10231536
-0.13655587 0.051324446 -0.025828773 0.063207366 0.5102121 0.017676193 -0.0030159568 0.28069064
-0.30164322 -0.17288975 -0.51018184 -0.18318833 0.21687743 0.3732226 0.38215148 -0.055372
0.7105973 0.28037405 -0.12006535 -0.2512279 0.2435873 -0.29382685 0.08372185 0.030637115

total_net.1.net.0.fc.weight f4 [64, 128]
00000000: 8baf da3d 0c39 13bd c414 0bbd e775 663d
00000010: 9f08 96be 89b7 2cbd 9fbe 05bd 9b9c dc3d
00000020: 1672 d03d 0bf1 08bc d0c9 f33c 4a5d 46be
00000030: d5fb bdbd a967 513d 8f87 1ebe b909 a13d
00000040: 3c6c cdbd 7605 a83d ad08 09bd ee82 013e
00000050: 1818 a1bd 0b0b 873a 4e85 05bd 99bd bebb
00000060: fb7d 9ebd 236b 81be e97c 25bd b4e4 4b38
00000070: 0c09 963b 81f6 933a 43cc 453c fc7a 88bd
00000080: cc23 913c 6185 763d f91c e03d 22da 74be
00000090: 2f32 383e 8e12 91bc 165f c0bc 782f 41bc
000000a0: 9707 e6bd 3fe6 4c3e 5d52 7a3e fd69 30be
000000b0: 45a8 f13d d98c a9bd 904b 30be b7bf 793e
000000c0: d7b6 543e 3052 993e bfb8 ee3d 076e 3b3e
000000d0: 6f02 643e 7b1c ce3c e8b6 463b 5dcb 06be
000000e0: e404 3a3e 1a79 74bd 5da0 c7bd 760f 373d
000000f0: 954b cc3d f291 bf3d 670d ffbd 6eb0 09bb
00000100: 11e3 f33c 3161 e43d 9bc0 3e3e ef0c 173e
00000110: 4ec3 35bd 59ec ea3d 5a6b 99bd ccb7 dcbd
00000120: 6eae 14be a0c6 aa3e 7fe2 883d ce3f 6d3d
00000130: 7116 753d 4c73 39bd 01ae fb3d daba 313e
00000140: e313 643e 436c 2c3c 70e4 8a3c f2a1 47bc
00000150: ddce af3c c53f f3bd 5547 793c a08b 983c
00000160: 3de8 a93d 159e 72bd 11b8 fdbc aca3 0d3e
00000170: 7e3a 84bd c82c 4bbe 7de9 11be 6dc5 0e3e
00000180: f7e4 363c d7f4 e03d 93c8 0b3c 6d46 7c3e
00000190: 993a e73d a8bb 7bbd 2f4b e83d 97fc 8b3c
000001a0: 3c4e d93c 9ad3 f6bd 46c9 833d 9f95 9d3e
000001b0: 0d7b b73c 8d0d 953c 4e91 233e e18f 9a3e
000001c0: a6c7 aabd 2671 d4bd ff20 77be 9020 ac3e
000001d0: 9029 133c 859b 09bd 1b2c f9bd cdca b53d
000001e0: 3f98 3e3c f2aa 883d 999a 03be eb1d 6cbe
000001f0: faa0 7c3d b18c 70be cd46 4bbe 9559 383d
00000200: f5f4 89be 57b9 ccbb e626 b73c 3016 173e
00000210: c9d5 973d 0211 2c3e 04eb af3d 0322 25be
00000220: 061e bf3d 1c88 41bc a8a7 ad3d 4ce1 9b3b
00000230: c2d0 99be 7fb5 29bd 600c d13d 9208 a53d
00000240: 31aa 6e3c befe 953e e251 00bd 287e 8a3d
00000250: 1f4b 2c3e 54c7 17bd 879d 953d 2d79 e6bd
00000260: 98ed 5c3e 7a53 413b 9ee7 cdbd c0d7 313e
00000270: d3cc 9f3d 8d15 63be 8ab2 a33c 215f 713e
00000280: c5e7 0a3c ef79 00bf 7d55 303e 28a4 e2bd
00000290: aedd 933d 06ad 73be 2984 003e 5bc2 0d3d
000002a0: 1f87 abbd 57b9 0ebe 113e 87be 349f 3d3d
000002b0: 11b6 0abe f0eb 78be a1a1 1d3e 646c 1bbe
000002c0: beb8 803d 8569 4c3d 9dac c43d db2e af3d
000002d0: 09c2 1d3b 6282 30be dd17 bc3d fadb bbbb
000002e0: ac8a fa3c 4078 56bd 1e43 61be 93ee 17bd
000002f0: f6f2 333d a2ee a13e 4331 5a3d 1f08 65bd
00000300: d8fb c3bd 92b2 a73d b8eb d03e 8c1f 3a3e
00000310: 02ec 03be 12be c7bc 0d5c 8f3d 2696 15bd
00000320: 23f0 12be cdd3 703e 4704 a1be 44a0 66bd
00000330: c2ec 52be e7f7 943d 52d8 f0bd 80bc 41bd
00000340: 0a2f 0a3d 694b c0bd 18e3 9a3d ba26 6dbd
00000350: 3507 1abd 4ae1 643e 46f9 a63b 796b 263d
00000360: 4adc 17be 8789 cb3d 1eee 833d 2f8b 813e
00000370: 4779 8dbd 54e5 313a 7aa2 07be 9b31 5bbd
00000380: d07b a53d 0ae2 413e 2c38 35be 9c04 10bd
00000390: 1b81 18be 7704 1d3d adfc d9be 63d9 c73b
000003a0: cba6 76be 69bf 3b3e 9fd7 28be aa64 323c
000003b0: db96 e5ba 620f 223c 6f5f 3e3c b0ba 21bd
000003c0: 6c55 c3ba 0d5b efbd 4469 e13d 59fe 3bbd
000003d0: 9b9e 023e d55d 14be 4017 30bd ef45 21bd
000003e0: b3b6 ba3d 8288 62bd c0c8 07be 49f8 1a3e
000003f0: 3efa 1b3e 70ad a4bd 2afd 51be cfc2 19bd
0.106780134 -0.035943076 -0.03395535 0.056264784 -0.29303452 -0.04216722 -0.032652494 0.107720576
0.1017801 -0.00835825 0.029759318 -0.19371524 -0.09276549 0.05112425 -0.15481399 0.078631826
-0.1003041 0.082041666 -0.03345554 0.12647602 -0.07865924 0.0010302974 -0.032597832 -0.0058209416
-0.077388726 -0.2527705 -0.040402327 4.8611968e-05 0.004578715 0.0011288674 0.012072626 -0.066640824
0.017717265 0.060185794 0.10943026 -0.23911336 0.17987894 -0.017709043 -0.02348284 -0.011791103
-0.112319164 0.20009707 0.24445482 -0.17227931 0.11799673 -0.08278818 -0.17216325 0.2438954
0.20772873 0.29945517 0.11656331 0.18303691 0.22266553 0.025160065 0.0030321423 -0.13163514
0.18165928 -0.059685804 -0.09747384 0.04469248 0.09975354 0.09354009 -0.12453728 -0.0021009701
0.02977136 0.1115135 0.1862816 0.14751028 -0.04437571 0.11470861 -0.07491179 -0.10777244
-0.14519665 0.33354664 0.06683826 0.057922177 0.059835855 -0.04527597 0.12289048 0.17356434
0.22273211 0.0105238585 0.01695463 -0.012184607 0.021460945 -0.118773974 0.015214761 0.018621266
0.08296249 -0.05923279 -0.030971559 0.13831967 -0.06456469 -0.19841301 -0.14249225 0.139425
0.011162988 0.109841995 0.008531707 0.2463624 0.112904735 -0.06145826 0.11342465 0.017088218
0.026526563 -0.120520785 0.06434874 0.30778214 0.022397542 0.018194938 0.15973398 0.30187896
-0.08338861 -0.10373144 -0.24133681 0.33618593 0.008982077 -0.03359558 -0.121666156 0.08876572
0.011632978 0.0667323 -0.12851943 -0.23058288 0.061676957 -0.2349117 -0.19851227 0.045007307
-0.269447 -0.00624768 0.022357415 0.14754558 0.07413823 0.16803363 0.085897475 -0.16126256
0.093318984 -0.011812236 0.084792435 0.004757082 -0.30042082 -0.041432854 0.102074385 0.08058275
0.014566944 0.29295915 -0.03132809 0.06762344 0.16825531 -0.03705533 0.073054366 -0.11253581
0.2157501 0.0029499219 -0.10053943 0.17367458 0.07802739 -0.2217619 0.019982595 0.23571445
0.00847811 -0.50186056 0.17220111 -0.110664666 0.072200164 -0.23796472 0.12550415 0.03460918
-0.08375382 -0.13937889 -0.2641454 0.046294406 -0.13546015 -0.24308753 0.15393688 -0.15178066
0.06285237 0.04990532 0.09603236 0.08553859 0.0024071953 -0.17237237 0.09184239 -0.0057330104
0.030583702 -0.052360773 -0.2199826 -0.037092756 0.043932877 0.31627375 0.053269636 -0.055915948
-0.0956952 0.081883565 0.4080484 0.18176097 -0.12882999 -0.024382625 0.06999979 -0.036520146
-0.14349417 0.23518296 -0.31448576 -0.056305185 -0.20598128 0.07273846 -0.1176001 -0.04729891
0.033736266 -0.09389383 0.07562846 -0.05789826 -0.03760453 0.22351566 0.0050956337 0.040629838
-0.14830127 0.09938341 0.064419016 0.253015 -0.069078974 0.0006786187 -0.13245574 -0.053514104
0.08080256 0.18933883 -0.17697209 -0.035160646 -0.14893 0.038334336 -0.4257559 0.0060989126
-0.24087064 0.18334736 -0.16488503 0.010888258 -0.0017516272 0.009891363 0.011619433 -0.03948468
-0.0014902777 -0.116872884 0.11006406 -0.04589686 0.12755816 -0.14488919 -0.042990923 -0.039373334
0.09116878 -0.055305965 -0.13260174 0.15133776 0.15232179 -0.08040893 -0.2050673 -0.0375393

total_net.1.net.0.fc.bias f4 [64]
00000000: f269 5b3e 4be9 013e 26a0 3abf bfc9 133d
00000010: 576b 52be c73b 783e c7b8 b03e 2432 c93c
00000020: 7e77 e2bd cce7 5b3e 50c2 e4be 869e 37bf
00000030: a8cb 86be d240 c13d b487 19bf f496 603e
00000040: 8a9c 123c 1d1f 15bf 6d81 e23c fb69 f73d
00000050: 5525 09bf 028f 21bf a8f7 a93d b20b be3d
00000060: 75e0 4dbe e0ef 5cbf 5395 8cbe 4e9c afbe
00000070: 2e0f 1bbf e8e6 a13d 2fd8 c8bc 0104 b0bd
00000080: 8cdf 663e baf5 01bf 1b7d c7bd 4b33 07bf
00000090: 0656 55be 5fc0 c6bb 7034 9c3a 3077 08bf
000000a0: e520 16bf dd0e 5bbd 1071 03bf da9d 1abf
000000b0: 6810 5bbe 58e8 87bd b65d 873e 16ed 683e
000000c0: f491 a73c 5492 c63d 492e 9d3d e97f f2be
000000d0: 18da 023d d697 4ebe 9580 a1be a14a a73d
000000e0: fb16 25bf bce0 a6bc c03e d6be d1c0 22ba
000000f0: 83da e13d b8a5 3b3d daea e63d 3a74 163e
0.21427134 0.1268665 -0.7290062 0.036081072 -0.2054876 0.24241553 0.34515974 0.024560042
-0.110579476 0.21475142 -0.446795 -0.7172626 -0.26327252 0.094361916 -0.5997269 0.21932584
0.008948455 -0.582506 0.027649606 0.12080761 -0.5357259 -0.6310884 0.0829919 0.092795745
-0.20105155 -0.8630352 -0.27457675 -0.3429894 -0.6057004 0.0790537 -0.024517147 -0.08594514
0.22546214 -0.50765574 -0.09740659 -0.5281264 -0.20833597 -0.006065413 0.0011917483 -0.53306866
-0.58643943 -0.05348097 -0.51344395 -0.6039711 -0.21392977 -0.06636113 0.26438683 0.22746691
0.020455338 0.096958786 0.07674844 -0.47363213 0.03194627 -0.20175108 -0.31543413 0.08168531
-0.6448819 -0.020370834 -0.4184475 -0.00062085415 0.11028006 0.04581234 0.11275263 0.14692774

total_net.2.net.0.fc.weight f4 [32, 64]
00000000: 6248 c13e fd14 bbbd 133e 1b3e 404b 653e
00000010: acc4 2f3d 6f19 6c3d 95b0 263d 3e39 62bc
00000020: 7195 b13d afae 4b3d 2782 d5bb 75b8 103e
00000030: f8f7 2f3d c6b3 00be bf5c 843d 4779 1fbd
00000040: 7bbc 0d3c 6bdd 173d 524a a13c f7fa c83d
00000050: 94af 283e 0e24 ac3e 6bfe 9abd d13a 82bd
00000060: 6835 9b3d 9811 ca3e cdc2 8f3d c0cc 0f3d
00000070: 56e1 533e 3a75 06bc 55fe 013e 5d43 af3d
00000080: 147e a2bd 4abd 8d3c fab5 c6bd 5812 99be
00000090: 03d4 4fbd 692b c53c 5e98 53be 1f75 14bc
000000a0: adc8 28be 57c1 bebd f04c 1cbd a222 843e
000000b0: 773b 19bd 6ee0 8d3e 0f5e 6f3c c44a ec3d
000000c0: eb14 0bbd 3cef d1bd e08e 8ebe 1d5a 543d
000000d0: e812 6a3c 1be6 d13d 90f6 003e 76ae 0a3e
000000e0: bd3a 9abe 2f52 aebe 1a97 6abe 5f18 6f3e
000000f0: 7ff4 babb 8998 573d 34ee 80be 3e8c 28be
00000100: 9da0 11bd d713 8d3d d63e e63e dd90 5cbe
00000110: cd08 85bd d4d7 ed3b c34f a03d d4d8 bf3d
00000120: 6ff1 d73c 2608 c4bd 2251 873e 01b9 5fbe
00000130: e77f 25be 9e87 8b3e 0686 093e a843 e0bd
00000140: 2a88 3d3e a256 d33d ca36 ccbc a68a a3bc
00000150: 6109 debd 2bfe 823c b37a 9d3d 2fe0 4f3e
00000160: 8935 b13d f85a 2ebe ab3b 7d3e dd2d a33e
00000170: ede2 8d3d 833e 653d 9510 973d f737 14bd
00000180: dd23 a63d 53e9 483e af8f f93c 7385 ac3c
00000190: ec97 603c cb2c 2abd 4982 b23d e976 c03d
000001a0: e829 aabd df62 14be bc08 ca3e 7b45 44be
000001b0: efa1 83bd d804 123e 8257 453e 3b61 c4bd
000001c0: 9cb6 5bbd 299b 55be b5e6 e8bd 50e1 693e
000001d0: 734f 00be 6a36 893d 54d7 2c3d b1ae a23d
000001e0: 94d1 f7bc 70bb 2c3d 45b8 2bbe d595 adbc
000001f0: 3c33 4abd 3bc6 05be 09c8 3f3e 6fb4 4bbe
00000200: 6663 673c 0095 d5bc 27e4 0dbe 3847 24be
00000210: 3da3 b53c fd67 26be 4ac3 023e ec7e a03e
00000220: 3245 4d3e 4b7d 803e e5d2 08be 52f2 18bd
00000230: 01e1 c43d 9a39 8b3e aa3e 0d3d ce50 f3bd
00000240: da3f 8bbd 1913 0c3f 3981 c83d 2874 a3be
00000250: 3d73 ce3a 85bc 5dbe 6653 bebd d444 e6bd
00000260: d250 133c f89f 4abd d3ca 053e 02f2 f83c
00000270: ede8 e5be 9832 89bd cdad b9b7 7b9b 373e
00000280: 2d58 c0bc 1aee 8ebe d179 8bbb 6f7b 14be
00000290: 28a0 f8bc 5208 d0bd 79f9 b53d 3504 3f3e
000002a0: 0794 923e 0dcd c73e 5fda be3e 6d6b a13c
000002b0: 267e 373e cb96 3c3e 2bea f0be aea1 b4bd
000002c0: 8d06 ff3d 2506 82bd 2e27 67bd 7d20 a63d
000002d0: 0935 69bc 85da d6bd 2483 2cbe 7724 643d
000002e0: 78cc 25bf a439 193d 1da6 b3bd da9b 88bd
000002f0: 93fe abbb 1adc 03be a50b 2abe 14fd 0ebd
00000300: d316 efbd 5635 af3d 2e2f a4bd ae00 37bc
00000310: 9c87 3f3e 22be efbd 55dc 0cbe 87d3 1abe
00000320: 0ec9 363e c456 403e 3f5a 833e d35d 0e3e
00000330: 4b70 b13d ee84 3ebd 66c0 1a3f a571 24bc
00000340: ba42 dcbc aad8 f33d 2a8d 473c 389a abbd
00000350: a857 903f 6197 7fbd 783d 743d 9ba0 b8bc
00000360: f008 27be b203 5c3d 2f54 283d 4160 763e
00000370: 1e25 12be 3bf6 8f3c fb81 1e3e 9896 0dbc
00000380: c3bd 6dbe 56e4 40be a9f9 c93c c40e bc3e
00000390: 8474 05be afc9 73be c4ac 6f3d 8344 733e
000003a0: 66f2 513e 3f43 103d 81c8 a23e 07bf c43e
000003b0: dc8b be3e d65e e33d 3f0e 09be 878e d63c
000003c0: 08a6 f2bd 84b5 103e bb8d 4cbe 6fc4 f9bd
000003d0: d384 593d fc90 173e e528 0d3e 0fe8 8cbc
000003e0: 6bf4 dabd e928 29be b816 81bd f402 f2bc
000003f0: 70e2 3b3e f3d9 67bd e7ae 3ebd 2077 043d
0.37750536 -0.091348626 0.15160398 0.22391987 0.04291217 0.057641443 0.040695745 -0.013807593
0.08671082 0.049727138 -0.0065157595 0.14132865 0.04296109 -0.12568578 0.064630024 -0.03893402
0.008650894 0.037076395 0.019688759 0.09813493 0.16473228 0.33621258 -0.075680576 -0.063588746
0.07578546 0.39466548 0.07019577 0.035107374 0.20691428 -0.00820666 0.12694676 0.085577704
-0.07934204 0.017302174 -0.09702678 -0.29896808 -0.0507393 0.024068551 -0.20663592 -0.009061127
-0.16482802 -0.093142204 -0.03815931 0.25807673 -0.037410226 0.2771029 0.014609828 0.11537698
-0.033955496 -0.102507085 -0.2784338 0.05184375 0.014286734 0.10248967 0.12594056 0.13543114
-0.3012294 -0.34047076 -0.22909203 0.2334914 -0.0057054157 0.052635703 -0.25181735 -0.16459748
-0.035553563 0.0688855 0.44969815 -0.21539636 -0.06495819 0.0072583947 0.07827713 0.093675286
0.026360242 -0.09571867 0.26429087 -0.21847917 -0.16162072 0.27251905 0.13430032 -0.109504044
0.18508974 0.10319258 -0.02492847 -0.019963574 -0.10841633 0.015990337 0.07689419 0.20300363
0.08652789 -0.1702689 0.24729793 0.31870928 0.06928048 0.05596782 0.0737621 -0.036186185
0.08112309 0.19620256 0.030464021 0.021059727 0.013708096 -0.041546624 0.08716256 0.0939768
-0.08308774 -0.14490841 0.3945979 -0.1916713 -0.06427371 0.1425966 0.19271663 -0.09588858
-0.053640947 -0.2085997 -0.11372129 0.22839856 -0.12530307 0.06699832 0.04219754 0.07943476
-0.030251302 0.04217094 -0.16769512 -0.02118961 -0.049365267 -0.130639 0.18728651 -0.19893049
0.0141228195 -0.026072025 -0.13856564 -0.16042793 0.022172565 -0.16250606 0.1276981 0.31346834
0.20045927 0.2509559 -0.133617 -0.03734047 0.096132286 0.27192384 0.03448359 -0.11880647
-0.06799288 0.5471664 0.09790272 -0.31924558 0.0015750896 -0.21653946 -0.09293251 -0.11243597
0.008991437 -0.049468964 0.13065653 0.030388836 -0.4490427 -0.06699103 -2.213465e-05 0.17930405
-0.023479545 -0.27916032 -0.004256465 -0.14500211 -0.030349806 -0.10157837 0.08885474 0.18653949
0.2862856 0.3902363 0.3727598 0.019704545 0.17919216 0.18416898 -0.47053656 -0.088199005
0.12452421 -0.06348828 -0.05643385 0.081116654 -0.014233836 -0.10490898 -0.16846901 0.055698838
-0.6476512 0.037408486 -0.08771918 -0.06670351 -0.0052488535 -0.12876931 -0.16606005 -0.034909323
-0.11674275 0.08555095 -0.08016811 -0.011169596 0.18704075 -0.11706187 -0.13755925 -0.15119754
0.17850134 0.18783098 0.2565479 0.13902979 0.08663996 -0.04651349 0.60449827 -0.010036861
-0.026887286 0.1190656 0.012179652 -0.08379024 1.127675 -0.062400226 0.059628934 -0.02253752
-0.16312003 0.05371446 0.04109591 0.24060155 -0.14271972 0.017573467 0.15479271 -0.008641861
-0.2321692 -0.18837103 0.02465518 0.36730015 -0.13032728 -0.23807405 0.05851437 0.23756604
0.20502624 0.03522038 0.31793597 0.38426992 0.3721608 0.11102073 -0.1338434 0.02619101
-0.11848074 0.14131743 -0.19975941 -0.1219567 0.053105187 0.14801401 0.13785131 -0.017200498
-0.1069115 -0.16519512 -0.063031614 -0.029542424 0.18348098 -0.056604337 -0.04655352 0.03234017

total_net.2.net.0.fc.bias f4 [32]
00000000: 65b2 d0bd 0958 0dbe 1198 87be d257 23bf
00000010: c515 57be 7b30 adbd a13b fb3d 1c00 1e3d
00000020: 5052 18bf f238 8b3d 694b 1cbf c152 19bd
00000030: 14ba e2bd ea0c cd3d 1e07 82bc 5d76 453d
00000040: bd4f 22bd 9bf9 2ebf 0990 28bf ccb4 293c
00000050: 035e 77bd 4a88 16bf da13 b5be a2a9 303c
00000060: ea23 3cbf 255e fd3c 72df 11bf 51ae 96be
00000070: a014 1ebf 71c4 38bf ccce ecbe 5259 fabd
-0.10190276 -0.13803114 -0.26483205 -0.6380588 -0.21004398 -0.084565125 0.12267233 0.038574323
-0.595006 0.06797971 -0.61052567 -0.037432436 -0.11070648 0.10012229 -0.015872534 0.048208583
-0.039626826 -0.6834962 -0.6584478 0.010358047 -0.06039239 -0.5880171 -0.35366708 0.010782631
-0.734923 0.03092868 -0.56981575 -0.29429868 -0.6175022 -0.72174746 -0.46251523 -0.12224068

total_net.3.weight f4 [3, 32]
00000000: 8ff3 ef3c d844 18bc 84ad d1bc 5623 cdbc
00000010: 1a5c 5abc 9371 0e3c c9d4 373c 9783 76bc
00000020: fb54 0ebd af1c e83c 5da9 5ebd 2edd bc3d
00000030: 471d 9c3c 7cdd f23d ed43 1e3e cddf 863d
00000040: 0bd7 bb3c 7942 dabc a9bb fe3c 9bb4 d53c
00000050: 5838 34bd 2f10 403c 3969 243d 7d06 68bd
00000060: 4631 043d 61ca 8fbd 8d43 a73c b4e8 0f3d
00000070: 2b0b 0a3d c444 9a3c 626e 09bd 50d3 14bd
00000080: 434b 943c 5f63 afbc 0507 e53c 0bc5 823c
00000090: 8636 863d f221 d43b a7e1 eebc 18b1 7f3d
000000a0: 51f6 dcbc 47b7 d83d 6da2 273c 8245 ae3d
000000b0: e842 0fbd b209 343c 25e1 083e a5d0 20bd
000000c0: a39c 0cbd b8fe 8b3d b96d 333d 44f4 e1bd
000000d0: ef2b 373b a3e4 23bd d6d1 5d3b d8be b4bb
000000e0: eafa 403d 7c4b 32bd 0822 41bd b9d7 a6bc
000000f0: 1787 58bd 49a1 863d b160 64bc 2c95 17bb
00000100: 873c 0dbc cae5 94bc 52d7 083b d3f9 343d
00000110: 93d2 923b 5303 a6bc cc0e aebc e505 963d
00000120: f929 f9bc 9c4b db3b 99f2 c3bc 5820 13be
00000130: 0a6a 573b 07e8 27bd 412a c4bd 6946 973d
00000140: b254 b2bb 5594 43bd 6a4e dabc 0237 12bc
00000150: 234f 02bc 8f53 273c 9c98 f5bc 22b3 f1bd
00000160: 6e32 db3c c5be 9a3d 079e 173d 67bb 3bbc
00000170: 6438 c93b 4f36 393d d313 393d 7882 6abc
0.029290942 -0.009293757 -0.025595434 -0.025041264 -0.013327623 0.00869407 0.0112201655 -0.015046022
-0.034749012 0.02833399 -0.054360736 0.09221874 0.01905693 0.11858651 0.15455599 0.06585655
0.022929689 -0.026643025 0.031095343 0.026087096 -0.043999046 0.0117226085 0.04013941 -0.056646813
0.032273553 -0.070210226 0.020417953 0.035134032 0.033702057 0.018831618 -0.033552535 -0.036334336
0.018102294 -0.021409689 0.027957449 0.015963098 0.06553368 0.006473773 -0.029160334 0.06242475
-0.026972922 0.105818324 0.010231596 0.08509351 -0.034975916 0.01098864 0.13367136 -0.03926148
-0.034329068 0.06835693 0.04380581 -0.11032918 0.002794977 -0.040012967 0.0033846996 -0.0055159144
0.04711429 -0.04352902 -0.047151595 -0.020366536 -0.052863207 0.065737315 -0.013939069 -0.0023129685
-0.008620388 -0.018175978 0.0020880294 0.044183563 0.004480669 -0.020265257 -0.02124729 0.07325343
-0.030415522 0.006692363 -0.02391939 -0.14367807 0.00328696 -0.040992763 -0.09578372 0.073864765
-0.0054422254 -0.047748882 -0.026648719 -0.008924248 -0.007953438 0.010212793 -0.029979996 -0.11801745
0.026757445 0.07555918 0.03701594 -0.011458254 0.0061407555 0.04521781 0.04518492 -0.014313333

total_net.3.bias f4 [3]
00000000: 6cd5 a1bd c0e0 aa3d 3df5 eb3a
-0.07902035 0.08343649 0.0018002164

weight f4 [128, 15]
00000000: 3b02 09be 2847 69bd 6c33 85bd 81e2 4a3c
00000010: 4055 293d 1492 26bd 4f06 083e bdbd 573e
00000020: 8a26 8abd 4578 00bd 6bb1 c73d 6670 a5be
00000030: ae70 253f 4295 053f 996b 2cbf a020 0bbd
00000040: ffe4 98bd dbcb e43d 0a83 473e e3ed 3dbe
00000050: d259 cabc fc04 ef3d cf13 cfbe 0c86 dfbe
00000060: d0e4 6e3e c691 b63d eeae e53d 628e 093c
00000070: 1e38 b4be a931 11bf a3ba adbd 9d38 a13f
00000080: 36a8 6dbd 3703 61bd 80d8 40bc aa95 823c
00000090: 1780 c63b be83 e0bd 87a0 23bd 3936 d7bd
000000a0: 991f 5ebd 8f7b 60bd 0815 783e 0d64 ad3e
000000b0: 82bf 823e 8c25 95bd 3495 d93b 5bc0 35bc
000000c0: a3e7 3bbd 753b 29bc 4c83 5b3d 60b0 8a3f
000000d0: da5c e1bd 60b2 bbbc 6d1e 2ebd 1d16 3ebc
000000e0: dc67 c5bd 1eab 813e 005a 19bd a8ec 2dbe
000000f0: 9a4a e1bc 8be2 c7bd 45fe 243f b057 86be
00000100: 851a b1bc a62c e53c 0abf 9c3c d1b4 dfbd
00000110: 058d f7ba a693 cdbd ff88 9e3d 1128 fa3d
00000120: 867a a03e 1a00 793f b5d0 173e 9741 f1bd
00000130: bc0b 89bd 0900 973d de84 4dbe d8ea 3f3e
00000140: 730c 043e 5112 80be 3eb6 e83d ea3c eb3d
00000150: 47e3 d4bd 1454 7ebd 5946 a33d 41b9 833e
00000160: 5d83 82bf c1e7 793d 8aed 5c3e 5d05 28bd
00000170: 4b3a 00be 831d 2fbe 3e42 9abd 732d 7c3d
00000180: e474 dbbe 5b0d 11be 9187 b93d 9b3c 563e
00000190: 5ce0 053e aab8 acbd 15ba 85be 4c22 2f3c
000001a0: 54c8 91bf c77c 883e 9871 c5bb 9155 d13d
000001b0: ba31 bebd 8452 edbd e43b b13e 43d8 c2bd
000001c0: 8dfb 5d3b 0231 38bf dda8 8e3d b775 fbbd
000001d0: 175f c33b 83c1 493f 3ccb 29bb d711 733e
000001e0: ce32 c23d 477d 79ba b4e0 02bd 5f72 7dbd
000001f0: cc92 e13d 00e7 75bf c3f0 6d3c 0ac6 963c
00000200: 89cd 24bc 6fa4 4b3d 6666 9a3b 893c 8c3d
00000210: 8a61 553e a38f b9be 31c6 2b3d 1198 923e
00000220: 4c96 15bf cc82 68be a93c 5d3b 40e1 a63d
00000230: 0c07 6c3e 9220 b83d bf60 4b3e e13b 2b3e
00000240: 7390 44bd 3ce1 15be 2097 033c ed62 8c3e
00000250: daaa c93e a257 bb3e 2b1e c5bd d7ff 7d3e
00000260: 87a5 b23e e7aa 103e 10d0 a2bb 39e0 053d
00000270: b66c ae3d 9701 17bd d6c2 35bf 20ee 65be
00000280: ca3a adbd ca63 8d3e 3f39 d6be 36cd d53e
00000290: 9790 b6bd 7548 3bbc 0f35 5dbb de2a 2dbe
000002a0: 92d5 a6bd 1673 293f a991 a137 7ed4 71bb
000002b0: 2a16 873b 628b c43d 763e 05be 3ce5 e9bd
000002c0: fde7 91be ed1a 053d cb42 5fbf fce5 19be
000002d0: 1413 8abc a047 933e 30eb 4b3f 8ee4 a0be
000002e0: 65d0 5d3e fd0a 6fbe 3509 303e b450 1a3e
000002f0: 2dc3 91be 00fe 103d 240d 5ebe 7256 a9bd
00000300: 6c4b b4bd ab2a e73d 6ffd a73c b458 c33c
00000310: c48d 803d 4163 343d ff2f dc3c 21b1 60ba
00000320: 7eb1 4f3c 1b1d e63d be32 86bf f7d2 953d
00000330: 824a 3dbd 31a7 1ebb d563 a03c 7f81 be3c
00000340: d009 263e 774d 15be 0bde 323e 4f98 ad3d
00000350: 2794 a5bd d84b 233e f11a b5be c220 9ebd
00000360: 5630 ac3e d851 a1be 88a5 a23d b847 0f3e
00000370: 4deb acbe 08c7 9d3d e6fe a33e d65b 8fbf
00000380: c562 fabc 8159 09be 3e49 3abe 750d 8dbe
00000390: 20c5 b3bd d8b7 3f3e 0192 b53d 1b6d a0bd
000003a0: d098 a83d 1381 823e 6176 47be e3ce a1bd
000003b0: 5584 c5bc 67be 0d3d f5c2 7f3f 7676 f5be
000003c0: 98ce 2c3d e0d1 7d3e f489 91be fbe7 1a3b
000003d0: a2ec abbe cb47 d93d 9826 4b3c 6a96 8b3c
000003e0: cf13 30bd 9e3d 13be 02dc cf3e 1dac 1a3e
000003f0: 3387 cebe df47 42be d272 c1bc fd90 b2bd
-0.13379757 -0.056952626 -0.065039486 0.012383104 0.041341066 -0.040666655 0.13283657 0.21068473
-0.06745632 -0.031364698 0.09750637 -0.32312316 0.6462506 0.52180874 -0.6735168 -0.03396666
-0.074655525 0.11171695 0.19483581 -0.18547778 -0.024701033 0.116708726 -0.404448 -0.43656957
0.23329473 0.08914523 0.11215006 0.008395763 -0.35199064 -0.567164 -0.08482864 1.2595402
-0.058021747 -0.054934707 -0.011770368 0.015940506 0.00605775 -0.10962628 -0.039948013 -0.10508389
-0.054229353 -0.054805335 0.24226773 0.33865395 0.25536734 -0.07282552 0.006640101 -0.011093224
-0.045875203 -0.010329117 0.05359201 1.0835075 -0.11004038 -0.022912204 -0.042509485 -0.011601952
-0.0963895 0.25325865 -0.037439346 -0.16984808 -0.027501393 -0.097600065 0.64450485 -0.26238775
-0.02161909 0.027975392 0.019134063 -0.1092316 -0.0018886632 -0.10037927 0.07740974 0.12214673
0.31343478 0.9726578 0.14825709 -0.117800884 -0.06691691 0.073730536 -0.20070216 0.1874193
0.12895374 -0.25013974 0.11362885 0.11486228 -0.10394912 -0.062091902 0.07972402 0.25727275
-1.0196339 0.061012033 0.21574989 -0.04102074 -0.12522237 -0.17101102 -0.07532166 0.06156678
-0.42862618 -0.14165251 0.0905906 0.20921557 0.13073868 -0.084336594 -0.26118532 0.010689329
-1.138926 0.26657698 -0.0060255043 0.102213986 -0.09286828 -0.11588004 0.34616005 -0.09513905
0.003387186 -0.7194978 0.06965802 -0.12278312 0.0059622633 0.788109 -0.002590849 0.23737274
0.094823465 -0.0009517264 -0.031952575 -0.06187665 0.110143274 -0.96055603 0.014522734 0.01840498
-0.010058769 0.049717363 0.004711914 0.06847484 0.2083799 -0.362424 0.041937057 0.28631642
-0.5843246 -0.22706145 0.003375808 0.08148432 0.23049563 0.08990587 0.19861124 0.1672206
-0.04798932 -0.14636701 0.0080316365 0.27419224 0.39388162 0.36590296 -0.09624895 0.24804626
0.34891912 0.14127694 -0.0049686506 0.03268454 0.08516829 -0.03686675 -0.7100042 -0.22454119
-0.08458479 0.27615196 -0.4184055 0.41758126 -0.08914297 -0.011430849 -0.003375355 -0.16910884
-0.08146204 0.6619123 1.9260524e-05 -0.0036900337 0.004122515 0.09596898 -0.13012108 -0.11420676
-0.28497306 0.03249638 -0.87211293 -0.15029138 -0.0168548 0.28765583 0.7965574 -0.31424373
0.21661527 -0.23344035 0.17191012 0.15069848 -0.2846922 0.035398483 -0.216847 -0.08268441
-0.08803448 0.11287435 0.020506589 0.023846008 0.0627704 0.04403997 0.026878355 -0.0008571316
0.012676595 0.1123602 -1.0484235 0.07315629 -0.046213634 -0.002420854 0.019578854 0.023255108
0.1621468 -0.14580332 0.17467515 0.08476316 -0.080848984 0.15946901 -0.35372117 -0.07721092
0.33630627 -0.31507754 0.07941729 0.13992202 -0.3377327 0.07703978 0.3203041 -1.1199901
-0.030564675 -0.1341305 -0.18192002 -0.2754933 -0.08777833 0.18722475 0.08865739 -0.0783331
0.08232272 0.254891 -0.19478752 -0.07900789 -0.024110952 0.03460541 0.99906856 -0.4794194
0.04218921 0.24787092 -0.28425562 0.0023636806 -0.33578974 0.106093965 0.012399338 0.017039496
-0.04298764 -0.14378974 0.4059754 0.15104719 -0.40337524 -0.18972729 -0.02361432 -0.087190606

bias f4 [128]
00000000: b685 c2be 9628 abbe b5a6 703e a8b9 b03e
00000010: 9e87 d8be f9b0 52be 19f8 bbbe 49ed f83c
00000020: 8b55 583e 57e0 fabd cee1 20be 7ed9 abbd
00000030: 47ca 7cbd 196e 053f 7108 5b3d c49c 96be
00000040: 1bcb bd3d d919 af3e 5ed4 803b 4c17 04bc
00000050: 6a2c eabc b89b 02bf cd08 77be 8662 cd3e
00000060: 0375 db3d ac08 37be 7a23 b9be 221c c33e
00000070: 300e d5be 0d07 963e 782a 0b3f 97de 813e
00000080: bc32 a3bd ac6a 7f3e 0045 f23e f6d5 cf3e
00000090: 1cf1 ea3d 92da 3b3e 0efc df3e 46e4 613e
000000a0: a492 463e f577 e13d be94 5ebd c55e 743e
000000b0: 1d9b 8f3d 0e58 61bd e37a 043f 1bff 333e
000000c0: 30ee e03e 0820 fa3e 067a b03b 217f 6b3d
000000d0: ce7a 1d3e 8d01 b5be 49be a5bd ce46 d7be
000000e0: 34bb ca3e 316a db3c 79fc 51bd f05b 153d
000000f0: 4a7c fdbd 88d2 0cbf 4f3f e3bd 8ecb 65be
00000100: bc7f 0cbf b806 813f 349e 4bbc 18ba ee3d
00000110: cf3b 513e 7d93 e33c 0011 f33d f800 41be
00000120: 9ec6 f33e dce7 b03d 2c31 2c3c 632b e43d
00000130: 45d5 f7be a392 03be 6336 f5be ff86 9c3e
00000140: 6eb0 4ebc 4347 9f3d cc88 e63d ca2c 9abe
00000150: 2365 a13e 9bd3 92be a896 da3d 1c79 b93e
00000160: 9b31 d2bd 0f26 563e 6582 4e3e 0a8d 003f
00000170: eee6 18be 8826 18bd a9d2 ee3c 1eab 95be
00000180: 3c1d cb3a 5a97 163f 65fb a0be 7a31 28bc
00000190: 85ad e33e fcaf f5bd 19f8 243d b78a d13d
000001a0: 4dd5 0bbe 9539 523d dd96 d3bc dd72 813d
000001b0: 439d 023f aacd 903c 5ca7 45bb afb6 8f3e
000001c0: fb70 9abe 030a 31be 479b 02bf b995 3bbe
000001d0: 1e15 5e3e 0817 bf3e 5ca9 c33e c0cd 62bd
000001e0: b4e9 353f 308d 8f3e d2e4 f5bd f1a0 80be
000001f0: f36e 793e 7970 96be 5c76 ab3d b0fa fa3c
-0.37992638 -0.33429402 0.23501094 0.34516644 -0.42290968 -0.20575322 -0.3671272 0.030386584
0.21126382 -0.12249821 -0.15711138 -0.08391093 -0.061716344 0.5212112 0.053474847 -0.29416478
0.09267255 0.34199408 0.003931566 -0.008062195 -0.028585631 -0.5101886 -0.24124451 0.4011423
0.107156776 -0.17874402 -0.3615988 0.381074 -0.41612387 0.29302254 0.5436168 0.25365135
-0.07968661 0.24943036 0.47318268 0.40592927 0.11471769 0.18345097 0.4374699 0.22059736
0.19391876 0.11009208 -0.05434107 0.23864277 0.070120074 -0.055015616 0.5175001 0.17577784
0.43931723 0.48852563 0.00538564 0.057494286 0.15378878 -0.35352746 -0.08092935 -0.42046207
0.3959595 0.026784034 -0.051266167 0.03646463 -0.12377222 -0.55008745 -0.110960595 -0.22440931
-0.5488241 1.0080175 -0.012427855 0.11656588 0.20432971 0.027780289 0.11868477 -0.18848026
0.4761247 0.08637974 0.01050977 0.11141088 -0.484049 -0.12848906 -0.47893056 0.30571744
-0.012615306 0.07777264 0.11256561 -0.30112296 0.31522474 -0.28677067 0.10673267 0.36225212
-0.10263368 0.20912956 0.20166929 0.5021521 -0.14931843 -0.03714612 0.029153185 -0.29232115
0.0015496383 0.58824694 -0.314418 -0.010265702 0.44468322 -0.11996457 0.040275667 0.10231536
-0.13655587 0.051324446 -0.025828773 0.063207366 0.5102121 0.017676193 -0.0030159568 0.28069064
-0.30164322 -0.17288975 -0.51018184 -0.18318833 0.21687743 0.3732226 0.38215148 -0.055372
0.7105973 0.28037405 -0.12006535 -0.2512279 0.2435873 -0.29382685 0.08372185 0.030637115

weight f4 [64, 128]
00000000: 8baf da3d 0c39 13bd c414 0bbd e775 663d
00000010: 9f08 96be 89b7 2cbd 9fbe 05bd 9b9c dc3d
00000020: 1672 d03d 0bf1 08bc d0c9 f33c 4a5d 46be
00000030: d5fb bdbd a967 513d 8f87 1ebe b909 a13d
00000040: 3c6c cdbd 7605 a83d ad08 09bd ee82 013e
00000050: 1818 a1bd 0b0b 873a 4e85 05bd 99bd bebb
00000060: fb7d 9ebd 236b 81be e97c 25bd b4e4 4b38
00000070: 0c09 963b 81f6 933a 43cc 453c fc7a 88bd
00000080: cc23 913c 6185 763d f91c e03d 22da 74be
00000090: 2f32 383e 8e12 91bc 165f c0bc 782f 41bc
000000a0: 9707 e6bd 3fe6 4c3e 5d52 7a3e fd69 30be
000000b0: 45a8 f13d d98c a9bd 904b 30be b7bf 793e
000000c0: d7b6 543e 3052 993e bfb8 ee3d 076e 3b3e
000000d0: 6f02 643e 7b1c ce3c e8b6 463b 5dcb 06be
000000e0: e404 3a3e 1a79 74bd 5da0 c7bd 760f 373d
000000f0: 954b cc3d f291 bf3d 670d ffbd 6eb0 09bb
00000100: 11e3 f33c 3161 e43d 9bc0 3e3e ef0c 173e
00000110: 4ec3 35bd 59ec ea3d 5a6b 99bd ccb7 dcbd
00000120: 6eae 14be a0c6 aa3e 7fe2 883d ce3f 6d3d
00000130: 7116 753d 4c73 39bd 01ae fb3d daba 313e
00000140: e313 643e 436c 2c3c 70e4 8a3c f2a1 47bc
00000150: ddce af3c c53f f3bd 5547 793c a08b 983c
00000160: 3de8 a93d 159e 72bd 11b8 fdbc aca3 0d3e
00000170: 7e3a 84bd c82c 4bbe 7de9 11be 6dc5 0e3e
00000180: f7e4 363c d7f4 e03d 93c8 0b3c 6d46 7c3e
00000190: 993a e73d a8bb 7bbd 2f4b e83d 97fc 8b3c
000001a0: 3c4e d93c 9ad3 f6bd 46c9 833d 9f95 9d3e
000001b0: 0d7b b73c 8d0d 953c 4e91 233e e18f 9a3e
000001c0: a6c7 aabd 2671 d4bd ff20 77be 9020 ac3e
000001d0: 9029 133c 859b 09bd 1b2c f9bd cdca b53d
000001e0: 3f98 3e3c f2aa 883d 999a 03be eb1d 6cbe
000001f0: faa0 7c3d b18c 70be cd46 4bbe 9559 383d
00000200: f5f4 89be 57b9 ccbb e626 b73c 3016 173e
00000210: c9d5 973d 0211 2c3e 04eb af3d 0322 25be
00000220: 061e bf3d 1c88 41bc a8a7 ad3d 4ce1 9b3b
00000230: c2d0 99be 7fb5 29bd 600c d13d 9208 a53d
00000240: 31aa 6e3c befe 953e e251 00bd 287e 8a3d
00000250: 1f4b 2c3e 54c7 17bd 879d 953d 2d79 e6bd
00000260: 98ed 5c3e 7a53 413b 9ee7 cdbd c0d7 313e
00000270: d3cc 9f3d 8d15 63be 8ab2 a33c 215f 713e
00000280: c5e7 0a3c ef79 00bf 7d55 303e 28a4 e2bd
00000290: aedd 933d 06ad 73be 2984 003e 5bc2 0d3d
000002a0: 1f87 abbd 57b9 0ebe 113e 87be 349f 3d3d
000002b0: 11b6 0abe f0eb 78be a1a1 1d3e 646c 1bbe
000002c0: beb8 803d 8569 4c3d 9dac c43d db2e af3d
000002d0: 09c2 1d3b 6282 30be dd17 bc3d fadb bbbb
000002e0: ac8a fa3c 4078 56bd 1e43 61be 93ee 17bd
000002f0: f6f2 333d a2ee a13e 4331 5a3d 1f08 65bd
00000300: d8fb c3bd 92b2 a73d b8eb d03e 8c1f 3a3e
00000310: 02ec 03be 12be c7bc 0d5c 8f3d 2696 15bd
00000320: 23f0 12be cdd3 703e 4704 a1be 44a0 66bd
00000330: c2ec 52be e7f7 943d 52d8 f0bd 80bc 41bd
00000340: 0a2f 0a3d 694b c0bd 18e3 9a3d ba26 6dbd
00000350: 3507 1abd 4ae1 643e 46f9 a63b 796b 263d
00000360: 4adc 17be 8789 cb3d 1eee 833d 2f8b 813e
00000370: 4779 8dbd 54e5 313a 7aa2 07be 9b31 5bbd
00000380: d07b a53d 0ae2 413e 2c38 35be 9c04 10bd
00000390: 1b81 18be 7704 1d3d adfc d9be 63d9 c73b
000003a0: cba6 76be 69bf 3b3e 9fd7 28be aa64 323c
000003b0: db96 e5ba 620f 223c 6f5f 3e3c b0ba 21bd
000003c0: 6c55 c3ba 0d5b efbd 4469 e13d 59fe 3bbd
000003d0: 9b9e 023e d55d 14be 4017 30bd ef45 21bd
000003e0: b3b6 ba3d 8288 62bd c0c8 07be 49f8 1a3e
000003f0: 3efa 1b3e 70ad a4bd 2afd 51be cfc2 19bd
0.106780134 -0.035943076 -0.03395535 0.056264784 -0.29303452 -0.04216722 -0.032652494 0.107720576
0.1017801 -0.00835825 0.029759318 -0.19371524 -0.09276549 0.05112425 -0.15481399 0.078631826
-0.1003041 0.082041666 -0.03345554 0.12647602 -0.07865924 0.0010302974 -0.032597832 -0.0058209416
-0.077388726 -0.2527705 -0.040402327 4.8611968e-05 0.004578715 0.0011288674 0.012072626 -0.066640824
0.017717265 0.060185794 0.10943026 -0.23911336 0.17987894 -0.017709043 -0.02348284 -0.011791103
-0.112319164 0.20009707 0.24445482 -0.17227931 0.11799673 -0.08278818 -0.17216325 0.2438954
0.20772873 0.29945517 0.11656331 0.18303691 0.22266553 0.025160065 0.0030321423 -0.13163514
0.18165928 -0.059685804 -0.09747384 0.04469248 0.09975354 0.09354009 -0.12453728 -0.0021009701
0.02977136 0.1115135 0.1862816 0.14751028 -0.04437571 0.11470861 -0.07491179 -0.10777244
-0.14519665 0.33354664 0.06683826 0.057922177 0.059835855 -0.04527597 0.12289048 0.17356434
0.22273211 0.0105238585 0.01695463 -0.012184607 0.021460945 -0.118773974 0.015214761 0.018621266
0.08296249 -0.05923279 -0.030971559 0.13831967 -0.06456469 -0.19841301 -0.14249225 0.139425
0.011162988 0.109841995 0.008531707 0.2463624 0.112904735 -0.06145826 0.11342465 0.017088218
0.026526563 -0.120520785 0.06434874 0.30778214 0.022397542 0.018194938 0.15973398 0.30187896
-0.08338861 -0.10373144 -0.24133681 0.33618593 0.008982077 -0.03359558 -0.121666156 0.08876572
0.011632978 0.0667323 -0.12851943 -0.23058288 0.061676957 -0.2349117 -0.19851227 0.045007307
-0.269447 -0.00624768 0.022357415 0.14754558 0.07413823 0.16803363 0.085897475 -0.16126256
0.093318984 -0.011812236 0.084792435 0.004757082 -0.30042082 -0.041432854 0.102074385 0.08058275
0.014566944 0.29295915 -0.03132809 0.06762344 0.16825531 -0.03705533 0.073054366 -0.11253581
0.2157501 0.0029499219 -0.10053943 0.17367458 0.07802739 -0.2217619 0.019982595 0.23571445
0.00847811 -0.50186056 0.17220111 -0.110664666 0.072200164 -0.23796472 0.12550415 0.03460918
-0.08375382 -0.13937889 -0.2641454 0.046294406 -0.13546015 -0.24308753 0.15393688 -0.15178066
0.06285237 0.04990532 0.09603236 0.08553859 0.0024071953 -0.17237237 0.09184239 -0.0057330104
0.030583702 -0.052360773 -0.2199826 -0.037092756 0.043932877 0.31627375 0.053269636 -0.055915948
-0.0956952 0.081883565 0.4080484 0.18176097 -0.12882999 -0.024382625 0.06999979 -0.036520146
-0.14349417 0.23518296 -0.31448576 -0.056305185 -0.20598128 0.07273846 -0.1176001 -0.04729891
0.033736266 -0.09389383 0.07562846 -0.05789826 -0.03760453 0.22351566 0.0050956337 0.040629838
-0.14830127 0.09938341 0.064419016 0.253015 -0.069078974 0.0006786187 -0.13245574 -0.053514104
0.08080256 0.18933883 -0.17697209 -0.035160646 -0.14893 0.038334336 -0.4257559 0.0060989126
-0.24087064 0.18334736 -0.16488503 0.010888258 -0.0017516272 0.009891363 0.011619433 -0.03948468
-0.0014902777 -0.116872884 0.11006406 -0.04589686 0.12755816 -0.14488919 -0.042990923 -0.039373334
0.09116878 -0.055305965 -0.13260174 0.15133776 0.15232179 -0.08040893 -0.2050673 -0.0375393

bias f4 [64]
00000000: f269 5b3e 4be9 013e 26a0 3abf bfc9 133d
00000010: 576b 52be c73b 783e c7b8 b03e 2432 c93c
00000020: 7e77 e2bd cce7 5b3e 50c2 e4be 869e 37bf
00000030: a8cb 86be d240 c13d b487 19bf f496 603e
00000040: 8a9c 123c 1d1f 15bf 6d81 e23c fb69 f73d
00000050: 5525 09bf 028f 21bf a8f7 a93d b20b be3d
00000060: 75e0 4dbe e0ef 5cbf 5395 8cbe 4e9c afbe
00000070: 2e0f 1bbf e8e6 a13d 2fd8 c8bc 0104 b0bd
00000080: 8cdf 663e baf5 01bf 1b7d c7bd 4b33 07bf
00000090: 0656 55be 5fc0 c6bb 7034 9c3a 3077 08bf
000000a0: e520 16bf dd0e 5bbd 1071 03bf da9d 1abf
000000b0: 6810 5bbe 58e8 87bd b65d 873e 16ed 683e
000000c0: f491 a73c 5492 c63d 492e 9d3d e97f f2be
000000d0: 18da 023d d697 4ebe 9580 a1be a14a a73d
000000e0: fb16 25bf bce0 a6bc c03e d6be d1c0 22ba
000000f0: 83da e13d b8a5 3b3d daea e63d 3a74 163e
0.21427134 0.1268665 -0.7290062 0.036081072 -0.2054876 0.24241553 0.34515974 0.024560042
-0.110579476 0.21475142 -0.446795 -0.7172626 -0.26327252 0.094361916 -0.5997269 0.21932584
0.008948455 -0.582506 0.027649606 0.12080761 -0.5357259 -0.6310884 0.0829919 0.092795745
-0.20105155 -0.8630352 -0.27457675 -0.3429894 -0.6057004 0.0790537 -0.024517147 -0.08594514
0.22546214 -0.50765574 -0.09740659 -0.5281264 -0.20833597 -0.006065413 0.0011917483 -0.53306866
-0.58643943 -0.05348097 -0.51344395 -0.6039711 -0.21392977 -0.06636113 0.26438683 0.22746691
0.020455338 0.096958786 0.07674844 -0.47363213 0.03194627 -0.20175108 -0.31543413 0.08168531
-0.6448819 -0.020370834 -0.4184475 -0.00062085415 0.11028006 0.04581234 0.11275263 0.14692774

weight f4 [32, 64]
00000000: 6248 c13e fd14 bbbd 133e 1b3e 404b 653e
00000010: acc4 2f3d 6f19 6c3d 95b0 263d 3e39 62bc
00000020: 7195 b13d afae 4b3d 2782 d5bb 75b8 103e
00000030: f8f7 2f3d c6b3 00be bf5c 843d 4779 1fbd
00000040: 7bbc 0d3c 6bdd 173d 524a a13c f7fa c83d
00000050: 94af 283e 0e24 ac3e 6bfe 9abd d13a 82bd
00000060: 6835 9b3d 9811 ca3e cdc2 8f3d c0cc 0f3d
00000070: 56e1 533e 3a75 06bc 55fe 013e 5d43 af3d
00000080: 147e a2bd 4abd 8d3c fab5 c6bd 5812 99be
00000090: 03d4 4fbd 692b c53c 5e98 53be 1f75 14bc
000000a0: adc8 28be 57c1 bebd f04c 1cbd a222 843e
000000b0: 773b 19bd 6ee0 8d3e 0f5e 6f3c c44a ec3d
000000c0: eb14 0bbd 3cef d1bd e08e 8ebe 1d5a 543d
000000d0: e812 6a3c 1be6 d13d 90f6 003e 76ae 0a3e
000000e0: bd3a 9abe 2f52 aebe 1a97 6abe 5f18 6f3e
000000f0: 7ff4 babb 8998 573d 34ee 80be 3e8c 28be
00000100: 9da0 11bd d713 8d3d d63e e63e dd90 5cbe
00000110: cd08 85bd d4d7 ed3b c34f a03d d4d8 bf3d
00000120: 6ff1 d73c 2608 c4bd 2251 873e 01b9 5fbe
00000130: e77f 25be 9e87 8b3e 0686 093e a843 e0bd
00000140: 2a88 3d3e a256 d33d ca36 ccbc a68a a3bc
00000150: 6109 debd 2bfe 823c b37a 9d3d 2fe0 4f3e
00000160: 8935 b13d f85a 2ebe ab3b 7d3e dd2d a33e
00000170: ede2 8d3d 833e 653d 9510 973d f737 14bd
00000180: dd23 a63d 53e9 483e af8f f93c 7385 ac3c
00000190: ec97 603c cb2c 2abd 4982 b23d e976 c03d
000001a0: e829 aabd df62 14be bc08 ca3e 7b45 44be
000001b0: efa1 83bd d804 123e 8257 453e 3b61 c4bd
000001c0: 9cb6 5bbd 299b 55be b5e6 e8bd 50e1 693e
000001d0: 734f 00be 6a36 893d 54d7 2c3d b1ae a23d
000001e0: 94d1 f7bc 70bb 2c3d 45b8 2bbe d595 adbc
000001f0: 3c33 4abd 3bc6 05be 09c8 3f3e 6fb4 4bbe
00000200: 6663 673c 0095 d5bc 27e4 0dbe 3847 24be
00000210: 3da3 b53c fd67 26be 4ac3 023e ec7e a03e
00000220: 3245 4d3e 4b7d 803e e5d2 08be 52f2 18bd
00000230: 01e1 c43d 9a39 8b3e aa3e 0d3d ce50 f3bd
00000240: da3f 8bbd 1913 0c3f 3981 c83d 2874 a3be
00000250: 3d73 ce3a 85bc 5dbe 6653 bebd d444 e6bd
00000260: d250 133c f89f 4abd d3ca 053e 02f2 f83c
00000270: ede8 e5be 9832 89bd cdad b9b7 7b9b 373e
00000280: 2d58 c0bc 1aee 8ebe d179 8bbb 6f7b 14be
00000290: 28a0 f8bc 5208 d0bd 79f9 b53d 3504 3f3e
000002a0: 0794 923e 0dcd c73e 5fda be3e 6d6b a13c
000002b0: 267e 373e cb96 3c3e 2bea f0be aea1 b4bd
000002c0: 8d06 ff3d 2506 82bd 2e27 67bd 7d20 a63d
000002d0: 0935 69bc 85da d6bd 2483 2cbe 7724 643d
000002e0: 78cc 25bf a439 193d 1da6 b3bd da9b 88bd
000002f0: 93fe abbb 1adc 03be a50b 2abe 14fd 0ebd
00000300: d316 efbd 5635 af3d 2e2f a4bd ae00 37bc
00000310: 9c87 3f3e 22be efbd 55dc 0cbe 87d3 1abe
00000320: 0ec9 363e c456 403e 3f5a 833e d35d 0e3e
00000330: 4b70 b13d ee84 3ebd 66c0 1a3f a571 24bc
00000340: ba42 dcbc aad8 f33d 2a8d 473c 389a abbd
00000350: a857 903f 6197 7fbd 783d 743d 9ba0 b8bc
00000360: f008 27be b203 5c3d 2f54 283d 4160 763e
00000370: 1e25 12be 3bf6 8f3c fb81 1e3e 9896 0dbc
00000380: c3bd 6dbe 56e4 40be a9f9 c93c c40e bc3e
00000390: 8474 05be afc9 73be c4ac 6f3d 8344 733e
000003a0: 66f2 513e 3f43 103d 81c8 a23e 07bf c43e
000003b0: dc8b be3e d65e e33d 3f0e 09be 878e d63c
000003c0: 08a6 f2bd 84b5 103e bb8d 4cbe 6fc4 f9bd
000003d0: d384 593d fc90 173e e528 0d3e 0fe8 8cbc
000003e0: 6bf4 dabd e928 29be b816 81bd f402 f2bc
000003f0: 70e2 3b3e f3d9 67bd e7ae 3ebd 2077 043d
0.37750536 -0.091348626 0.15160398 0.22391987 0.04291217 0.057641443 0.040695745 -0.013807593
0.08671082 0.049727138 -0.0065157595 0.14132865 0.04296109 -0.12568578 0.064630024 -0.03893402
0.008650894 0.037076395 0.019688759 0.09813493 0.16473228 0.33621258 -0.075680576 -0.063588746
0.07578546 0.39466548 0.07019577 0.035107374 0.20691428 -0.00820666 0.12694676 0.085577704
-0.07934204 0.017302174 -0.09702678 -0.29896808 -0.0507393 0.024068551 -0.20663592 -0.009061127
-0.16482802 -0.093142204 -0.03815931 0.25807673 -0.037410226 0.2771029 0.014609828 0.11537698
-0.033955496 -0.102507085 -0.2784338 0.05184375 0.014286734 0.10248967 0.12594056 0.13543114
-0.3012294 -0.34047076 -0.22909203 0.2334914 -0.0057054157 0.052635703 -0.25181735 -0.16459748
-0.035553563 0.0688855 0.44969815 -0.21539636 -0.06495819 0.0072583947 0.07827713 0.093675286
0.026360242 -0.09571867 0.26429087 -0.21847917 -0.16162072 0.27251905 0.13430032 -0.109504044
0.18508974 0.10319258 -0.02492847 -0.019963574 -0.10841633 0.015990337 0.07689419 0.20300363
0.08652789 -0.1702689 0.24729793 0.31870928 0.06928048 0.05596782 0.0737621 -0.036186185
0.08112309 0.19620256 0.030464021 0.021059727 0.013708096 -0.041546624 0.08716256 0.0939768
-0.08308774 -0.14490841 0.3945979 -0.1916713 -0.06427371 0.1425966 0.19271663 -0.09588858
-0.053640947 -0.2085997 -0.11372129 0.22839856 -0.12530307 0.06699832 0.04219754 0.07943476
-0.030251302 0.04217094 -0.16769512 -0.02118961 -0.049365267 -0.130639 0.18728651 -0.19893049
0.0141228195 -0.026072025 -0.13856564 -0.16042793 0.022172565 -0.16250606 0.1276981 0.31346834
0.20045927 0.2509559 -0.133617 -0.03734047 0.096132286 0.27192384 0.03448359 -0.11880647
-0.06799288 0.5471664 0.09790272 -0.31924558 0.0015750896 -0.21653946 -0.09293251 -0.11243597
0.008991437 -0.049468964 0.13065653 0.030388836 -0.4490427 -0.06699103 -2.213465e-05 0.17930405
-0.023479545 -0.27916032 -0.004256465 -0.14500211 -0.030349806 -0.10157837 0.08885474 0.18653949
0.2862856 0.3902363 0.3727598 0.019704545 0.17919216 0.18416898 -0.47053656 -0.088199005
0.12452421 -0.06348828 -0.05643385 0.081116654 -0.014233836 -0.10490898 -0.16846901 0.055698838
-0.6476512 0.037408486 -0.08771918 -0.06670351 -0.0052488535 -0.12876931 -0.16606005 -0.034909323
-0.11674275 0.08555095 -0.08016811 -0.011169596 0.18704075 -0.11706187 -0.13755925 -0.15119754
0.17850134 0.18783098 0.2565479 0.13902979 0.08663996 -0.04651349 0.60449827 -0.010036861
-0.026887286 0.1190656 0.012179652 -0.08379024 1.127675 -0.062400226 0.059628934 -0.02253752
-0.16312003 0.05371446 0.04109591 0.24060155 -0.14271972 0.017573467 0.15479271 -0.008641861
-0.2321692 -0.18837103 0.02465518 0.36730015 -0.13032728 -0.23807405 0.05851437 0.23756604
0.20502624 0.03522038 0.31793597 0.38426992 0.3721608 0.11102073 -0.1338434 0.02619101
-0.11848074 0.14131743 -0.19975941 -0.1219567 0.053105187 0.14801401 0.13785131 -0.017200498
-0.1069115 -0.16519512 -0.063031614 -0.029542424 0.18348098 -0.056604337 -0.04655352 0.03234017
