Modeling eMNS/Trained_model/EMS_ANN_backward_v2.pt (torch, 54791 bytes, 16 tensors)

total_net.0.net.0.fc.weight f4 [128, 6]
0	0x3ddb7b34	0.107168585
1	0xbf2da528	-0.67830133
2	0xbf1a3626	-0.60238874
3	0x3fb283d5	1.3946482
4	0xbf7a4c5b	-0.9777276
5	0xbeb612f0	-0.35561323
6	0x3f307fec	0.68945193
7	0xbde96a69	-0.11397249
8	0x3f06893f	0.5255317
9	0x3e22c3e0	0.15895033
10	0xbf0f6ea2	-0.5602819
11	0x3ec5b2f7	0.38613102
12	0x3df2ce49	0.11855752
13	0xbf81e7f6	-1.0148914
14	0xbe5ff63d	-0.21871276
15	0xbe14045e	-0.14454791
16	0x3e1bb96b	0.1520745
17	0x3f67320e	0.9031075
18	0xbedc7eba	-0.43065435
19	0x3e9f6274	0.311298
20	0x3e6c2dd9	0.23064364
21	0xbf554c10	-0.8331919
22	0x3ea232f3	0.31679496
23	0xbf450560	-0.76961327
24	0x3ed57584	0.4169122
25	0x3bdea8d9	0.0067950306
26	0xbf330e9e	-0.6994418
27	0x3eae73a7	0.3407261
28	0xbe7f3834	-0.24923784
29	0xbd022a81	-0.031778816
30	0xbfacd0a9	-1.3501178
31	0x3ef46bb5	0.47738424
32	0xbee7b430	-0.4525466
33	0x3f5c9c61	0.86176115
34	0xbf3ac824	-0.7296164
35	0xbe8281b4	-0.2548958
36	0x3efa7723	0.4891902
37	0xbe0d4fac	-0.13799924
38	0xbeb70bb8	-0.35751128
39	0x3ed5ba02	0.41743475
40	0xbf2b9f13	-0.67039603
41	0x3f7f42cc	0.997113
42	0xbf93065d	-1.1486317
43	0x3dbb90d9	0.09158487
44	0x3e58f4bb	0.21187107
45	0xbe6d2561	-0.2315879
46	0xbeadf6e4	-0.33977425
47	0x3f0dc2fd	0.55375654
48	0xbf2c4a7f	-0.6730117
49	0xbefa03a5	-0.48830906
50	0x3e9fe6ec	0.31230867
51	0x3ebff66e	0.37492698
52	0xbc90dc97	-0.01768331
53	0x3f7adbf3	0.97991866
54	0x3daa5473	0.08316889
55	0xbe37c5aa	-0.17946497
56	0x3f7f26d4	0.9966862
57	0xbf127d28	-0.57222223
58	0xbe3ba8d6	-0.18326125
59	0x3f11914f	0.5686235
60	0xbf01fd1f	-0.5077686
61	0x3faa0c21	1.3284951
62	0xbde158a0	-0.11003232
63	0x3f010b68	0.5040803
64	0xbfa168d1	-1.2610112
65	0x3e1a0c93	0.15043859
66	0xbe961e07	-0.29319784
67	0x3e4537fa	0.19259635
68	0x3f1af927	0.60536426
69	0xbef5de9c	-0.480214
70	0x3e03e829	0.12881531
71	0x3f279d72	0.6547462
72	0x3eceba0b	0.40376315
73	0x3e3e3712	0.18575695
74	0x3fa21de6	1.2665374
75	0x3fcabb74	1.5838456
76	0xbe8c9860	-0.27460003
77	0x3dbb4cb4	0.09145489
78	0x3dcc646d	0.09980092
79	0xbe9969e1	-0.29963592
80	0x3f860743	1.0470966
81	0x3e45d33f	0.19318865
82	0xbf00c355	-0.50298053
83	0xbf9d3f0d	-1.2284867
84	0x3ddf5e03	0.10906603
85	0x3b809020	0.003923431
86	0x3e952a15	0.2913367
87	0xbf9b6139	-1.2139045
88	0xbe8408d8	-0.25787997
89	0xbec4b0eb	-0.38416228
90	0x3f0c85a1	0.548914
91	0x3e850234	0.25978243
92	0xbf01549a	-0.50519717
93	0xbf5efd68	-0.8710542
94	0xbed65a9c	-0.41866004
95	0x3daf47c5	0.08558611
96	0x3f193961	0.5985318
97	0x3dc13ce4	0.09435442
98	0x3e528e36	0.20562062
99	0x3e8994d3	0.26871356
100	0xbd9241c7	-0.07141452
101	0x3f03d3e9	0.51495224
102	0x3c4fb015	0.012676259
103	0xbc41723e	-0.011807023
104	0x3e84d731	0.25945428
105	0x3ebdadc9	0.3704665
106	0x3f20c934	0.6280701
107	0x3f1d3968	0.6141572
108	0x3d76dae6	0.06026735
109	0xbe7523e5	-0.23939474
110	0xbfa41722	-1.281956
111	0x3eae09e4	0.3399192
112	0x40077d5e	2.1170268
113	0xbf5abb65	-0.8544219
114	0x3e6f6b9b	0.23380892
115	0xbfa0815f	-1.2539481
116	0x3e7a3253	0.2443326
117	0xbde276a3	-0.110577844
118	0x3f89fe3b	1.078071
119	0xbe9eee63	-0.3104125
120	0xbe7f88c4	-0.24954516
121	0xbeedc3c5	-0.46438423
122	0x3e9a35b0	0.30119085
123	0x3e2a18c3	0.16611008
124	0xbf564631	-0.83700854
125	0x3f5858c1	0.8451043
126	0x3f218019	0.63086087
127	0xbe99351a	-0.29923326
128	0x3e2a8c73	0.1665514
129	0xbe869085	-0.26282135
130	0xbeb893a9	-0.36050156
131	0xbefade28	-0.48997617
132	0xbe7c1b1c	-0.24619716
133	0x3e345fa0	0.17614603
134	0x3f156a16	0.58365
135	0xbf1b4c84	-0.6066363
136	0x3f1dd2b0	0.6164961
137	0xbf0346cd	-0.5127991
138	0x3f19ee6a	0.60129416
139	0x3efb2b7d	0.49056616
140	0x3f04b54a	0.51839125
141	0x3e9b8e22	0.30381876
142	0xbe9e9847	-0.30975553
143	0xbd9c7905	-0.0764027
144	0x3d9a0416	0.075203106
145	0xbf4c9b0e	-0.79924095
146	0xbf19bb2a	-0.60051215
147	0x3ddbb023	0.10726955
148	0xbe96c6cc	-0.29448545
149	0x3e9eb135	0.30994573
150	0x3f100b56	0.562673
151	0xbd528857	-0.051399555
152	0x3e8ec804	0.27886975
153	0x3eaad585	0.33366027
154	0xbe6eef6d	-0.23333521
155	0x3fa910be	1.3208234
156	0xbe786682	-0.24257854
157	0xbf0e62de	-0.5561961
158	0x3e90cf26	0.28283042
159	0x3e0890a7	0.1333643
160	0x3e2f337e	0.17109486
161	0x3f2d4daf	0.6769666
162	0x3f15d7b3	0.58532256
163	0x3f3c6ad9	0.73600537
164	0xbef685ee	-0.48149055
165	0x3f502779	0.8131023
166	0xbf230599	-0.63680416
167	0x3f71a1a7	0.94387287
168	0x3e175fd1	0.14782645
169	0xbe3d52f1	-0.18488671
170	0xbf2c65f6	-0.6734308
171	0xbe962b42	-0.29329878
172	0x3e9a0cbe	0.30087847
173	0xbd315c1d	-0.043300737
174	0x3f0b99e6	0.54531705
175	0xbe108528	-0.14113295
176	0x3f1b367e	0.60630023
177	0xbea3c194	-0.31983626
178	0x3ebcca2b	0.36872992
179	0xbed40c77	-0.4141576
180	0xbf7da04e	-0.9907273
181	0x3e990d20	0.29892826
182	0xbe2008ee	-0.15628406
183	0x3e332308	0.17493832
184	0xbd849ca3	-0.064751886
185	0xbf108ef8	-0.56468153
186	0xbe1796f5	-0.1480368
187	0xbebfc2f4	-0.37453425
188	0xbd67c385	-0.056582946
189	0x3e0557b2	0.13021734
190	0xbdd7c762	-0.10536076
191	0x3d812b63	0.063071035
192	0x3da4ea19	0.08052463
193	0xbe6e5196	-0.2327331
194	0xbf0defb9	-0.5544391
195	0x3f2c5fd6	0.67333734
196	0x3f9b35d4	1.2125802
197	0x3ed0b87d	0.40765753
198	0xbf56e38b	-0.83940953
199	0xbf15edd0	-0.58566
200	0x3dd95ec2	0.10613777
201	0x3f39e5d7	0.7261633
202	0xbf0df5fe	-0.5545348
203	0xbf34c0fd	-0.70606977
204	0x3e7dec52	0.2479718
205	0xbf5784f6	-0.8418726
206	0xbd8fb055	-0.070160545
207	0x3d038efa	0.032118775
208	0x3fbf0024	1.4921918
209	0xbde303df	-0.11084723
210	0xb9c223e7	-0.00037029313
211	0x3efb11b3	0.4903694
212	0xbf90d046	-1.131356
213	0x3dfee115	0.12445275
214	0xbcbda90f	-0.023151902
215	0xbf3bd5b9	-0.7337299
216	0xbe916cc3	-0.2840329
217	0x3f366d87	0.71260875
218	0xbdaa821e	-0.08325599
219	0xbf0a2053	-0.5395557
220	0xbf50d879	-0.8158031
221	0x3eeb8ecd	0.46007386
222	0x3e060950	0.1308949
223	0x3e2bdab5	0.16782649
224	0x3f0d95c3	0.55306643
225	0x3f45c876	0.77259004
226	0xbdfb2db2	-0.12264575
227	0xbeb456c5	-0.3522245
228	0xbf2c123c	-0.67215323
229	0x3e0f5d5e	0.1400046
230	0xbf11a962	-0.5689908
231	0x3e5cddd4	0.21568996
232	0x3e0b19d8	0.13584077
233	0xbd6d74f7	-0.057972874
234	0x3f14dd31	0.5815001
235	0x3efd0813	0.49420223
236	0xbe7203dc	-0.23634285
237	0x3f7d1524	0.98860383
238	0x3e72e3ec	0.23719758
239	0xbf026df4	-0.50949025
240	0x3ed149e9	0.408767
241	0xbeb2baa5	-0.34908023
242	0xbeb5e032	-0.3552261
243	0x3ec397c5	0.38201728
244	0xbf727165	-0.94704276
245	0x3dfbddb9	0.122981496
246	0x3ba84457	0.0051351
247	0xbdcddc30	-0.10051763
248	0xbedc1c6b	-0.4299043
249	0x3e29b965	0.16574629
250	0xbeffe681	-0.49980548
251	0x3e859420	0.26089573
252	0xbdab82d4	-0.08374563
253	0x3e058710	0.13039804
254	0x3f815343	1.0103534
255	0x3cac1cc7	0.021009816

total_net.0.net.0.fc.bias f4 [128]
0	0x3e01903e	0.1265268
1	0xbd64161d	-0.05568515
2	0xbd31b2d2	-0.043383427
3	0x3e0b5c24	0.13609368
4	0x3d772a64	0.06034316
5	0x3c404551	0.011735276
6	0x3e2bd375	0.16779883
7	0x3cf122fe	0.02943563
8	0x3d8519c4	0.06499055
9	0xbc331c19	-0.010931992
10	0x3ad31ebb	0.0016107181
11	0x3da93010	0.0826112
12	0x3e31f8c5	0.17380054
13	0x3d29eda2	0.04148639
14	0x3e834f0e	0.2564625
15	0xbbbd7a69	-0.0057824147
16	0x3df0f593	0.117655896
17	0x3e10d32a	0.14143053
18	0x3dcb4da1	0.09926916
19	0x3cbc1965	0.022961328
20	0x3dbb7cbd	0.09154651
21	0xbc5f8e02	-0.013644697
22	0x3e246698	0.16054761
23	0x3daef1ce	0.08542214
24	0x3d900f30	0.07034147
25	0xbb4e6508	-0.0031493325
26	0x3d504874	0.050850347
27	0x3e4afa08	0.19821942
28	0x3d742dbb	0.059613924
29	0x3e6a1280	0.2285862
30	0x3e2c35ce	0.168174
31	0x3cb5e5bf	0.022204278
32	0x3e34e162	0.17664102
33	0x3cf3f9d9	0.029782223
34	0xbd362291	-0.04446656
35	0xbe9f4c6f	-0.31113002
36	0x3e14df68	0.14538348
37	0x3e4de006	0.2010499
38	0x3a8817bc	0.001038305
39	0x3e2e8549	0.17043032
40	0x3d2448aa	0.04010836
41	0x3db19cb4	0.08672467
42	0x3ca0beeb	0.019622287
43	0x3e867cd9	0.26267126
44	0x3e1670f9	0.14691533
45	0x3c812aa4	0.015767403
46	0x3d328add	0.04358946
47	0x3e2331f4	0.15937024
48	0x3e01042d	0.12599249
49	0x3d18212c	0.03714101
50	0xbc22defa	-0.009940857
51	0x3ab3ad3e	0.0013708246
52	0x3ddc256f	0.107493274
53	0xbd7cdd51	-0.0617345
54	0xbd9edd72	-0.07757081
55	0x3deb6c77	0.114952974
56	0x3ce07df2	0.027403805
57	0x3dfb4f58	0.12270993
58	0x3e4c0f41	0.19927694
59	0xbe36c8de	-0.17850062
60	0x3d14c21b	0.036317926
61	0x3ce6c52e	0.028170194
62	0xbd789542	-0.06068922
63	0x3c89fe89	0.016845005
64	0xbd4c60eb	-0.049897116
65	0x3e279e67	0.1636902
66	0xbcadc40f	-0.021211652
67	0x3d8e7a61	0.06956936
68	0x3de00592	0.109385625
69	0x3db7ada4	0.08968666
70	0x3e04b66a	0.1296021
71	0x3cc5a388	0.02412583
72	0x3e25f332	0.16206053
73	0x3de7c112	0.11316122
74	0xbd95cff9	-0.07315058
75	0xbd070e5c	-0.03297268
76	0xbd5963a3	-0.053073537
77	0xbd0c28d5	-0.034218628
78	0xbe1a3709	-0.15060057
79	0xbdba2f04	-0.09090999
80	0x3d93a2ed	0.0720881
81	0x3e763ce6	0.24046668
82	0x3e631f5a	0.22179928
83	0x3c71f1af	0.0147670945
84	0x3dfdb9f9	0.12388987
85	0x3d458afe	0.048228256
86	0x3e238eb4	0.15972406
87	0x3ddfa1f4	0.10919562
88	0x3d95b66d	0.073101856
89	0x3e35ceee	0.17754719
90	0x3dcc09a7	0.099627785
91	0x3cb97177	0.022637112
92	0x3bf0c093	0.0073471754
93	0xbd4e60d5	-0.050385315
94	0x3e11b44b	0.14228933
95	0x3e32429f	0.17408226
96	0x3d6bc19e	0.057557695
97	0x3d9f6786	0.077834174
98	0xbbd08f58	-0.006364744
99	0xbd54fcda	-0.05199895
100	0x3e568a2b	0.20951144
101	0x3db168a6	0.08662538
102	0x3e0de9c2	0.13858703
103	0x3e70374a	0.23458591
104	0x3e128f0b	0.14312379
105	0x3df6f1fd	0.12057874
106	0x3dd3ce9c	0.10342142
107	0x3db855c3	0.09000733
108	0x3d8ddce3	0.069268964
109	0xbb9cc870	-0.004784636
110	0x3e9023a4	0.28152192
111	0x3d9661da	0.073428825
112	0x3df97943	0.12181332
113	0xbb79b997	-0.0038105005
114	0xbc597755	-0.01327308
115	0xb96a5a5c	-0.0002234964
116	0x3d0da5f0	0.03458208
117	0xbda89748	-0.082319796
118	0x3cd8626f	0.026414124
119	0x3da81dde	0.08208822
120	0xbd1c2b64	-0.038127318
121	0x3d5d1ed1	0.053984467
122	0x3de6461c	0.11243841
123	0x3e553952	0.20822647
124	0xbe06483c	-0.13113493
125	0x3dfbb1be	0.12289761
126	0x3e28e001	0.164917
127	0x3e4a3525	0.19746836

total_net.1.net.0.fc.weight f4 [64, 128]
0	0x3cb200e8	0.021728948
1	0xbe1f67d7	-0.15566956
2	0x3bae029b	0.005310369
3	0xbc0358d1	-0.008016781
4	0x3d770cf9	0.060315106
5	0xbdf856f7	-0.12125962
6	0x3e1e3262	0.15448907
7	0x3dd171b5	0.10226766
8	0x3da13558	0.07871503
9	0xbd7cb5b6	-0.06169673
10	0xbd82948e	-0.06375991
11	0x3b6767be	0.0035309638
12	0xbdd0aa61	-0.10188747
13	0x3e031fba	0.12805071
14	0x3e09f7e8	0.13473475
15	0x3c94a4fc	0.018145077
16	0x3c6a169f	0.01428762
17	0xbdd2eab4	-0.10298672
18	0x3da12bf7	0.07869714
19	0x3dc2016d	0.09472928
20	0xbd9c85c1	-0.07642699
21	0x3dcae783	0.099074386
22	0x3e07484d	0.13211174
23	0x3e9438a9	0.28949478
24	0x3e241d32	0.16026762
25	0xbe55f4c1	-0.20894147
26	0xbd778b98	-0.06043586
27	0x3d17c3f4	0.03705211
28	0xbd6ac3fa	-0.057315804
29	0x3d4a3348	0.04936531
30	0xbe89ca7c	-0.26912296
31	0x3dc240d6	0.09485023
32	0xbb062497	-0.0020468587
33	0x3de2204f	0.110413186
34	0xbbfde383	-0.007748069
35	0x3b1a8e10	0.002358321
36	0x3c32953c	0.010899838
37	0xbbdedf40	-0.006801516
38	0x3ddd7eee	0.108152255
39	0x3c825f3b	0.01591455
40	0x3e249419	0.1607212
41	0xbd1341bd	-0.035951365
42	0x3b0becc4	0.002135084
43	0xbd956524	-0.07294682
44	0x3d606816	0.054786764
45	0x3d346222	0.0440389
46	0xbe5d6fde	-0.21624705
47	0x3df5c16d	0.11999784
48	0x3df9875f	0.12184023
49	0xbeebfe92	-0.4609266
50	0xbe344302	-0.17603686
51	0xbb222321	-0.0024740177
52	0x3df64acd	0.12025986
53	0x3e4c2a93	0.19938116
54	0x3cb15301	0.021646025
55	0x3e14cf70	0.14532256
56	0x3db1068e	0.08643828
57	0x3ce7e3d1	0.028306874
58	0x3cadebd9	0.021230625
59	0xbe2c6edf	-0.16839169
60	0xbd8de450	-0.06928313
61	0x3d5831a8	0.05278173
62	0xbd94460c	-0.07239923
63	0x3da0a9ca	0.07844885
64	0xbe0d74da	-0.13814107
65	0xbc5a1e8f	-0.01331295
66	0xbcc835d3	-0.024439728
67	0x3c8732e8	0.016503766
68	0x3e1585b5	0.14601786
69	0x3e0dcf24	0.13848549
70	0x3df1c08d	0.11804304
71	0x3dd5b3cf	0.104346864
72	0xbcec9dfa	-0.028883923
73	0x3ce3632c	0.02775725
74	0x3de3e882	0.11128332
75	0xbd0e8f6d	-0.03480475
76	0x3d282b19	0.041056726
77	0x3d4dec4f	0.05027419
78	0xbe182d74	-0.14861089
79	0xbc742f6e	-0.014903886
80	0x3b0486a6	0.0020221858
81	0x3e6bb6a4	0.2301889
82	0x3d8c5bf5	0.06853477
83	0x3e5f04a9	0.21779121
84	0xbce5485f	-0.02798861
85	0x3e36895c	0.17825836
86	0xbe0d5b97	-0.1380447
87	0xbe207cf7	-0.1567267
88	0x3e558372	0.20850924
89	0x3ceaf73f	0.02868235
90	0x3cf16d56	0.02947108
91	0xbe3035d5	-0.17208035
92	0x3d32f5f2	0.043691583
93	0x3da11862	0.07865979
94	0x3d9806bc	0.074231595
95	0xbe10892b	-0.14114825
96	0x3d164197	0.036683645
97	0x3d6c7d78	0.057736844
98	0xbc54aef2	-0.012981163
99	0xbdeef996	-0.116686985
100	0xbc039f52	-0.00803359
101	0x3db3d525	0.087808885
102	0xbc7929bd	-0.015207705
103	0x3e4a506f	0.19757245
104	0xbe45043b	-0.19239895
105	0xbcd59946	-0.026074063
106	0x3d270291	0.040773932
107	0xbd3cdf1c	-0.04611121
108	0x3e23f39d	0.160109
109	0xbbf9a4c8	-0.0076185204
110	0xbd05bda0	-0.032651544
111	0x3e4a7036	0.19769368
112	0x3d74bd1d	0.059750665
113	0xbcf7cc55	-0.0302488
114	0xbe838b25	-0.25692096
115	0xbdc5c4a6	-0.09656648
116	0xbcc6dcae	-0.02427515
117	0xbe54d8db	-0.20785849
118	0x3d760704	0.060065284
119	0x3ead5864	0.338565
120	0x3e13e485	0.14442642
121	0xbe3564d0	-0.17714238
122	0x3e70bc94	0.23509437
123	0xbcdd79a7	-0.027035547
124	0xbda22863	-0.079178594
125	0x3c06eae0	0.0082347095
126	0xbd3c6501	-0.045994762
127	0x3d8cc894	0.06874195
128	0x3e7d1849	0.24716295
129	0xbe56f99c	-0.20993656
130	0x3e0a2fc1	0.13494779
131	0x3dede1e8	0.11615354
132	0x3d680955	0.056649525
133	0x3d14f991	0.036370818
134	0x3d728f57	0.05921873
135	0x3ea42c6b	0.32065138
136	0x3d3cd7c4	0.046104208
137	0x3e747aaa	0.23874918
138	0xbd8256e2	-0.06364228
139	0xbd24a0fd	-0.040192593
140	0x3d4e2aed	0.050333906
141	0x3de10b69	0.109885044
142	0xbda54e86	-0.08071618
143	0xbc9d5668	-0.01920624
144	0xbd46dc7c	-0.048550114
145	0x3dd7d3ea	0.10538466
146	0xbde4b96e	-0.111681804
147	0xbd0b38df	-0.033989783
148	0x3c4a3191	0.012340919
149	0x3dd3d9a5	0.10344247
150	0x3ddd08b7	0.10792678
151	0x3e2fe932	0.171788
152	0x3dd4a923	0.10383823
153	0xbe144699	-0.14480056
154	0xbad3ce35	-0.0016159477
155	0x3d8c4526	0.068491265
156	0xbd29c991	-0.041451994
157	0x3e3ba5a7	0.1832491
158	0x3d9cb626	0.076519296
159	0x3dc03ed9	0.09386987
160	0x3e244a94	0.16044074
161	0xbcbddd5e	-0.023176845
162	0x3e6b85b7	0.23000227
163	0xbeb86f4c	-0.36022413
164	0x3a8571b0	0.0010180976
165	0xbdada5cf	-0.08478891
166	0xbc35211e	-0.011055259
167	0x3d6ae2c2	0.05734516
168	0x3d240143	0.040040266
169	0x3e4d90ba	0.2007474
170	0x3d41727f	0.047228333
171	0x3bd2dee9	0.0064352644
172	0xbd8155d6	-0.063152
173	0xbd2a5857	-0.041588154
174	0xbe152338	-0.14564216
175	0xbdf1c3fe	-0.11804961
176	0xbda738b3	-0.081651114
177	0xbce0bb09	-0.027432935
178	0x3be18837	0.006882693
179	0xbdedbda5	-0.116084374
180	0xbd740ea9	-0.059584294
181	0xbe3ab359	-0.18232478
182	0xbd3a19e9	-0.045434866
183	0xbe34cb33	-0.1765564
184	0xbe6c7321	-0.23090793
185	0xbc4983c3	-0.012299481
186	0xbd5f3353	-0.054492306
187	0x3df9f83a	0.122055486
188	0x3def9268	0.11697847
189	0x3e3d8cc3	0.18510728
190	0x3e8f52a0	0.27992725
191	0x3dece742	0.115675464
192	0x3d293941	0.041314367
193	0x3daa080c	0.08302316
194	0xbde0e455	-0.10981051
195	0xbe260c8a	-0.16215721
196	0xbc4d89aa	-0.012545029
197	0x3e2dea9f	0.16984032
198	0x3e11d034	0.1423958
199	0x3cf55752	0.029948864
200	0x3d4a5048	0.04939297
201	0xbd474e1e	-0.048658483
202	0x3e1bcf6a	0.15215841
203	0x3c124c35	0.008929302
204	0xbc266681	-0.010156275
205	0x3d33f86f	0.043938097
206	0x3db763bd	0.089545704
207	0xbdfdefec	-0.12399277
208	0x3d417dea	0.04723922
209	0x3e44eab0	0.19230151
210	0x3e565c23	0.20933585
211	0xbc318451	-0.010834769
212	0xbe27b622	-0.16378072
213	0x3b8f1b81	0.0043672924
214	0x3c1b3451	0.009472922
215	0xbe1c6fa1	-0.15276958
216	0xbe8110a8	-0.2520802
217	0x3e47c716	0.19509539
218	0x3df86e79	0.12130446
219	0x3de4187e	0.11137484
220	0x3e418b43	0.1890078
221	0xbe2cfd3d	-0.16893478
222	0x3daa602e	0.08319126
223	0xbd3f8b17	-0.046763506
224	0x3d6f5e27	0.0584394
225	0xbd2619fd	-0.040552128
226	0x3e326328	0.17420638
227	0xbe30b64a	-0.17257038
228	0x3ce56f4d	0.028007174
229	0xbe6fc4a5	-0.23414858
230	0xbc8878b2	-0.016659115
231	0x3ded953e	0.11600731
232	0xbdaae20a	-0.08343895
233	0x3d18e1af	0.037324604
234	0x3d1d2fe1	0.03837574
235	0xbe4800c7	-0.19531547
236	0xbcfabb1a	-0.030606795
237	0xbe1d7aac	-0.15378827
238	0x3b8f2d3a	0.004369405
239	0x3e8c97c4	0.27459538
240	0xbc086e6a	-0.008327106
241	0xbd7b4559	-0.061345432
242	0xbce038ee	-0.027370896
243	0x3d08a4ad	0.033360172
244	0x3d3196a0	0.043356538
245	0x3df8b8f3	0.12144651
246	0xbe0b338a	-0.1359388
247	0x3e562f10	0.2091639
248	0x3d5d9203	0.054094326
249	0x3dab5325	0.08365468
250	0x3c543f03	0.012954476
251	0xbc3db366	-0.011578416
252	0xbdda47c5	-0.1065822
253	0x3c3157b3	0.010824132
254	0xbc273cf8	-0.010207407
255	0x3e830cb6	0.25595635

total_net.1.net.0.fc.bias f4 [64]
0	0x3d98f8eb	0.07469352
1	0x3d37ff80	0.0449214
2	0x3d2475fb	0.040151577
3	0x3d0861c5	0.033296365
4	0xbd5331e9	-0.05156127
5	0xbdbd2b92	-0.09236826
6	0x3db7da6d	0.08977208
7	0x3d8e4566	0.069468305
8	0x3d3519f8	0.04421422
9	0x3d2d3376	0.042285405
10	0x3d90c4d6	0.070687935
11	0x3d4e7dbe	0.050412886
12	0x3e40a8f4	0.1881445
13	0xbcc587d4	-0.02411262
14	0xbdf05d79	-0.117365785
15	0x3c1e8b8d	0.009676826
16	0xbe12cd07	-0.14336024
17	0x3dd58e15	0.104274906
18	0x3de090df	0.10965132
19	0x3d904c45	0.07045797
20	0x3dc181ac	0.09448561
21	0xbe13798d	-0.14401837
22	0x3dce5500	0.10074806
23	0x3db810da	0.08987589
24	0x3d3c5220	0.045976758
25	0x3b844eab	0.0040376983
26	0x3cca7010	0.024711639
27	0x3d6fb78d	0.058524657
28	0x3d341413	0.043964457
29	0x3dc9a6fc	0.09846303
30	0x3d9f2741	0.07771159
31	0xbe36e592	-0.17861012
32	0x3e1f25a2	0.155417
33	0x3d06fd66	0.032956503
34	0x3e34e155	0.17664082
35	0xbd45cae0	-0.04828918
36	0x38af7341	8.366118e-05
37	0xbe8732b3	-0.26405868
38	0x3d794863	0.06086005
39	0x3d107abc	0.0352733
40	0x3da7bbfb	0.08190151
41	0x3cb6c663	0.022311395
42	0x3d455533	0.048176955
43	0xba98dc83	-0.0011662397
44	0x3dc2b8c6	0.09507899
45	0x3d2af5c7	0.041738298
46	0x3c2de757	0.010614238
47	0x3dbff789	0.093733855
48	0x3cef9847	0.029247416
49	0xbcc1311a	-0.023582984
50	0x3c886ab3	0.01665244
51	0x3dc2b3a8	0.09506923
52	0xbc06cfee	-0.008228285
53	0xbc9d8f5d	-0.0192334
54	0x3ce5b78c	0.028041624
55	0x3c8e262f	0.017352192
56	0xbc04bc8f	-0.0081015965
57	0x3de89c15	0.11357895
58	0x3dcfc5e2	0.10145165
59	0x3dd296f2	0.10282697
60	0x3d8f92b7	0.070104055
61	0x3e1f5f26	0.1556364
62	0xbe0362c4	-0.12830645
63	0x3dae926c	0.085240215

total_net.2.net.0.fc.weight f4 [32, 64]
0	0xbe03518e	-0.1282408
1	0xbd024133	-0.03180046
2	0x3e4c997a	0.19980422
3	0x3e447846	0.19186506
4	0x3e3c4c0e	0.18388388
5	0xbdf643fc	-0.12024686
6	0x3db486ad	0.0881475
7	0xbcc80992	-0.024418626
8	0xbd950dec	-0.07278046
9	0xbc8dd6bd	-0.01731431
10	0xbdb21250	-0.08694899
11	0x3dc79c18	0.097465694
12	0x3e88333c	0.2660159
13	0x3c0e4474	0.008683313
14	0xbe8bec7e	-0.27328867
15	0xbd9dc247	-0.07703071
16	0x3ec86403	0.39138803
17	0xbe827beb	-0.25485167
18	0xbdfc650f	-0.12323963
19	0xbc8c74d9	-0.017145561
20	0x3e72c30a	0.23707214
21	0x3e7e4e65	0.24834593
22	0xbe55cefe	-0.20879743
23	0x3e19cb07	0.15018855
24	0xbd72ed3c	-0.059308276
25	0x3cd53e5c	0.026030712
26	0xbd2f937d	-0.042865265
27	0x3dc4d3c3	0.09610703
28	0x3d0120ad	0.031525303
29	0xbdcaea47	-0.09907966
30	0xbe44d02d	-0.19220038
31	0xbf0adbf9	-0.542419
32	0xbe9b4d95	-0.30332628
33	0x3ee39f2d	0.4445738
34	0xbdde4e7f	-0.10854816
35	0xbdf6cad8	-0.12050408
36	0x3e2200d7	0.15820633
37	0xbdc07b0a	-0.09398468
38	0x3d56e1f7	0.05246159
39	0x3da64f7e	0.08120631
40	0x3e9cd482	0.3063088
41	0x3e8e8c8e	0.2784161
42	0x3c35acd3	0.011088568
43	0xbcf5dabe	-0.030011531
44	0xbeb66ce8	-0.35629964
45	0xbddb291f	-0.107012026
46	0xbd069a6e	-0.03286212
47	0x3c880526	0.016604017
48	0xbe17ca69	-0.14823307
49	0x3e1c5372	0.15266207
50	0x3dde4898	0.1085369
51	0xbd7fc39f	-0.06244242
52	0xbde7622c	-0.11298022
53	0xbcf87f73	-0.03033421
54	0x3c1ba34f	0.009499385
55	0x3de83962	0.1133907
56	0x3e8c4ab8	0.27400756
57	0xbd4de8a9	-0.05027071
58	0xbdeefa63	-0.11668851
59	0x3e306d49	0.17229189
60	0xbca75b2e	-0.02042922
61	0x3e5e9e1d	0.21740003
62	0xbe28c66f	-0.16481946
63	0xbe83ce91	-0.25743535
64	0x3ebdbb0f	0.37056777
65	0x3dc43d61	0.095820196
66	0x3d8efdaa	0.06981976
67	0x3da3793f	0.0798211
68	0x3bedbad3	0.007254937
69	0x3cff7f3e	0.031188603
70	0xbcdb7129	-0.026787357
71	0xbdffbfde	-0.12487768
72	0xbd907a7b	-0.07054611
73	0xbe147f96	-0.14501795
74	0x3de9ab77	0.114096574
75	0xbe562db0	-0.20915866
76	0x3e08e739	0.13369454
77	0xbaef36fe	-0.0018250642
78	0xbcd96c89	-0.026541011
79	0xbe47649f	-0.19471978
80	0xbe804bd2	-0.25057846
81	0x3e43b612	0.19112423
82	0xbd2df670	-0.04247135
83	0x3e1fa35c	0.1558966
84	0x3e327288	0.17426503
85	0x3da2b507	0.079446845
86	0xbdfab8a2	-0.12242247
87	0xbdd16613	-0.10224547
88	0xbc83983f	-0.016063808
89	0x3e82cd6c	0.2554735
90	0x3e21949b	0.15779345
91	0xbe548e29	-0.20757355
92	0x3e054e58	0.13018167
93	0x3dc3abed	0.095542766
94	0xbdabf077	-0.083954744
95	0x3dbee8c8	0.09321743
96	0x3e1169f7	0.14200579
97	0xbe16fdf7	-0.14745317
98	0xbe0d9782	-0.13827327
99	0x3e1c09b6	0.1523808
100	0x3e23fb2a	0.1601378
101	0xbe922448	-0.28543305
102	0xbd494d9f	-0.04914629
103	0xbc949b02	-0.01814032
104	0x3d5a1b9f	0.053248998
105	0x3e912cdd	0.2835454
106	0x3dd67382	0.1047125
107	0x3c95dbf1	0.018293353
108	0x3cb5dea1	0.022200884
109	0x3dd3086c	0.10304341
110	0xbe14b1b3	-0.14520912
111	0xbdf5f59c	-0.12009737
112	0x3d1bde10	0.038053572
113	0x3e27c7f6	0.16384873
114	0xbdb8d359	-0.09024686
115	0xbe25d906	-0.16196069
116	0xbe1ca116	-0.15295824
117	0xbca28aae	-0.019841518
118	0xbd2d623c	-0.04233001
119	0x3e5b1dbc	0.21398062
120	0x3c50d892	0.012746947
121	0x3e380262	0.17969659
122	0x3eab428a	0.33449203
123	0x3e59de88	0.21276295
124	0xbe0b0c69	-0.13578953
125	0xbe153b49	-0.14573397
126	0xbdf7853d	-0.1208596
127	0x3e2b9b3f	0.1675844
128	0x3dc36e50	0.09542525
129	0x3e5ee2bd	0.21766181
130	0x3e4c320f	0.19940971
131	0x3d616cb1	0.055035297
132	0xbe31372a	-0.173062
133	0xbe099883	-0.13437085
134	0xbe831c35	-0.25607458
135	0xbd0fcdc1	-0.03510833
136	0xbe05685b	-0.1302809
137	0x3e130202	0.14356235
138	0xbe1d91d9	-0.15387668
139	0x3cbd8941	0.023136737
140	0xbecd6aec	-0.40120637
141	0x3da975aa	0.08274396
142	0x3eae23b3	0.3401161
143	0x3dff1609	0.12455375
144	0xbde9a412	-0.11408247
145	0xbdc14bdb	-0.094382964
146	0x3e1c0d11	0.1523936
147	0x3e818c8f	0.2530255
148	0xbd62f14b	-0.055405896
149	0xbe8de75b	-0.27715573
150	0x3cb49b2e	0.022046652
151	0xbe88b64a	-0.26701576
152	0x3dc54cb5	0.09633771
153	0x3dec9f1b	0.115537845
154	0xbc7c9a1c	-0.015417602
155	0x3e7b1d7b	0.24522965
156	0xbe083568	-0.13301623
157	0x3c881e83	0.016616112
158	0x3e0f6f16	0.1400722
159	0xbdb04afb	-0.086080514
160	0x3e9575a4	0.29191315
161	0x3e92b0c5	0.2865049
162	0xbd4444e7	-0.047917273
163	0xbdf8a943	-0.12141659
164	0x3e1fc428	0.15602171
165	0x3dbb09e0	0.09132743
166	0xbe175e0c	-0.1478197
167	0xbe205626	-0.15657863
168	0x3da867b3	0.08222904
169	0xbdb71886	-0.08940224
170	0x3e0842b2	0.13306692
171	0x3d88a8e1	0.06672836
172	0x3c7fcb4e	0.015612436
173	0xbe467aa6	-0.19382724
174	0x3d510551	0.05103046
175	0x3e22a602	0.1588364
176	0x3dddb30f	0.10825168
177	0x3e335823	0.1751409
178	0x3e03128e	0.12800047
179	0x3e2e7530	0.17036891
180	0x3c9f507d	0.01944756
181	0xbe984519	-0.29740217
182	0x3d41773a	0.047232844
183	0xbc9e05fe	-0.019289967
184	0x3eed5ef6	0.46361512
185	0x3d5d87f5	0.054084737
186	0xbd641f30	-0.055693805
187	0x3e5bca7e	0.21463963
188	0xbe11df54	-0.14245349
189	0x3e0de9cb	0.13858716
190	0xbc276438	-0.010216765
191	0x3e52f8e7	0.20602761
192	0x3e899630	0.26872396
193	0x3e760435	0.24025042
194	0xbe88358f	-0.26603362
195	0x3e0002d2	0.12501076
196	0x3d1069ce	0.035257153
197	0x3e6eead7	0.23331772
198	0x3d7bde63	0.06149138
199	0x3dca2787	0.098708205
200	0x3cc28eee	0.023749795
201	0x3e509df6	0.20372757
202	0x3e5ca8d8	0.21548784
203	0xbe335a06	-0.1751481
204	0x3e32e8d0	0.17471623
205	0x3e204794	0.15652305
206	0xbcce108b	-0.025154373
207	0xbe30e6b0	-0.172755
208	0x3d40b7f6	0.04705044
209	0xbd8245ba	-0.063609555
210	0x3e3c6370	0.18397307
211	0x3e9c44d1	0.30521253
212	0x3da979f2	0.08275212
213	0xbdae732d	-0.08518062
214	0xbe395890	-0.1810019
215	0x3e48dc0e	0.19615194
216	0x3dd5b562	0.10434987
217	0x3d77cb7d	0.060496796
218	0xbe85cf20	-0.26134586
219	0x3e701bf7	0.23448168
220	0xbd0cf52a	-0.034413494
221	0x3d992035	0.07476846
222	0x3e820550	0.25394678
223	0x3dcc15e1	0.099651106
224	0xbd44ea75	-0.04807516
225	0x3e356101	0.17712785
226	0x3eb702f7	0.3574445
227	0xbd4ca1e8	-0.049959093
228	0x3ea0a4e4	0.31375802
229	0xbec0bfde	-0.37646383
230	0x3e889d9e	0.26682752
231	0xbeb0847f	-0.34476086
232	0xbe09ed72	-0.13469484
233	0x3e0fa00e	0.140259
234	0x3cc58026	0.024108957
235	0x3e3eaf88	0.18621647
236	0x3e255248	0.16144669
237	0xbe1e58fb	-0.15463631
238	0xbd4f5660	-0.050619483
239	0xbe3c8d3f	-0.18413256
240	0xbc8b2dbd	-0.016989583
241	0x3dc7f7d1	0.09764064
242	0xbe0ba16d	-0.13635798
243	0xbe6b158c	-0.22957438
244	0x3e8b83f6	0.27249116
245	0x3cf32e05	0.02968503
246	0xbdfe81ef	-0.124271266
247	0xbdcb8cc7	-0.099389605
248	0xbd0c98a9	-0.034325276
249	0x3ed87929	0.42279938
250	0x3dd25e4f	0.10271894
251	0x3da0f484	0.07859138
252	0xbcfd9d1f	-0.03095871
253	0xbe26cf55	-0.16290028
254	0xbd64365c	-0.055715904
255	0x3e01fc69	0.12693943

total_net.2.net.0.fc.bias f4 [32]
0	0xbd63dd1c	-0.05563079
1	0x3bfa8e7d	0.0076463805
2	0x3d6b9ccd	0.057522584
3	0x3d70485a	0.05866275
4	0x3d43bf99	0.047790144
5	0xbc11c8fd	-0.008898017
6	0x3dc85079	0.09780974
7	0x3db77510	0.08957875
8	0x3e09c99b	0.13455813
9	0x3cb320cd	0.021866227
10	0xbc854b58	-0.016271278
11	0x3e1240f9	0.14282598
12	0xbe114db8	-0.14189804
13	0x3d3ca466	0.04605522
14	0x3ce12bc2	0.027486686
15	0xbdb3beed	-0.087766506
16	0xbd49101c	-0.04908763
17	0x3d84d718	0.064863384
18	0x3d0df440	0.034656763
19	0xbbbd320b	-0.005773788
20	0x3bd0d336	0.0063728346
21	0x3d47e475	0.048801858
22	0x3d722fbe	0.05912756
23	0x3d2b1b1b	0.041773897
24	0x3c64b07d	0.013958094
25	0x3cf65348	0.030069008
26	0x3d4635a3	0.048390996
27	0xbca4d2ec	-0.020120107
28	0x3d42760c	0.04747586
29	0xbab9fbe3	-0.0014189448
30	0xbcbf2445	-0.023332724
31	0x3a7655d9	0.00093969476

total_net.3.weight f4 [12, 32]
0	0x3d7531e6	0.05986204
1	0xbcfadf6f	-0.03062412
2	0xbda75def	-0.08172213
3	0xbde67a2d	-0.11253772
4	0x3e32dbca	0.17466655
5	0xbdc58b50	-0.096457124
6	0x3d827248	0.06369454
7	0xbd258c2a	-0.040416874
8	0x3d46af15	0.048506815
9	0x3d7c7190	0.06163174
10	0xbd837ebc	-0.06420657
11	0xbd8666b2	-0.06562556
12	0x3bc555d2	0.0060221935
13	0x3d30ea67	0.043192293
14	0xbc1f31e8	-0.009716488
15	0xbbc84f94	-0.006113002
16	0xbc116731	-0.0088747
17	0x3da95e02	0.08269884
18	0x3c9c45c2	0.019076232
19	0x3dab289d	0.08357356
20	0xbce77b94	-0.028257169
21	0x3d64ec08	0.05588916
22	0x3de31864	0.110886365
23	0xbcf2170f	-0.02955201
24	0x3d723249	0.059129987
25	0x3c1f8e6a	0.009738544
26	0x3d8298e7	0.0637682
27	0xbd68b2db	-0.056811195
28	0xbe0ffdae	-0.14061615
29	0xbe2e8231	-0.17041852
30	0x3d90697e	0.07051371
31	0x3d1ed7cd	0.038780022
32	0x3d0a272b	0.03372876
33	0x3b9d2034	0.0047950987
34	0xbdb1965f	-0.08671259
35	0x3d4b171c	0.049582586
36	0xbd08bce0	-0.03338325
37	0xbdf47de0	-0.11938071
38	0xbd850b9e	-0.064963564
39	0x3e1d4a1e	0.15360305
40	0xbe0f787f	-0.1401081
41	0x3ca9b24d	0.020714903
42	0xbcf62106	-0.030045044
43	0xbe10e2c9	-0.14149012
44	0x3d66074f	0.056159314
45	0x3c5a0dfe	0.013309
46	0xbd7519eb	-0.05983917
47	0x3dc5c419	0.09656543
48	0x3b319e29	0.0027102327
49	0x3d24bac6	0.040217184
50	0xbc2d1f96	-0.010566613
51	0xbca06811	-0.019580873
52	0x3dbeb41c	0.09311697
53	0x3d4107ca	0.04712657
54	0x3cd79098	0.026314065
55	0xbd725524	-0.059163228
56	0x3e00ec2c	0.12590092
57	0xbde19de3	-0.110164426
58	0x3d34ef0f	0.044173297
59	0xbcb975cb	-0.022639176
60	0xbc9a0cff	-0.018805025
61	0x3b88c92d	0.0041743726
62	0x3dd26c2f	0.10274541
63	0xbd05cfaa	-0.032668747
64	0x3cb8a9c7	0.022541894
65	0x3d09d55f	0.033650752
66	0x3e0c2c5a	0.13688794
67	0x3e040c59	0.12895335
68	0xbde7b19c	-0.11313173
69	0xbe213a8c	-0.1574499
70	0xbdc09385	-0.09403137
71	0x3e20bad2	0.15696266
72	0xbb60a482	-0.0034277742
73	0xbd92ac74	-0.07161799
74	0xbd9c2a97	-0.07625311
75	0xbd8c2cb2	-0.068444625
76	0xbe074f43	-0.1321383
77	0xbd3a75b6	-0.045522414
78	0xbd14ef36	-0.03636094
79	0xbd567a7b	-0.0523629
80	0xbd04a960	-0.03238809
81	0x3e0650b3	0.13116722
82	0x3ae30d89	0.0017322759
83	0x3df79e0f	0.12090694
84	0x3c1dc13d	0.009628591
85	0xbd0c0e8c	-0.03419356
86	0x3c8e7b5d	0.017392809
87	0x3db119ca	0.08647497
88	0xbdee60c4	-0.1163955
89	0x3dadd7e5	0.08488444
90	0xbdbe759c	-0.09299776
91	0x3d18e580	0.037328243
92	0xbdd0acb1	-0.10189188
93	0xbdd5d707	-0.10441404
94	0x3da8010c	0.08203325
95	0x3db616eb	0.0889109
96	0xbc8c3889	-0.017116802
97	0x3db69952	0.08915962
98	0x3d8a144b	0.06742152
99	0x3db630d2	0.088960305
100	0x3c1f8e45	0.00973851
101	0xbd2f295f	-0.042764064
102	0x3c203e06	0.009780413
103	0x3da18bf1	0.0788802
104	0x3d8a925b	0.06766196
105	0x3d491152	0.049088784
106	0x3debf903	0.115221046
107	0x3dc2a85c	0.09504768
108	0x3db15e55	0.086605705
109	0xbd47cc33	-0.048778724
110	0xbd0566a6	-0.032568596
111	0x3d18c6a0	0.0372988
112	0xbd503b45	-0.050837774
113	0x3d917665	0.0710266
114	0xbc8e7000	-0.01738739
115	0x3de2eb05	0.11079983
116	0x3c7c9784	0.0154169835
117	0x3d7b7abc	0.061396345
118	0x3e022dea	0.12712827
119	0xbdb9f0b1	-0.09079111
120	0xbe08727c	-0.13324922
121	0x3c603f70	0.013687
122	0x3d3c8c4d	0.04603224
123	0xbcbfb121	-0.023399891
124	0xbe0d0de3	-0.13774829
125	0xbd62af19	-0.055342767
126	0xbdaece40	-0.08535433
127	0x3c8dd913	0.017315423
128	0x3d85708d	0.06515608
129	0x3e2e5556	0.1702474
130	0xbcb9399d	-0.02261048
131	0x3d85a50a	0.06525619
132	0xbd1e6fe1	-0.038680915
133	0x3dd62013	0.104553364
134	0xbdf8fd28	-0.12157661
135	0xbdd0ccc0	-0.10195303
136	0xbb1d6af4	-0.0024020048
137	0xbdae6955	-0.08516184
138	0xbd2994df	-0.04140174
139	0x3c9ffad0	0.019528776
140	0xbc88d993	-0.01670531
141	0x3dc46d8b	0.09591206
142	0xbccc94da	-0.024973322
143	0x3de1be6b	0.110226475
144	0xbbbb1f0c	-0.005710488
145	0xbc6f8e45	-0.014621322
146	0x3d07f2ab	0.03319041
147	0xbdc4c776	-0.09608357
148	0x3deffe29	0.11718399
149	0xbb30f6bc	-0.0027002534
150	0x3cc30f81	0.023811104
151	0x3db59531	0.08866347
152	0xbd97d011	-0.074127324
153	0xbc171b38	-0.009222798
154	0x3c6e287b	0.0145360185
155	0x3c92d23d	0.017922515
156	0xbe01930a	-0.12653747
157	0x3df3a33f	0.11896371
158	0x3cddb27f	0.027062653
159	0xbe230f59	-0.15923823
160	0xbcb77505	-0.022394666
161	0x3d0defea	0.034652628
162	0xbe00c687	-0.12575732
163	0x3dc3a47c	0.09552857
164	0x3dde15ac	0.10843977
165	0x3dbe8d66	0.09304313
166	0xb8da431e	-0.000104075516
167	0xbe0ccc92	-0.13749912
168	0x3c012033	0.007881212
169	0xbd9e04b7	-0.07715743
170	0x3d1ed590	0.038777888
171	0x3cf6642b	0.03007706
172	0xbd88d69d	-0.06681559
173	0xbd3f8358	-0.04675612
174	0xbd042c71	-0.032268945
175	0xbd6cecd0	-0.05784303
176	0xbd58c178	-0.05291888
177	0xbd8f7406	-0.070045516
178	0xbd9f67e3	-0.07783487
179	0x3dd83f61	0.105589636
180	0xbd85ea4a	-0.06538828
181	0xbc8790cd	-0.016548539
182	0x3da95dc9	0.08269841
183	0x3e103f6f	0.14086698
184	0xbd9bf042	-0.07614185
185	0x3de57316	0.112035915
186	0xbcf6c4aa	-0.030123074
187	0xbd9cf497	-0.07663839
188	0xbdb06b12	-0.08614172
189	0xbe00972b	-0.12557666
190	0x3df48b37	0.119406156
191	0x3c0e62fe	0.008690594
192	0xbd833f38	-0.064085424
193	0x3dfd5bdc	0.123710364
194	0xbe05fcc3	-0.13084702
195	0xbdb372fa	-0.087621644
196	0xbd926873	-0.07148828
197	0xbb9a0085	-0.004699769
198	0x3df333d0	0.11875117
199	0xbcb10597	-0.02160911
200	0x3c0dbead	0.008651418
201	0xbd4f198e	-0.05056148
202	0xbdcaf147	-0.09909301
203	0x3bd9b02a	0.006643315
204	0x3cb197cb	0.021678826
205	0xbabaa4b8	-0.0014239764
206	0x3d74c2e4	0.059756175
207	0xbd4a8c82	-0.049450405
208	0x3ceb95ff	0.028758047
209	0x3db32064	0.087464124
210	0xbd88466f	-0.06654059
211	0xbd8b38d5	-0.06797949
212	0xbde50867	-0.11183243
213	0x3cc21c30	0.023695081
214	0xbdded0bd	-0.108796574
215	0x3bfd67b1	0.0077333082
216	0xba05a797	-0.000509852
217	0x3dde0a12	0.108417645
218	0x3d628fae	0.055312805
219	0x3d5ac16c	0.053407118
220	0x3e43192d	0.19052573
221	0x3c8c8506	0.017153274
222	0xbe10e11e	-0.14148375
223	0x3d2825d6	0.04105171
224	0xbdc63050	-0.09677184
225	0xbdc7e64f	-0.09760725
226	0x3db8aaa2	0.090169206
227	0xbdfcf660	-0.1235168
228	0x3d663598	0.056203455
229	0x3e0511a0	0.12995005
230	0xbd538741	-0.05164266
231	0xbdaa2ec3	-0.083097
232	0xbe18bc70	-0.14915633
233	0xbd1843b5	-0.037173945
234	0x3cf2ec25	0.029653618
235	0xbcfad41a	-0.030618716
236	0x3d1be132	0.03805656
237	0x3d593c62	0.0530361
238	0x3dca00d7	0.098634414
239	0xbd910c3b	-0.07082411
240	0x3ddf9dd9	0.10918779
241	0x3dddebc4	0.10835984
242	0xbdcd3d33	-0.100214384
243	0x3d6968f7	0.056984868
244	0xbd1303e9	-0.0358924
245	0x3d2f2ef8	0.042769402
246	0xbe0e129d	-0.13874288
247	0xbd5e9bae	-0.054347686
248	0x3e044148	0.12915528
249	0x3dfe3aa4	0.124135286
250	0x3cc7e9d5	0.024403492
251	0x3c3caaa0	0.01151529
252	0xbdefbc57	-0.11705845
253	0x3df31009	0.11868293
254	0xbd85556f	-0.06510436
255	0xbcbdb9a4	-0.02315981

total_net.3.bias f4 [12]
0	0xbe174463	-0.14772181
1	0xbc0aae01	-0.008464337
2	0xbd72faf3	-0.059321355
3	0xbd82795e	-0.06370805
4	0x3d8eefa7	0.06979304
5	0x39e48cd5	0.00043592477
6	0xbc0e412c	-0.00868253
7	0x3d868df3	0.065700434
8	0x3d08fb69	0.03344289
9	0x3d638fe7	0.055557158
10	0x3db2e89c	0.08735773
11	0x3d03420d	0.032045413

weight f4 [128, 6]
0	0x3ddb7b34	0.107168585
1	0xbf2da528	-0.67830133
2	0xbf1a3626	-0.60238874
3	0x3fb283d5	1.3946482
4	0xbf7a4c5b	-0.9777276
5	0xbeb612f0	-0.35561323
6	0x3f307fec	0.68945193
7	0xbde96a69	-0.11397249
8	0x3f06893f	0.5255317
9	0x3e22c3e0	0.15895033
10	0xbf0f6ea2	-0.5602819
11	0x3ec5b2f7	0.38613102
12	0x3df2ce49	0.11855752
13	0xbf81e7f6	-1.0148914
14	0xbe5ff63d	-0.21871276
15	0xbe14045e	-0.14454791
16	0x3e1bb96b	0.1520745
17	0x3f67320e	0.9031075
18	0xbedc7eba	-0.43065435
19	0x3e9f6274	0.311298
20	0x3e6c2dd9	0.23064364
21	0xbf554c10	-0.8331919
22	0x3ea232f3	0.31679496
23	0xbf450560	-0.76961327
24	0x3ed57584	0.4169122
25	0x3bdea8d9	0.0067950306
26	0xbf330e9e	-0.6994418
27	0x3eae73a7	0.3407261
28	0xbe7f3834	-0.24923784
29	0xbd022a81	-0.031778816
30	0xbfacd0a9	-1.3501178
31	0x3ef46bb5	0.47738424
32	0xbee7b430	-0.4525466
33	0x3f5c9c61	0.86176115
34	0xbf3ac824	-0.7296164
35	0xbe8281b4	-0.2548958
36	0x3efa7723	0.4891902
37	0xbe0d4fac	-0.13799924
38	0xbeb70bb8	-0.35751128
39	0x3ed5ba02	0.41743475
40	0xbf2b9f13	-0.67039603
41	0x3f7f42cc	0.997113
42	0xbf93065d	-1.1486317
43	0x3dbb90d9	0.09158487
44	0x3e58f4bb	0.21187107
45	0xbe6d2561	-0.2315879
46	0xbeadf6e4	-0.33977425
47	0x3f0dc2fd	0.55375654
48	0xbf2c4a7f	-0.6730117
49	0xbefa03a5	-0.48830906
50	0x3e9fe6ec	0.31230867
51	0x3ebff66e	0.37492698
52	0xbc90dc97	-0.01768331
53	0x3f7adbf3	0.97991866
54	0x3daa5473	0.08316889
55	0xbe37c5aa	-0.17946497
56	0x3f7f26d4	0.9966862
57	0xbf127d28	-0.57222223
58	0xbe3ba8d6	-0.18326125
59	0x3f11914f	0.5686235
60	0xbf01fd1f	-0.5077686
61	0x3faa0c21	1.3284951
62	0xbde158a0	-0.11003232
63	0x3f010b68	0.5040803
64	0xbfa168d1	-1.2610112
65	0x3e1a0c93	0.15043859
66	0xbe961e07	-0.29319784
67	0x3e4537fa	0.19259635
68	0x3f1af927	0.60536426
69	0xbef5de9c	-0.480214
70	0x3e03e829	0.12881531
71	0x3f279d72	0.6547462
72	0x3eceba0b	0.40376315
73	0x3e3e3712	0.18575695
74	0x3fa21de6	1.2665374
75	0x3fcabb74	1.5838456
76	0xbe8c9860	-0.27460003
77	0x3dbb4cb4	0.09145489
78	0x3dcc646d	0.09980092
79	0xbe9969e1	-0.29963592
80	0x3f860743	1.0470966
81	0x3e45d33f	0.19318865
82	0xbf00c355	-0.50298053
83	0xbf9d3f0d	-1.2284867
84	0x3ddf5e03	0.10906603
85	0x3b809020	0.003923431
86	0x3e952a15	0.2913367
87	0xbf9b6139	-1.2139045
88	0xbe8408d8	-0.25787997
89	0xbec4b0eb	-0.38416228
90	0x3f0c85a1	0.548914
91	0x3e850234	0.25978243
92	0xbf01549a	-0.50519717
93	0xbf5efd68	-0.8710542
94	0xbed65a9c	-0.41866004
95	0x3daf47c5	0.08558611
96	0x3f193961	0.5985318
97	0x3dc13ce4	0.09435442
98	0x3e528e36	0.20562062
99	0x3e8994d3	0.26871356
100	0xbd9241c7	-0.07141452
101	0x3f03d3e9	0.51495224
102	0x3c4fb015	0.012676259
103	0xbc41723e	-0.011807023
104	0x3e84d731	0.25945428
105	0x3ebdadc9	0.3704665
106	0x3f20c934	0.6280701
107	0x3f1d3968	0.6141572
108	0x3d76dae6	0.06026735
109	0xbe7523e5	-0.23939474
110	0xbfa41722	-1.281956
111	0x3eae09e4	0.3399192
112	0x40077d5e	2.1170268
113	0xbf5abb65	-0.8544219
114	0x3e6f6b9b	0.23380892
115	0xbfa0815f	-1.2539481
116	0x3e7a3253	0.2443326
117	0xbde276a3	-0.110577844
118	0x3f89fe3b	1.078071
119	0xbe9eee63	-0.3104125
120	0xbe7f88c4	-0.24954516
121	0xbeedc3c5	-0.46438423
122	0x3e9a35b0	0.30119085
123	0x3e2a18c3	0.16611008
124	0xbf564631	-0.83700854
125	0x3f5858c1	0.8451043
126	0x3f218019	0.63086087
127	0xbe99351a	-0.29923326
128	0x3e2a8c73	0.1665514
129	0xbe869085	-0.26282135
130	0xbeb893a9	-0.36050156
131	0xbefade28	-0.48997617
132	0xbe7c1b1c	-0.24619716
133	0x3e345fa0	0.17614603
134	0x3f156a16	0.58365
135	0xbf1b4c84	-0.6066363
136	0x3f1dd2b0	0.6164961
137	0xbf0346cd	-0.5127991
138	0x3f19ee6a	0.60129416
139	0x3efb2b7d	0.49056616
140	0x3f04b54a	0.51839125
141	0x3e9b8e22	0.30381876
142	0xbe9e9847	-0.30975553
143	0xbd9c7905	-0.0764027
144	0x3d9a0416	0.075203106
145	0xbf4c9b0e	-0.79924095
146	0xbf19bb2a	-0.60051215
147	0x3ddbb023	0.10726955
148	0xbe96c6cc	-0.29448545
149	0x3e9eb135	0.30994573
150	0x3f100b56	0.562673
151	0xbd528857	-0.051399555
152	0x3e8ec804	0.27886975
153	0x3eaad585	0.33366027
154	0xbe6eef6d	-0.23333521
155	0x3fa910be	1.3208234
156	0xbe786682	-0.24257854
157	0xbf0e62de	-0.5561961
158	0x3e90cf26	0.28283042
159	0x3e0890a7	0.1333643
160	0x3e2f337e	0.17109486
161	0x3f2d4daf	0.6769666
162	0x3f15d7b3	0.58532256
163	0x3f3c6ad9	0.73600537
164	0xbef685ee	-0.48149055
165	0x3f502779	0.8131023
166	0xbf230599	-0.63680416
167	0x3f71a1a7	0.94387287
168	0x3e175fd1	0.14782645
169	0xbe3d52f1	-0.18488671
170	0xbf2c65f6	-0.6734308
171	0xbe962b42	-0.29329878
172	0x3e9a0cbe	0.30087847
173	0xbd315c1d	-0.043300737
174	0x3f0b99e6	0.54531705
175	0xbe108528	-0.14113295
176	0x3f1b367e	0.60630023
177	0xbea3c194	-0.31983626
178	0x3ebcca2b	0.36872992
179	0xbed40c77	-0.4141576
180	0xbf7da04e	-0.9907273
181	0x3e990d20	0.29892826
182	0xbe2008ee	-0.15628406
183	0x3e332308	0.17493832
184	0xbd849ca3	-0.064751886
185	0xbf108ef8	-0.56468153
186	0xbe1796f5	-0.1480368
187	0xbebfc2f4	-0.37453425
188	0xbd67c385	-0.056582946
189	0x3e0557b2	0.13021734
190	0xbdd7c762	-0.10536076
191	0x3d812b63	0.063071035
192	0x3da4ea19	0.08052463
193	0xbe6e5196	-0.2327331
194	0xbf0defb9	-0.5544391
195	0x3f2c5fd6	0.67333734
196	0x3f9b35d4	1.2125802
197	0x3ed0b87d	0.40765753
198	0xbf56e38b	-0.83940953
199	0xbf15edd0	-0.58566
200	0x3dd95ec2	0.10613777
201	0x3f39e5d7	0.7261633
202	0xbf0df5fe	-0.5545348
203	0xbf34c0fd	-0.70606977
204	0x3e7dec52	0.2479718
205	0xbf5784f6	-0.8418726
206	0xbd8fb055	-0.070160545
207	0x3d038efa	0.032118775
208	0x3fbf0024	1.4921918
209	0xbde303df	-0.11084723
210	0xb9c223e7	-0.00037029313
211	0x3efb11b3	0.4903694
212	0xbf90d046	-1.131356
213	0x3dfee115	0.12445275
214	0xbcbda90f	-0.023151902
215	0xbf3bd5b9	-0.7337299
216	0xbe916cc3	-0.2840329
217	0x3f366d87	0.71260875
218	0xbdaa821e	-0.08325599
219	0xbf0a2053	-0.5395557
220	0xbf50d879	-0.8158031
221	0x3eeb8ecd	0.46007386
222	0x3e060950	0.1308949
223	0x3e2bdab5	0.16782649
224	0x3f0d95c3	0.55306643
225	0x3f45c876	0.77259004
226	0xbdfb2db2	-0.12264575
227	0xbeb456c5	-0.3522245
228	0xbf2c123c	-0.67215323
229	0x3e0f5d5e	0.1400046
230	0xbf11a962	-0.5689908
231	0x3e5cddd4	0.21568996
232	0x3e0b19d8	0.13584077
233	0xbd6d74f7	-0.057972874
234	0x3f14dd31	0.5815001
235	0x3efd0813	0.49420223
236	0xbe7203dc	-0.23634285
237	0x3f7d1524	0.98860383
238	0x3e72e3ec	0.23719758
239	0xbf026df4	-0.50949025
240	0x3ed149e9	0.408767
241	0xbeb2baa5	-0.34908023
242	0xbeb5e032	-0.3552261
243	0x3ec397c5	0.38201728
244	0xbf727165	-0.94704276
245	0x3dfbddb9	0.122981496
246	0x3ba84457	0.0051351
247	0xbdcddc30	-0.10051763
248	0xbedc1c6b	-0.4299043
249	0x3e29b965	0.16574629
250	0xbeffe681	-0.49980548
251	0x3e859420	0.26089573
252	0xbdab82d4	-0.08374563
253	0x3e058710	0.13039804
254	0x3f815343	1.0103534
255	0x3cac1cc7	0.021009816

bias f4 [128]
0	0x3e01903e	0.1265268
1	0xbd64161d	-0.05568515
2	0xbd31b2d2	-0.043383427
3	0x3e0b5c24	0.13609368
4	0x3d772a64	0.06034316
5	0x3c404551	0.011735276
6	0x3e2bd375	0.16779883
7	0x3cf122fe	0.02943563
8	0x3d8519c4	0.06499055
9	0xbc331c19	-0.010931992
10	0x3ad31ebb	0.0016107181
11	0x3da93010	0.0826112
12	0x3e31f8c5	0.17380054
13	0x3d29eda2	0.04148639
14	0x3e834f0e	0.2564625
15	0xbbbd7a69	-0.0057824147
16	0x3df0f593	0.117655896
17	0x3e10d32a	0.14143053
18	0x3dcb4da1	0.09926916
19	0x3cbc1965	0.022961328
20	0x3dbb7cbd	0.09154651
21	0xbc5f8e02	-0.013644697
22	0x3e246698	0.16054761
23	0x3daef1ce	0.08542214
24	0x3d900f30	0.07034147
25	0xbb4e6508	-0.0031493325
26	0x3d504874	0.050850347
27	0x3e4afa08	0.19821942
28	0x3d742dbb	0.059613924
29	0x3e6a1280	0.2285862
30	0x3e2c35ce	0.168174
31	0x3cb5e5bf	0.022204278
32	0x3e34e162	0.17664102
33	0x3cf3f9d9	0.029782223
34	0xbd362291	-0.04446656
35	0xbe9f4c6f	-0.31113002
36	0x3e14df68	0.14538348
37	0x3e4de006	0.2010499
38	0x3a8817bc	0.001038305
39	0x3e2e8549	0.17043032
40	0x3d2448aa	0.04010836
41	0x3db19cb4	0.08672467
42	0x3ca0beeb	0.019622287
43	0x3e867cd9	0.26267126
44	0x3e1670f9	0.14691533
45	0x3c812aa4	0.015767403
46	0x3d328add	0.04358946
47	0x3e2331f4	0.15937024
48	0x3e01042d	0.12599249
49	0x3d18212c	0.03714101
50	0xbc22defa	-0.009940857
51	0x3ab3ad3e	0.0013708246
52	0x3ddc256f	0.107493274
53	0xbd7cdd51	-0.0617345
54	0xbd9edd72	-0.07757081
55	0x3deb6c77	0.114952974
56	0x3ce07df2	0.027403805
57	0x3dfb4f58	0.12270993
58	0x3e4c0f41	0.19927694
59	0xbe36c8de	-0.17850062
60	0x3d14c21b	0.036317926
61	0x3ce6c52e	0.028170194
62	0xbd789542	-0.06068922
63	0x3c89fe89	0.016845005
64	0xbd4c60eb	-0.049897116
65	0x3e279e67	0.1636902
66	0xbcadc40f	-0.021211652
67	0x3d8e7a61	0.06956936
68	0x3de00592	0.109385625
69	0x3db7ada4	0.08968666
70	0x3e04b66a	0.1296021
71	0x3cc5a388	0.02412583
72	0x3e25f332	0.16206053
73	0x3de7c112	0.11316122
74	0xbd95cff9	-0.07315058
75	0xbd070e5c	-0.03297268
76	0xbd5963a3	-0.053073537
77	0xbd0c28d5	-0.034218628
78	0xbe1a3709	-0.15060057
79	0xbdba2f04	-0.09090999
80	0x3d93a2ed	0.0720881
81	0x3e763ce6	0.24046668
82	0x3e631f5a	0.22179928
83	0x3c71f1af	0.0147670945
84	0x3dfdb9f9	0.12388987
85	0x3d458afe	0.048228256
86	0x3e238eb4	0.15972406
87	0x3ddfa1f4	0.10919562
88	0x3d95b66d	0.073101856
89	0x3e35ceee	0.17754719
90	0x3dcc09a7	0.099627785
91	0x3cb97177	0.022637112
92	0x3bf0c093	0.0073471754
93	0xbd4e60d5	-0.050385315
94	0x3e11b44b	0.14228933
95	0x3e32429f	0.17408226
96	0x3d6bc19e	0.057557695
97	0x3d9f6786	0.077834174
98	0xbbd08f58	-0.006364744
99	0xbd54fcda	-0.05199895
100	0x3e568a2b	0.20951144
101	0x3db168a6	0.08662538
102	0x3e0de9c2	0.13858703
103	0x3e70374a	0.23458591
104	0x3e128f0b	0.14312379
105	0x3df6f1fd	0.12057874
106	0x3dd3ce9c	0.10342142
107	0x3db855c3	0.09000733
108	0x3d8ddce3	0.069268964
109	0xbb9cc870	-0.004784636
110	0x3e9023a4	0.28152192
111	0x3d9661da	0.073428825
112	0x3df97943	0.12181332
113	0xbb79b997	-0.0038105005
114	0xbc597755	-0.01327308
115	0xb96a5a5c	-0.0002234964
116	0x3d0da5f0	0.03458208
117	0xbda89748	-0.082319796
118	0x3cd8626f	0.026414124
119	0x3da81dde	0.08208822
120	0xbd1c2b64	-0.038127318
121	0x3d5d1ed1	0.053984467
122	0x3de6461c	0.11243841
123	0x3e553952	0.20822647
124	0xbe06483c	-0.13113493
125	0x3dfbb1be	0.12289761
126	0x3e28e001	0.164917
127	0x3e4a3525	0.19746836

weight f4 [64, 128]
0	0x3cb200e8	0.021728948
1	0xbe1f67d7	-0.15566956
2	0x3bae029b	0.005310369
3	0xbc0358d1	-0.008016781
4	0x3d770cf9	0.060315106
5	0xbdf856f7	-0.12125962
6	0x3e1e3262	0.15448907
7	0x3dd171b5	0.10226766
8	0x3da13558	0.07871503
9	0xbd7cb5b6	-0.06169673
10	0xbd82948e	-0.06375991
11	0x3b6767be	0.0035309638
12	0xbdd0aa61	-0.10188747
13	0x3e031fba	0.12805071
14	0x3e09f7e8	0.13473475
15	0x3c94a4fc	0.018145077
16	0x3c6a169f	0.01428762
17	0xbdd2eab4	-0.10298672
18	0x3da12bf7	0.07869714
19	0x3dc2016d	0.09472928
20	0xbd9c85c1	-0.07642699
21	0x3dcae783	0.099074386
22	0x3e07484d	0.13211174
23	0x3e9438a9	0.28949478
24	0x3e241d32	0.16026762
25	0xbe55f4c1	-0.20894147
26	0xbd778b98	-0.06043586
27	0x3d17c3f4	0.03705211
28	0xbd6ac3fa	-0.057315804
29	0x3d4a3348	0.04936531
30	0xbe89ca7c	-0.26912296
31	0x3dc240d6	0.09485023
32	0xbb062497	-0.0020468587
33	0x3de2204f	0.110413186
34	0xbbfde383	-0.007748069
35	0x3b1a8e10	0.002358321
36	0x3c32953c	0.010899838
37	0xbbdedf40	-0.006801516
38	0x3ddd7eee	0.108152255
39	0x3c825f3b	0.01591455
40	0x3e249419	0.1607212
41	0xbd1341bd	-0.035951365
42	0x3b0becc4	0.002135084
43	0xbd956524	-0.07294682
44	0x3d606816	0.054786764
45	0x3d346222	0.0440389
46	0xbe5d6fde	-0.21624705
47	0x3df5c16d	0.11999784
48	0x3df9875f	0.12184023
49	0xbeebfe92	-0.4609266
50	0xbe344302	-0.17603686
51	0xbb222321	-0.0024740177
52	0x3df64acd	0.12025986
53	0x3e4c2a93	0.19938116
54	0x3cb15301	0.021646025
55	0x3e14cf70	0.14532256
56	0x3db1068e	0.08643828
57	0x3ce7e3d1	0.028306874
58	0x3cadebd9	0.021230625
59	0xbe2c6edf	-0.16839169
60	0xbd8de450	-0.06928313
61	0x3d5831a8	0.05278173
62	0xbd94460c	-0.07239923
63	0x3da0a9ca	0.07844885
64	0xbe0d74da	-0.13814107
65	0xbc5a1e8f	-0.01331295
66	0xbcc835d3	-0.024439728
67	0x3c8732e8	0.016503766
68	0x3e1585b5	0.14601786
69	0x3e0dcf24	0.13848549
70	0x3df1c08d	0.11804304
71	0x3dd5b3cf	0.104346864
72	0xbcec9dfa	-0.028883923
73	0x3ce3632c	0.02775725
74	0x3de3e882	0.11128332
75	0xbd0e8f6d	-0.03480475
76	0x3d282b19	0.041056726
77	0x3d4dec4f	0.05027419
78	0xbe182d74	-0.14861089
79	0xbc742f6e	-0.014903886
80	0x3b0486a6	0.0020221858
81	0x3e6bb6a4	0.2301889
82	0x3d8c5bf5	0.06853477
83	0x3e5f04a9	0.21779121
84	0xbce5485f	-0.02798861
85	0x3e36895c	0.17825836
86	0xbe0d5b97	-0.1380447
87	0xbe207cf7	-0.1567267
88	0x3e558372	0.20850924
89	0x3ceaf73f	0.02868235
90	0x3cf16d56	0.02947108
91	0xbe3035d5	-0.17208035
92	0x3d32f5f2	0.043691583
93	0x3da11862	0.07865979
94	0x3d9806bc	0.074231595
95	0xbe10892b	-0.14114825
96	0x3d164197	0.036683645
97	0x3d6c7d78	0.057736844
98	0xbc54aef2	-0.012981163
99	0xbdeef996	-0.116686985
100	0xbc039f52	-0.00803359
101	0x3db3d525	0.087808885
102	0xbc7929bd	-0.015207705
103	0x3e4a506f	0.19757245
104	0xbe45043b	-0.19239895
105	0xbcd59946	-0.026074063
106	0x3d270291	0.040773932
107	0xbd3cdf1c	-0.04611121
108	0x3e23f39d	0.160109
109	0xbbf9a4c8	-0.0076185204
110	0xbd05bda0	-0.032651544
111	0x3e4a7036	0.19769368
112	0x3d74bd1d	0.059750665
113	0xbcf7cc55	-0.0302488
114	0xbe838b25	-0.25692096
115	0xbdc5c4a6	-0.09656648
116	0xbcc6dcae	-0.02427515
117	0xbe54d8db	-0.20785849
118	0x3d760704	0.060065284
119	0x3ead5864	0.338565
120	0x3e13e485	0.14442642
121	0xbe3564d0	-0.17714238
122	0x3e70bc94	0.23509437
123	0xbcdd79a7	-0.027035547
124	0xbda22863	-0.079178594
125	0x3c06eae0	0.0082347095
126	0xbd3c6501	-0.045994762
127	0x3d8cc894	0.06874195
128	0x3e7d1849	0.24716295
129	0xbe56f99c	-0.20993656
130	0x3e0a2fc1	0.13494779
131	0x3dede1e8	0.11615354
132	0x3d680955	0.056649525
133	0x3d14f991	0.036370818
134	0x3d728f57	0.05921873
135	0x3ea42c6b	0.32065138
136	0x3d3cd7c4	0.046104208
137	0x3e747aaa	0.23874918
138	0xbd8256e2	-0.06364228
139	0xbd24a0fd	-0.040192593
140	0x3d4e2aed	0.050333906
141	0x3de10b69	0.109885044
142	0xbda54e86	-0.08071618
143	0xbc9d5668	-0.01920624
144	0xbd46dc7c	-0.048550114
145	0x3dd7d3ea	0.10538466
146	0xbde4b96e	-0.111681804
147	0xbd0b38df	-0.033989783
148	0x3c4a3191	0.012340919
149	0x3dd3d9a5	0.10344247
150	0x3ddd08b7	0.10792678
151	0x3e2fe932	0.171788
152	0x3dd4a923	0.10383823
153	0xbe144699	-0.14480056
154	0xbad3ce35	-0.0016159477
155	0x3d8c4526	0.068491265
156	0xbd29c991	-0.041451994
157	0x3e3ba5a7	0.1832491
158	0x3d9cb626	0.076519296
159	0x3dc03ed9	0.09386987
160	0x3e244a94	0.16044074
161	0xbcbddd5e	-0.023176845
162	0x3e6b85b7	0.23000227
163	0xbeb86f4c	-0.36022413
164	0x3a8571b0	0.0010180976
165	0xbdada5cf	-0.08478891
166	0xbc35211e	-0.011055259
167	0x3d6ae2c2	0.05734516
168	0x3d240143	0.040040266
169	0x3e4d90ba	0.2007474
170	0x3d41727f	0.047228333
171	0x3bd2dee9	0.0064352644
172	0xbd8155d6	-0.063152
173	0xbd2a5857	-0.041588154
174	0xbe152338	-0.14564216
175	0xbdf1c3fe	-0.11804961
176	0xbda738b3	-0.081651114
177	0xbce0bb09	-0.027432935
178	0x3be18837	0.006882693
179	0xbdedbda5	-0.116084374
180	0xbd740ea9	-0.059584294
181	0xbe3ab359	-0.18232478
182	0xbd3a19e9	-0.045434866
183	0xbe34cb33	-0.1765564
184	0xbe6c7321	-0.23090793
185	0xbc4983c3	-0.012299481
186	0xbd5f3353	-0.054492306
187	0x3df9f83a	0.122055486
188	0x3def9268	0.11697847
189	0x3e3d8cc3	0.18510728
190	0x3e8f52a0	0.27992725
191	0x3dece742	0.115675464
192	0x3d293941	0.041314367
193	0x3daa080c	0.08302316
194	0xbde0e455	-0.10981051
195	0xbe260c8a	-0.16215721
196	0xbc4d89aa	-0.012545029
197	0x3e2dea9f	0.16984032
198	0x3e11d034	0.1423958
199	0x3cf55752	0.029948864
200	0x3d4a5048	0.04939297
201	0xbd474e1e	-0.048658483
202	0x3e1bcf6a	0.15215841
203	0x3c124c35	0.008929302
204	0xbc266681	-0.010156275
205	0x3d33f86f	0.043938097
206	0x3db763bd	0.089545704
207	0xbdfdefec	-0.12399277
208	0x3d417dea	0.04723922
209	0x3e44eab0	0.19230151
210	0x3e565c23	0.20933585
211	0xbc318451	-0.010834769
212	0xbe27b622	-0.16378072
213	0x3b8f1b81	0.0043672924
214	0x3c1b3451	0.009472922
215	0xbe1c6fa1	-0.15276958
216	0xbe8110a8	-0.2520802
217	0x3e47c716	0.19509539
218	0x3df86e79	0.12130446
219	0x3de4187e	0.11137484
220	0x3e418b43	0.1890078
221	0xbe2cfd3d	-0.16893478
222	0x3daa602e	0.08319126
223	0xbd3f8b17	-0.046763506
224	0x3d6f5e27	0.0584394
225	0xbd2619fd	-0.040552128
226	0x3e326328	0.17420638
227	0xbe30b64a	-0.17257038
228	0x3ce56f4d	0.028007174
229	0xbe6fc4a5	-0.23414858
230	0xbc8878b2	-0.016659115
231	0x3ded953e	0.11600731
232	0xbdaae20a	-0.08343895
233	0x3d18e1af	0.037324604
234	0x3d1d2fe1	0.03837574
235	0xbe4800c7	-0.19531547
236	0xbcfabb1a	-0.030606795
237	0xbe1d7aac	-0.15378827
238	0x3b8f2d3a	0.004369405
239	0x3e8c97c4	0.27459538
240	0xbc086e6a	-0.008327106
241	0xbd7b4559	-0.061345432
242	0xbce038ee	-0.027370896
243	0x3d08a4ad	0.033360172
244	0x3d3196a0	0.043356538
245	0x3df8b8f3	0.12144651
246	0xbe0b338a	-0.1359388
247	0x3e562f10	0.2091639
248	0x3d5d9203	0.054094326
249	0x3dab5325	0.08365468
250	0x3c543f03	0.012954476
251	0xbc3db366	-0.011578416
252	0xbdda47c5	-0.1065822
253	0x3c3157b3	0.010824132
254	0xbc273cf8	-0.010207407
255	0x3e830cb6	0.25595635
