Modeling eMNS/Trained_model/EMS_ANN_v2.pt (torch, 58596 bytes, 16 tensors)

total_net.0.net.0.fc.weight f4 [128, 15]
00000000: 0160 f33d 4373 3a3d 9e4a bbbb 994f eabd
00000010: f67c e9bd b9e8 9e3c 1f13 a3bd c746 ddbd
00000020: 3af7 1dbe 5012 b4bd 769a 333f 28c2 dc3d
00000030: fb33 eebd 9e7b 27be f008 5ebf 3520 593e
00000040: f241 05bd 3f66 cfbc 581a 03bf 3d00 2b3e
00000050: 4567 eb3c 5247 433d 057c c03d bdd8 613d
00000060: bbef 13bd e540 13be 2068 ebbd c7ca a9bd
00000070: 906b 243f 4023 f33e 0219 533d 00d4 b13a
00000080: 6b47 a73b 1f12 d8bd 2499 7cbd 0803 65bd
00000090: 9a95 953c 8c92 3bbd 184b 0cbe 74e2 8c3f
000000a0: 115e 1ebd 71f1 a5bd b4da 13bf 84f3 d0bc
000000b0: 3384 73be 4573 243e fa45 f0bd 5a10 9abe
000000c0: 86b0 4fbe a8a6 1fbc b1e7 f03d d139 783d
000000d0: bf02 2c3d 2f3e e23d aac3 f23d adcb 883e
000000e0: 8633 97be 2175 07bf 87d6 fe3e 976c ac3e
000000f0: e84c 2fbd 00a3 87bc 84b0 f1bd f875 2f3d
00000100: f065 2a3e 3e35 21bf 5a09 7c3e 2f48 113c
00000110: f5d2 12bc 0351 e8bd ef10 babd f91b 943c
00000120: 3f7f fa3e 9f13 863e 5ac3 06bf 21c5 a0bd
00000130: fd8b 2ebf d4ea ad3d 176c 533d 9191 33be
00000140: 2801 13be ad70 0dbe 2abb 0dbe 474e 523e
00000150: 3543 3c3e 44e0 613e 5cbc 1fbd 06ce eabe
00000160: 4291 de3e 660f 19bd ef61 a5bd 7926 f0bd
00000170: 1842 223e d2f6 a13e 6387 a13e e2df 893c
00000180: 6749 413c 7c28 513d 19ab d73d cc3c e3bd
00000190: 0dfe c3be b3f9 81be ce30 49be 42ed 92be
000001a0: c3af bf3c 10a2 45bd bbb0 ce3e 0fe8 0fbb
000001b0: 0f38 b0bd ad53 eabd b8ab 9ebd 7f10 c1bc
000001c0: b782 673d a4ed 69be d20e 1cbf b484 d13d
000001d0: aa47 f73d b0b7 b6be cc21 3f3c 8b76 cabe
000001e0: f780 cbbb 2224 933c f26d 293d 3cf6 883d
000001f0: 685b 153b 7ddb 9fbb af1e f93d 58b5 a13d
00000200: c8f3 70bf ab8b 843e 4358 0e3d 8fb0 163e
00000210: 1bf0 46be d997 0b3f b31f d9be 10ce a1be
00000220: eead 973e ce74 d03e ec0b bdbd 0eed 03bd
00000230: c12a 57be c72e f63b 7dd6 803c 3241 45be
00000240: 4ab3 b73c 7bd4 9e3d dfd5 a4bc 3679 a83e
00000250: 907d 523e ae04 6b3f d385 bcbc c657 0abe
00000260: e6eb 973f dd03 efbd 283d 84bd f86d 56bc
00000270: 6cfa 1e3c 059a efbc 6212 acbd 67a0 bcbc
00000280: f7a5 493c 139f b23b eace d53d 1272 89be
00000290: fbaf a0bd 3a34 263d 8af0 a9bb 38aa b7be
000002a0: 6b63 713f 3cd7 46be c6b4 88bc 4fdd 92bd
000002b0: 457c 38b8 515a 533d bf7f 493c 0169 cb3d
000002c0: 8d1e 3ebd 465b 073f e97a 523d 6bd2 fbbe
000002d0: 9381 bdbe e821 8d3d b290 1d3e 4e1a bc3d
000002e0: 4d76 983e 5701 f0bd f548 c0be f2f5 57be
000002f0: 8895 bf3e ae7b 0e3d 0223 8a3e e47c 0bbd
00000300: 32ef c13e 0822 d6bd dbc1 d1be d678 3abd
00000310: 4293 1cbd aae4 1bbd ac44 42bd 7afb 3dbb
00000320: 4149 ed3c 16d0 c7bd 62f4 5d3f 5416 51bd
00000330: e706 5abd 5a40 92bc c42b 2cbd b357 68b9
00000340: abda 303e c12c 12be 9179 eebc 2742 05bd
00000350: d375 e9bb ec57 48bd b56f c3bb ec05 27bd
00000360: bb48 b6bd 85d2 33bd e8a0 58bd 3ae6 28bd
00000370: c3e0 78bd 0d8d 653f cd71 1c3d 3834 80bd
00000380: d7f2 13be 320f 613f d3e5 19be d24b a33d
00000390: 59a7 763d 2254 573d 772b 313d 60d7 f4bd
000003a0: f9d3 e7bc 682e 19bd 62f1 a6bd f649 a53c
000003b0: bbd3 28be bbf2 0f3f 30e2 c5bd b873 303e
000003c0: 701c 26be 8cdd bf3d 8fca 87bd 7d91 5ebe
000003d0: 6bf9 323e 6fb6 8c3d 5c88 a33e ec6b c23d
000003e0: d52a 383d 025f 57bd f3e3 f03c 3a45 25be
000003f0: 86bf 313e f4b4 333f 434b c1be 1b11 a5be
0.11883546 0.04552008 -0.005715682 -0.11440963 -0.114007875 0.01939808 -0.079626314 -0.10804515
-0.1542634 -0.08792555 0.70157564 0.1077922 -0.11631008 -0.1635575 -0.8673239 0.21203692
-0.032533593 -0.02531731 -0.5121207 0.1669931 0.028735766 0.04767544 0.09398655 0.05513834
-0.036117297 -0.14380224 -0.1149447 -0.0829063 0.6422663 0.4748783 0.05153752 0.0013567209
0.005104949 -0.10550331 -0.061669484 -0.055911094 0.018259812 -0.045794055 -0.13700521 1.1006608
-0.038663927 -0.08102692 -0.5775559 -0.025506742 -0.23780899 0.16059597 -0.11732097 -0.300906
-0.20282182 -0.009744324 0.11762942 0.060602013 0.041994806 0.11047017 0.11853726 0.26717892
-0.29531497 -0.529131 0.49773046 0.33676597 -0.042797953 -0.016557217 -0.11801246 0.042837113
0.16640449 -0.62971866 0.24612942 0.008867308 -0.008961429 -0.11343577 -0.09085261 0.018079745
0.48925206 0.26186845 -0.5264183 -0.07850099 -0.68182355 0.084920555 0.051616754 -0.17535998
-0.1435591 -0.13812514 -0.13840929 0.20537673 0.18385012 0.22058207 -0.038997993 -0.45860308
0.43470198 -0.0373682 -0.0807532 -0.11726088 0.15845525 0.3163362 0.31548604 0.016830388
0.011797286 0.051064 0.10530681 -0.110955805 -0.38279763 -0.25385818 -0.19647524 -0.28696638
0.02339924 -0.048250258 0.4036921 -0.0021958386 -0.08604442 -0.11441741 -0.077475965 -0.023567436
0.056521144 -0.22844559 -0.60960114 0.10230389 0.12074216 -0.35687017 0.011665773 -0.39543566
-0.006210442 0.017961565 0.041364618 0.066875905 0.0022790078 -0.00487846 0.121640556 0.07895917
-0.9412198 0.25887808 0.03475214 0.1471579 -0.1942753 0.54528576 -0.42406997 -0.31602526
0.29624885 0.40714115 -0.092307895 -0.032208495 -0.21012403 0.0075129005 0.015727276 -0.19263151
0.022424359 0.07755371 -0.020121513 0.32904977 0.20555711 0.91804016 -0.023013031 -0.13510045
1.1868865 -0.11670659 -0.06456977 -0.013087742 0.00970326 -0.029248247 -0.08401944 -0.023025705
0.0123076355 0.005451092 0.10439856 -0.2684484 -0.078460656 0.04057715 -0.005186145 -0.35872054
0.94292325 -0.19418043 -0.016687762 -0.071711175 -4.3984754e-05 0.051599804 0.012298523 0.09932137
-0.046415854 0.5287365 0.051386748 -0.49183974 -0.3701292 0.06891233 0.15387228 0.09184705
0.29777756 -0.117190056 -0.37555662 -0.21089914 0.3741877 0.03478592 0.26979834 -0.03405465
0.37877804 -0.1045571 -0.40968212 -0.045525394 -0.038226373 -0.038059868 -0.04742877 -0.0028989003
0.028965594 -0.09756486 0.86701024 -0.051046684 -0.05322924 -0.01785295 -0.042033926 -0.00022157915
0.17270915 -0.14274885 -0.029110702 -0.03253379 -0.0071246414 -0.048911974 -0.0059642443 -0.040777132
-0.08900591 -0.04390194 -0.052887827 -0.041235186 -0.060761224 0.8966835 0.038194466 -0.0625996
-0.14448105 0.8791381 -0.15029077 0.07973446 0.06021819 0.05257047 0.043254342 -0.11955142
-0.028299319 -0.037397772 -0.08151509 0.020176869 -0.16487019 0.5622975 -0.096622825 0.17231643
-0.16221786 0.093684286 -0.06630432 -0.21735187 0.17477958 0.06870734 0.3193997 0.09493241
0.044962723 -0.05258084 0.02940557 -0.16139689 0.17358217 0.7019799 -0.37752733 -0.32239613

total_net.0.net.0.fc.bias f4 [128]
00000000: d768 33be 67ea 853d 8449 bdbd ea93 ee3e
00000010: bbca 9b3d c902 ff3d 372c d9bd 046a 653d
00000020: 63cb 29be 9a9d d5bd 9ca4 15bf 71df ee3e
00000030: ebb4 5a3e 818f db3e e063 053f 7c1e 1abe
00000040: ca33 463e dd3d 8abe d209 903e 7360 debe
00000050: cf48 a73e edef c33e 263a 8fbe f26a 2c3e
00000060: e12e eebc 68d5 0abe c4c5 c03e 9bc6 19be
00000070: 65b9 bf3e d761 093f 42cf e8bd cb50 433e
00000080: de2d e43c 9620 b1bc c207 5abe d2a8 0d3f
00000090: 6d21 d9bd 1900 fdbc fc7b 88be 3ec1 f03b
000000a0: 4f69 a73e 3911 91be 7543 143e 840b 773d
000000b0: 9263 d83d a6ba 26be eb1e d5bd 3d5e c43e
000000c0: e123 13be 6c4c 903e 1b2b 153f 4f0f 033f
000000d0: 4500 a03d c415 ccbe af45 b03e ccd7 b9be
000000e0: eb8c c13d 695d a93e 3a86 6a3e 8bc3 a6bd
000000f0: fcb2 463e 76ae e2bd 2360 fb3e 9978 9c3d
00000100: 7440 223f 3095 d53e 1fd8 d13e 0429 183e
00000110: 50cd e13d b38c b0be d32f 4ebe ffef d43e
00000120: ebff 783e 49ea d13e 271f 333f 619e 063e
00000130: 9cc8 eebc 1cbf 9ebd 3aeb abbe 6f1d 2ebd
00000140: 926d 32be ced4 903e d8f4 2bbe 0b1a d7bd
00000150: dac9 ddbe d566 c03e 97a8 383f fa9d d73e
00000160: eabc 44be 7998 e13e 6bcb 78bd d708 8ebd
00000170: 27ce 303e f0e7 12bd 36dd fa3e 70b7 70be
00000180: fcf5 833c ec1f 32bf b0ea 24bd 6984 1a3e
00000190: 0450 16be e531 a63c a950 c43e b76b a63e
000001a0: d6db 853e 0641 1f3f b53b db3e d1e8 4d3e
000001b0: 7e6f f23e 8433 c6bc 16e8 d63e 4616 2ebd
000001c0: 0484 fbbd 969c a1bc 73c8 093e 1b30 203e
000001d0: 0f6b 3bbf 53dd 28bd eca8 e8be 0eef 3a3e
000001e0: 12ff e83e 53f1 703e 9146 853c 9d36 59bc
000001f0: a15b acbe 9e40 47bd ce9d 073f 86b5 42bd
-0.17520462 0.06538849 -0.092425376 0.46597224 0.07607027 0.12451703 -0.106041364 0.056009308
-0.16581492 -0.10430451 -0.584543 0.46654847 0.21358077 0.42882922 0.5210552 -0.15050691
0.19355693 -0.27000323 0.28132492 -0.4343296 0.32672736 0.38268986 -0.2797405 0.16837671
-0.029075088 -0.1355797 0.37650883 -0.15017168 0.37446132 0.53664917 -0.11367656 0.19073789
0.027853902 -0.021621983 -0.21292022 0.55335724 -0.106020786 -0.030883836 -0.26657093 0.007347255
0.32697532 -0.28333452 0.14478858 0.060313717 0.105658665 -0.16282138 -0.10406288 0.38353148
-0.14369155 0.28183305 0.582689 0.51195234 0.078125514 -0.39860356 0.34428164 -0.36297452
0.09450706 0.3307908 0.22902766 -0.081427656 0.19404215 -0.11068432 0.49096784 0.0764019
0.633796 0.41715384 0.409852 0.14859396 0.110254884 -0.34482345 -0.20135431 0.41589352
0.24316375 0.40999058 0.6996941 0.13146354 -0.029148392 -0.07751295 -0.335779 -0.04250854
-0.1742461 0.28287357 -0.16792619 -0.10503014 -0.43318063 0.37578455 0.7213225 0.42112714
-0.1921269 0.4406164 -0.06074087 -0.0693528 0.17266141 -0.035865724 0.48996896 -0.23507476
0.016108505 -0.6957996 -0.040262878 0.15089573 -0.14678961 0.020287463 0.3834279 0.32504055
0.26144284 0.6220859 0.4281899 0.20108344 0.47350687 -0.024194486 0.41973943 -0.04250171
-0.12281039 -0.019727986 0.13455372 0.15643351 -0.73210233 -0.041226696 -0.45441377 0.18255255
0.45507103 0.23529558 0.016269 -0.01325765 -0.33663657 -0.048645608 0.52975166 -0.047536395

total_net.1.net.0.fc.weight f4 [64, 128]
00000000: 0312 1abe 9e60 04be 8384 7fbe e2cc 9fbd
00000010: 1948 b8bd ca51 783e 2859 303e b12f 6e3e
00000020: e54c 98bd b1bb 58bd 5f9b 81bc 9ccf 15be
00000030: 35ac 96bc 549e 03bd c195 1a3e c661 2dbe
00000040: c3c9 24bd f2a4 25be 807b 093e 5250 d53d
00000050: 6d00 ce3c 010d d1bc f315 283e fed3 093e
00000060: 7fc8 853d 0977 fd3d 872f 85be 21a9 3dbe
00000070: 6258 10bf 306d 86be 524f 303e 5032 3c3d
00000080: 98a7 27be 2229 0b3d f667 9fbe 0fb0 713d
00000090: eaa7 08bc 81ec a43e 6936 603e 0995 d23c
000000a0: 6302 b7b9 4938 4c3d 66d9 e23d 17a4 813e
000000b0: c7de 9c3b 8c0d ed3d 40cd 043d 35c5 443d
000000c0: 1352 8c3d b09b b4bd 5052 343e e0e1 7dbd
000000d0: 9fec a83c eda5 af3d fe64 f3ba 861f 4e3d
000000e0: 4e9c 7d3d df81 f139 574a a1bd 022d 17bd
000000f0: 4a3c f7bd 3acc 8ebd a70d 84be fb58 263e
00000100: ce01 0f3d 65b9 073c 54e4 e3bb ffcc 783e
00000110: 443b 893c 7e58 153e 3cc4 a7bd 3ead 4a3d
00000120: 56f6 d7bd 23da 043b 26db 8fbe 6374 3f3c
00000130: 7efc d03d 804d 2e3e 0e01 db3d 7746 4abe
00000140: 3438 4b3d 3f6e 1cbe f400 4b3d 4fc8 e6bd
00000150: 48a5 5d3c 0e36 f5bd 995e 21be 05e6 0e3e
00000160: f039 e23d d23e 223e e21d 733d dce7 003d
00000170: 7e62 243e 2a1d 623e 61de 70bd 7d15 563e
00000180: aa6a df3d d7b0 8abd b429 eebc ed43 e23d
00000190: 6525 92be 5d16 85be 1be1 ffbe f93d 703e
000001a0: a41c 96bc 6536 cfbd 3a6a 0dbe 1081 a6bc
000001b0: 567b bcbd 8068 8dbe 14fe 02bd 3935 0ebe
000001c0: feb5 bebd 5fa4 cb3e 856a 2abc 9dfa fe3d
000001d0: 91e6 f23d 13ba c8bc 945f d6bd bafb 983e
000001e0: 2c8a 2c3d 46d0 883d 8d80 213d 7504 3e3e
000001f0: d53a 113d b83e dcbd df41 09bd 21ef aabb
00000200: 4608 8c3e 3789 d33d 7dbc 85bd 7d85 c1bd
00000210: 2283 89bd d48d d2bd da33 3a3e cbbe 843d
00000220: cbf9 e1bd b657 bebd 6d54 8f3e b778 0bbe
00000230: 13e4 e83b 59c8 8d3d 6c43 8ebd 644a 7dbd
00000240: 76c7 bdbe c697 8a3e 279f 7fbd c5f1 9e3e
00000250: af96 013d 409b 313d 29bb f3bc 8e2c 13be
00000260: bebc a6bd e873 64be e463 04be 06c2 7a3e
00000270: f239 97bd aa85 523e a99f 0bbe a57a 8b3e
00000280: a854 9a3e 36d7 e83d 9cb2 d83d 0e26 063b
00000290: 98ad 73bd 7e16 583e bbfd 653e 9c95 e63a
000002a0: dad5 89bb de13 053e 1bf1 053e ce76 86bd
000002b0: 1000 50bd 5ed5 943d e3e6 cd3d 2f0f 8f3e
000002c0: 331d 853b ee66 3cbe b49f 46bd a7bc 943d
000002d0: 5f1e bd3d c4c8 d8bd 0760 f73d 681c 903e
000002e0: 5216 3f3d cf36 9bbd 9621 f2bd 6f61 13bc
000002f0: db74 953b 6bfc 413d 6d08 68be c01e ab3b
00000300: fb82 b2be 0cf7 6f3d 48ba 64bc 0c53 bc3e
00000310: 0e32 813d c423 2f3d fe09 1e3e 1e3d 3bbc
00000320: 0dfe b53d e320 53be 0f7d f7bc 3383 ed3c
00000330: 2dbf 0e3d 8bb3 56be 4721 40be b190 493e
00000340: 3989 7dbd f44b 723e 5b09 37be 7c1f 99bd
00000350: 613d 23be 5126 3e3e 6b42 623c d17a b4bd
00000360: 2ab8 c4bd d0f6 8cbd 8fe1 05be 5a41 4abc
00000370: 80d5 aabd ba07 12be 1749 c53a 0096 1fbe
00000380: d117 123d fe1d 7cbd 7a84 36bd 5c3d a63d
00000390: 68cb e93d abaa 52bd 5b8e acbd 49d3 08bd
000003a0: f06e 213d e9de b83d d302 3d3d 940e 3b3e
000003b0: d164 1f3e 9860 953d d1b5 61bd 1412 a4bd
000003c0: 7ca8 d1bd c7ed 913c 24a4 13be 4e65 b33c
000003d0: 3caa 8e3e 51e1 843d 9b02 0e3f c043 2bbe
000003e0: 75b6 2fbe 6432 7c3e cf3e 8f3e 9d84 073e
000003f0: ea4b 443c eb1d cd3d 78fe 04bf 14a2 913c
-0.15045933 -0.12927482 -0.24952893 -0.0780275 -0.089981265 0.2424995 0.1722151 0.2326038
-0.074365415 -0.05291337 -0.015821157 -0.14629978 -0.018392662 -0.032133415 0.15096189 -0.16931829
-0.040231477 -0.16176203 0.13426018 0.104157105 0.025146687 -0.025518896 0.16414623 0.13459775
0.06532382 0.1237622 -0.26012823 -0.18521549 -0.5638486 -0.26255178 0.17217758 0.04594642
-0.16372526 0.033974774 -0.31134003 0.059005793 -0.008340815 0.32211688 0.21895756 0.025705831
-0.00034906258 0.049858365 0.11076622 0.25320503 0.0047872993 0.115748495 0.032422304 0.048039634
0.06851592 -0.088187575 0.17609525 -0.06198299 0.020620642 0.0857657 -0.0018569527 0.05032303
0.061916642 0.00046063864 -0.07875507 -0.036908157 -0.12072046 -0.06972547 -0.25791666 0.16244881
0.03491383 0.008283948 -0.006954709 0.2429695 0.016751893 0.14584538 -0.081917256 0.049481623
-0.10545032 0.0020271621 -0.28096884 0.011685464 0.10204409 0.17021751 0.106935605 -0.19753443
0.049614146 -0.1527643 0.049561456 -0.112686746 0.013528176 -0.11973201 -0.15758742 0.13954933
0.11046207 0.15844277 0.05935467 0.03147112 0.16053197 0.22081438 -0.058805827 0.20906635
0.109090164 -0.06772011 -0.02907262 0.11048112 -0.28544155 -0.25993624 -0.4997643 0.2346114
-0.018324204 -0.10117797 -0.13810053 -0.020325214 -0.09203212 -0.2761879 -0.03198059 -0.1388749
-0.09312056 0.39773843 -0.010401373 0.124501444 0.11860383 -0.02450279 -0.10467449 0.29879552
0.04212396 0.0668035 0.039429236 0.18556388 0.035456497 -0.1075415 -0.033510085 -0.0052164947
0.27350062 0.10328906 -0.06530092 -0.09449289 -0.06714465 -0.10280958 0.18183842 0.06481703
-0.11033972 -0.09294073 0.279941 -0.13620268 0.0071072667 0.06922979 -0.069464535 -0.061838523
-0.3706624 0.2706892 -0.06240764 0.3104383 0.031637844 0.04336095 -0.02975233 -0.14372465
-0.081414685 -0.2230984 -0.1292873 0.24488077 -0.07384099 0.20558801 -0.13635124 0.27242008
0.30142713 0.11369173 0.10580942 0.002046946 -0.059491724 0.2110233 0.22460072 0.0017592194
-0.0042064013 0.1299586 0.13080256 -0.06565629 -0.05078131 0.07267259 0.10053804 0.27941272
0.0040623187 -0.1839864 -0.04849215 0.07262545 0.092343085 -0.10585168 0.12078863 0.28146672
0.046652146 -0.07578813 -0.11822812 -0.008995398 0.0045610494 0.047359865 -0.22659464 0.0052221715
-0.34865555 0.05858521 -0.013960429 0.3678211 0.06308375 0.042758718 0.15433499 -0.011428146
0.08886347 -0.20618014 -0.030211 0.028993225 0.03485029 -0.20966928 -0.18762694 0.19684102
-0.061898444 0.23661786 -0.17874663 -0.07476708 -0.15941383 0.18569304 0.013809781 -0.08812488
-0.09605439 -0.06883013 -0.13074325 -0.012344683 -0.08341503 -0.1426076 0.001505169 -0.15584564
0.035667244 -0.06155204 -0.044559933 0.08117172 0.1141575 -0.051432293 -0.0842559 -0.033404622
0.03941244 0.09026892 0.04614527 0.1826728 0.15565802 0.072938144 -0.055105034 -0.08011261
-0.10237214 0.017813576 -0.14418083 0.021898892 0.27864254 0.06488288 0.55472726 -0.16725063
-0.17159446 0.24628597 0.27977607 0.13234182 0.01198099 0.10015472 -0.5195079 0.01777748

total_net.1.net.0.fc.bias f4 [64]
00000000: 0da0 febe bbf8 c0be 83b9 22bd 9dc1 0d3e
00000010: 3eb6 69be 065c acbe ef78 5e3e a793 92be
00000020: 4004 9f3c 689f 37be 81bb 643e 9e4a 9bbe
00000030: ea28 fcbe cbc2 a9be 84d4 ca3c 3bc0 60be
00000040: be6a a53c e113 4a3e 947f 99bd f039 21bf
00000050: 2342 db3d 6172 67be 2aaa d0bc 8092 503c
00000060: 6da1 0d3e f89d 24bf c719 2cbe 4e0a e2bd
00000070: c4fd 09be b13f edbe f629 07bf 7f84 8fbe
00000080: b9af a0be a6ba 87be b438 1bbe 1e9f 883d
00000090: 40a6 cb3c 9afb 83bc 4d70 e0be 1f01 27bf
000000a0: 53d6 823c fd15 0ebf 7304 94be 7e72 f93d
000000b0: 8980 0b3f 5d40 17be f23b 3dbe 91a6 c03c
000000c0: d21a 133d 8605 14bf 186e e7be a0e2 f13d
000000d0: 9bc5 41bf 0970 b8bd c602 d03d 40d6 efbd
000000e0: 088d f4be 9a46 233e 44c9 03bf 1253 b9be
000000f0: d85b febe 3067 bbbe 536c fc3e 41de 943d
-0.49731484 -0.37689766 -0.0397277 0.13843389 -0.22823426 -0.33663958 0.2172582 -0.28628275
0.019411206 -0.17931902 0.22337152 -0.30330366 -0.49249965 -0.33156428 0.024759538 -0.2194833
0.0201925 0.19734146 -0.07495037 -0.6297903 0.10705974 -0.22602226 -0.025471766 0.012730241
0.1383111 -0.6430354 -0.16806708 -0.11037122 -0.1347571 -0.46337655 -0.527984 -0.28030774
-0.31384066 -0.2650959 -0.1515835 0.06670974 0.024859548 -0.016111184 -0.4383568 -0.65236086
0.015971338 -0.555023 -0.28909644 0.12180041 0.54493004 -0.14770646 -0.18479899 0.023516925
0.03591425 -0.5782093 -0.45201182 0.118108034 -0.75692147 -0.09005744 0.10156779 -0.11710787
-0.47763848 0.15944901 -0.5147898 -0.3619619 -0.49679446 -0.36602163 0.49301395 0.07268954

total_net.2.net.0.fc.weight f4 [32, 64]
00000000: bdb1 16be 26d6 843d 1928 a6bd d7ba 013e
00000010: 11c0 9bbc 841c bcbd 04f7 e33d 4cc6 70bd
00000020: 8e68 23be ac92 033e 5be9 54bd 5147 703c
00000030: 0753 52b9 a16a 24bd 377c c13e df05 0a3e
00000040: bcae 0ebf 02be e6bd e7d9 b1be c9b3 4abe
00000050: add5 dc3d c1ef b83d 9e91 87be 2691 403d
00000060: 19f9 08be c901 c53d 5e93 36be 747e 85be
00000070: 4a35 c8be aa12 c33e f8b3 cd3e e830 9ebe
00000080: 0f8b 453e ffda 9e3b 82e6 ccbd 136b 273d
00000090: a11a 15be 2388 523e c5c7 c4bc 53a4 e8bc
000000a0: 6b9a 63bd 8953 b0be 782f f03d 12b8 083d
000000b0: b026 90be 6298 483e 06b4 10be 5bf6 25bd
000000c0: 3ffb 9ebd b2e4 583b 4288 8ebd 6f7c 48bd
000000d0: e12e bcbe 92c2 8b3d c9d6 00bc 7de7 90be
000000e0: bd3b 09be 3001 143e b004 a1bd 6a96 a4bb
000000f0: 14c4 d63d 796d 19be e83d 4ebe 296d b03d
00000100: bc6c 183f 3eee c2be b0dd 9d3e 5b65 75bd
00000110: d984 f53c a314 083c b854 383c d43f c8bd
00000120: b249 01bd 7ced 0fbe 1f82 573e e2ab 513d
00000130: 86d7 0fbe dec6 21bb f5be 153e a635 e13d
00000140: 161d 273c 83b3 da3d 3045 0cbe 3d21 60bd
00000150: 5743 963d 68ac 813d 8af5 09bd 8ed7 873c
00000160: fb3f acbe 1b67 a53d 3da1 babe 4f9f ddbd
00000170: 7171 6dbb 2eba fbbc 98ab 8fbc fa66 273d
00000180: cdd8 9f3e a35a e83d 5db5 cfbc 621c b93d
00000190: ea62 6dbd bd9a 09be 1e7e 4dbc 6ac2 cf3d
000001a0: 4f2c 463d e577 bb3e 264a 0b3d c703 af3d
000001b0: 8c90 643e a8ae 3f3d 5ec3 74bd 6e88 993e
000001c0: 4fab b1be 004f 7f3c 3d91 5c3e 35da 86bd
000001d0: 6abc 063e 437f 203d 1e95 d63d 427e 3bbe
000001e0: 4a44 d93d 7bae 433d 5273 da3d ad82 6cba
000001f0: 3d63 c8bd 37de f6bd 9410 14be 8255 b83e
00000200: 223b 8dbe 2a92 14be ceac 9dbd 57a2 03be
00000210: 5d40 833e 6556 4b3e d2ab 1bbd 51c8 7d3e
00000220: a913 c5bd 6c09 903e 5c54 3e3e 335d f0bc
00000230: 602a 533e 5bd7 76bd c1cd a33e 89bb bfbd
00000240: ed87 98be 245a beb9 33f9 61bd e164 0e3e
00000250: 4d07 c4be 6efe bd3d 4bfa e2be 2e3c a43d
00000260: bf21 56be 5ccb ec3d 3209 25be 49b0 bbbd
00000270: 9c83 acbd d93e 17bb 0e14 593e cd95 783c
00000280: 3a08 9abd 4e27 2fbd 902d 2abc 4e2c ad3d
00000290: 2919 bcbd cf47 313d d3ec debc c372 743e
000002a0: b30f 3abd 2dc3 2b3e 4662 7d3d f945 403d
000002b0: 6de3 113f b514 b23b 954e 453e 771c 9b3d
000002c0: ae7b fbbc 25be a3be 30f0 1ebe ee2b 183d
000002d0: 1962 ff3d 5473 12bd dc05 b23d 805f c6bc
000002e0: 0b6f 343e fb13 88bb fc4f 553e af91 91bd
000002f0: ffbe cf3e 052f 263d b96a 813e 424c 8f3d
00000300: fdd1 b73d 8ec9 ca3c 8355 50bd 67bb c7bd
00000310: 3826 5c3d 08b7 623e 59c0 3f3e 6595 603e
00000320: fcfa 433d f42a 543e 187b 43be 91b2 23be
00000330: 6fba b43e ee37 87be c972 a9be cf18 043e
00000340: 5358 5fbe b507 f9bd f320 1bbe fc01 86be
00000350: 73d5 3ebe 7a30 453e 67cc 1abc 0d9d 02be
00000360: 9572 20be 4fcc 793e 8800 60be 4b00 49be
00000370: a346 e73d 4ac0 6b3e 95e4 873a 00a8 1fbe
00000380: 5549 ec3d 29f9 173e 8b78 183d bf8d bbbd
00000390: fad7 a93d 88ff 95bd d550 f6be 3549 62bb
000003a0: 7415 e3be 396d 94bd aa6d 45bc 47ba 323e
000003b0: 4f41 a8be 0b87 c2bd 8b37 173d 66fd d33e
000003c0: 828a 2abe 59ed 7d3d 384c 81be ddfe 83bd
000003d0: 5ecd 8a3d ac5d efbd 30c4 473e 7a17 85be
000003e0: 188d 70be 31c6 6d3d 719b 7fbe c6ac 313d
000003f0: 231d 8abd 50b5 61be 3863 40be 721a f9bc
-0.1471624 0.06486158 -0.08113117 0.1266893 -0.019012483 -0.091851264 0.11131099 -0.05878286
-0.15957853 0.1284892 -0.051980358 0.014665441 -0.00020058091 -0.04014075 0.3779008 0.13478802
-0.55735373 -0.1126671 -0.3473656 -0.19795145 0.10782943 0.090301044 -0.26478285 0.047013424
-0.13376273 0.09619481 -0.17829654 -0.2607304 -0.39103156 0.38100177 0.40176368 -0.30896688
0.19291328 0.0048478837 -0.100049034 0.0408736 -0.1456094 0.20559745 -0.024021039 -0.028398668
-0.055567186 -0.34438732 0.11727804 0.033378668 -0.28154516 0.1958938 -0.14131173 -0.040518146
-0.07762765 0.0033095297 -0.06959583 -0.048946794 -0.36754516 0.06824221 -0.007863709 -0.28301612
-0.13401695 0.14453578 -0.07862222 -0.0050228136 0.10486618 -0.14983167 -0.20140803 0.08614571
0.59540915 -0.3807239 0.30833197 -0.059911113 0.029970573 0.008305701 0.011250667 -0.09777799
-0.031564422 -0.14055437 0.21045731 0.05118931 -0.1404706 -0.0024685184 0.14623626 0.10996561
0.010199806 0.106787704 -0.13698268 -0.0547192 0.07337063 0.06331712 -0.03368143 0.016582277
-0.33642563 0.080763064 -0.3645114 -0.10821401 -0.0036230946 -0.030728426 -0.017537877 0.04086969
0.31220093 0.113454126 -0.025355035 0.09038617 -0.05795566 -0.13437934 -0.012542276 0.101445034
0.0483821 0.3661491 0.03400626 0.08545642 0.22320765 0.046797425 -0.05975663 0.299869
-0.3470101 0.0155828 0.21539779 -0.065845884 0.13157812 0.039183866 0.104776606 -0.18309882
0.10608728 0.04777382 0.10666527 -0.0009022158 -0.09784553 -0.12054103 -0.14459449 0.36002737
-0.27584177 -0.14508882 -0.076989755 -0.12854896 0.25635043 0.19857176 -0.038005657 0.24783446
-0.096228905 0.28132188 0.18586868 -0.029341316 0.20621634 -0.060263973 0.31992915 -0.09361941
-0.29791203 -0.00036306784 -0.055169296 0.1390567 -0.3828682 0.09277044 -0.44331583 0.08019291
-0.2091131 0.11562225 -0.16116789 -0.09164483 -0.0842354 -0.0023078232 0.21199057 0.015172434
-0.075211 -0.042762093 -0.0103868395 0.08455716 -0.091844864 0.043281373 -0.027212536 0.23871903
-0.04542513 0.16773672 0.0618613 0.04694173 0.5698765 0.0054345974 0.19268258 0.075737886
-0.030698624 -0.31981006 -0.15521312 0.03715127 0.124698825 -0.035754517 0.08692524 -0.02421546
0.17620485 -0.0041527725 0.20831293 -0.07107865 0.40575406 0.040572185 0.25276735 0.06996967
0.08975599 0.024754312 -0.0508628 -0.09752541 0.053747386 0.22140133 0.18725719 0.2193199
0.04784678 0.2071951 -0.19089925 -0.15986086 0.35298488 -0.26409858 -0.33095387 0.12900089
-0.21811037 -0.12159673 -0.15149288 -0.2617339 -0.18636112 0.19256774 -0.009448147 -0.12755223
-0.1566871 0.24394344 -0.21875203 -0.19629018 0.1129277 0.23022571 0.0010367805 -0.1559143
0.115374245 0.14841141 0.037224334 -0.09157895 0.082931474 -0.07324129 -0.48108545 -0.0034528498
-0.44352305 -0.07247395 -0.012050072 0.17453872 -0.32862327 -0.09498414 0.036918204 0.41404265
-0.16654399 0.06199393 -0.25253463 -0.06445096 0.06777452 -0.11687788 0.19508433 -0.25994474
-0.23491323 0.05805034 -0.2496164 0.04337766 -0.06743839 -0.22041821 -0.18787849 -0.030408118

total_net.2.net.0.fc.bias f4 [32]
00000000: 1ded dabc aca9 933c b81b 353d f671 7ebd
00000010: 0433 dcbe b3d3 94be 3bdb 29bf 864b e6be
00000020: 481c 72bd 73dc 843c e907 4cbd ec27 dd3c
00000030: 0102 20bf cef3 bebc eb6f 3cbf 26e7 1fbf
00000040: 30e6 b8bc 73e7 b9bc 33dc 29bd a2d1 2ebf
00000050: a170 2fbf 30b7 b0ba 5cb8 b6bb b2d7 a33c
00000060: 3b0c 81bd f56c f3bc cedc cb3c 0684 4c3c
00000070: 30cd 2f3d b0cb 16bc d522 00bf 54aa f1bc
-0.026724393 0.018025242 0.044215888 -0.0621204 -0.43007672 -0.29067764 -0.66350144 -0.44979495
-0.059109002 0.0162184 -0.04981223 0.026996575 -0.6250306 -0.023309615 -0.73608273 -0.6246208
-0.0225707 -0.022693371 -0.041469764 -0.68288624 -0.68531233 -0.0013482329 -0.0055761766 0.020000312
-0.06301161 -0.02971504 0.024885561 0.012482649 0.04292029 -0.009203836 -0.5005315 -0.029500164

total_net.3.weight f4 [3, 32]
00000000: 8fd4 67bd 10ee a73d 256f e93c e2cd 43bd
00000010: e90f 41bd ef9e debc b625 043d f9bd bd3c
00000020: 5d4a 27bd 32a2 33bd 333b e2bc 51a6 d2bd
00000030: dca8 64bd c93c 8ebd bee9 793d 4657 13bc
00000040: 1355 14be 0a0d 19be 808a 22be 554e 18bd
00000050: 2721 473b d518 173d 1cc3 a3bd a46b b83d
00000060: ba10 0dbd c09d 84bd 5fd4 81bc d65a c83d
00000070: 07f9 84bd dd57 603c 6e6d 6b3c ef1d 37bd
00000080: c8a5 f0bd 85f8 b63b cacd efbc c685 3d3d
00000090: 3536 efbc e9b5 1f3c b17d 423c 3dcc c2bc
000000a0: 3009 123d 085d b1bd 49e4 883c 9f7a 92bc
000000b0: 36d4 ebbc 97b7 863c 4560 d23c ab97 913d
000000c0: 7b67 0cbd 0f4d 153e 7321 083e 8e49 4f3d
000000d0: caf7 573d 4728 a43d c05a b0bd 650e 94bd
000000e0: 894b 97bc 6d3b a4bd 384b 0fbd 4f71 d13d
000000f0: fc06 cf3d d05d a0bd 372c 8bbd 0a9a 0c3e
00000100: 1a4d fc3d 0f23 153d 9b58 5f3c 5a05 093e
00000110: b41c cdbc f217 53bc dd7e 44bd 80af 4d3d
00000120: 3174 033e cb5d b2bc 708e 17bc 9f30 ac3d
00000130: cd5a 1ebd b738 a5bd 7747 2b3d fa7b fa3c
00000140: 3f42 8fbd 459a febd 8f3b 85bc 9c86 25bd
00000150: 0469 573a 4dc6 ccb9 dbdc 0bbe a0be 213d
00000160: d784 dcbd fb69 e7bd 2414 a53c 1615 4ebd
00000170: d214 aa3d ee43 543b e45b a4bb 6a9b dcbc
-0.056599196 0.08199704 0.02849538 -0.047803767 -0.047134314 -0.027175395 0.032262526 0.023161875
-0.040842403 -0.043855853 -0.027616119 -0.102856286 -0.0558251 -0.069451876 0.06101393 -0.008992976
-0.14485578 -0.1494638 -0.15873146 -0.03718408 0.003038475 0.036888916 -0.079961985 0.09004906
-0.03443978 -0.06475401 -0.015848337 0.097829506 -0.06492811 0.013692823 0.014369352 -0.04470628
-0.1175037 0.005583825 -0.029272933 0.046270154 -0.029200653 0.009747961 0.0118707875 -0.023779029
0.035653293 -0.086603224 0.016710417 -0.017880736 -0.028787713 0.016444964 0.02568067 0.071090065
-0.034278374 0.14580177 0.1329401 0.050607257 0.052726544 0.08015495 -0.08611059 -0.07229308
-0.018468635 -0.08019147 -0.034983844 0.1022669 0.10108754 -0.07830393 -0.06795543 0.13730636
0.123193935 0.036410388 0.013631965 0.13380948 -0.0250381 -0.012884127 -0.04797255 0.050216198
0.12837292 -0.02177324 -0.009250268 0.08407711 -0.038660813 -0.08067458 0.0418162 0.030576695
-0.06995057 -0.12431768 -0.016263751 -0.040411577 0.00082172477 -0.00039057658 -0.13658468 0.039488435
-0.10767525 -0.11299511 0.020151205 -0.050313078 0.083047524 0.0032389122 -0.005015837 -0.026929576

total_net.3.bias f4 [3]
00000000: c0ff 6c3d 3b04 12bc 87cf c9bb
0.05786109 -0.008912141 -0.0061587724

weight f4 [128, 15]
00000000: 0160 f33d 4373 3a3d 9e4a bbbb 994f eabd
00000010: f67c e9bd b9e8 9e3c 1f13 a3bd c746 ddbd
00000020: 3af7 1dbe 5012 b4bd 769a 333f 28c2 dc3d
00000030: fb33 eebd 9e7b 27be f008 5ebf 3520 593e
00000040: f241 05bd 3f66 cfbc 581a 03bf 3d00 2b3e
00000050: 4567 eb3c 5247 433d 057c c03d bdd8 613d
00000060: bbef 13bd e540 13be 2068 ebbd c7ca a9bd
00000070: 906b 243f 4023 f33e 0219 533d 00d4 b13a
00000080: 6b47 a73b 1f12 d8bd 2499 7cbd 0803 65bd
00000090: 9a95 953c 8c92 3bbd 184b 0cbe 74e2 8c3f
000000a0: 115e 1ebd 71f1 a5bd b4da 13bf 84f3 d0bc
000000b0: 3384 73be 4573 243e fa45 f0bd 5a10 9abe
000000c0: 86b0 4fbe a8a6 1fbc b1e7 f03d d139 783d
000000d0: bf02 2c3d 2f3e e23d aac3 f23d adcb 883e
000000e0: 8633 97be 2175 07bf 87d6 fe3e 976c ac3e
000000f0: e84c 2fbd 00a3 87bc 84b0 f1bd f875 2f3d
00000100: f065 2a3e 3e35 21bf 5a09 7c3e 2f48 113c
00000110: f5d2 12bc 0351 e8bd ef10 babd f91b 943c
00000120: 3f7f fa3e 9f13 863e 5ac3 06bf 21c5 a0bd
00000130: fd8b 2ebf d4ea ad3d 176c 533d 9191 33be
00000140: 2801 13be ad70 0dbe 2abb 0dbe 474e 523e
00000150: 3543 3c3e 44e0 613e 5cbc 1fbd 06ce eabe
00000160: 4291 de3e 660f 19bd ef61 a5bd 7926 f0bd
00000170: 1842 223e d2f6 a13e 6387 a13e e2df 893c
00000180: 6749 413c 7c28 513d 19ab d73d cc3c e3bd
00000190: 0dfe c3be b3f9 81be ce30 49be 42ed 92be
000001a0: c3af bf3c 10a2 45bd bbb0 ce3e 0fe8 0fbb
000001b0: 0f38 b0bd ad53 eabd b8ab 9ebd 7f10 c1bc
000001c0: b782 673d a4ed 69be d20e 1cbf b484 d13d
000001d0: aa47 f73d b0b7 b6be cc21 3f3c 8b76 cabe
000001e0: f780 cbbb 2224 933c f26d 293d 3cf6 883d
000001f0: 685b 153b 7ddb 9fbb af1e f93d 58b5 a13d
00000200: c8f3 70bf ab8b 843e 4358 0e3d 8fb0 163e
00000210: 1bf0 46be d997 0b3f b31f d9be 10ce a1be
00000220: eead 973e ce74 d03e ec0b bdbd 0eed 03bd
00000230: c12a 57be c72e f63b 7dd6 803c 3241 45be
00000240: 4ab3 b73c 7bd4 9e3d dfd5 a4bc 3679 a83e
00000250: 907d 523e ae04 6b3f d385 bcbc c657 0abe
00000260: e6eb 973f dd03 efbd 283d 84bd f86d 56bc
00000270: 6cfa 1e3c 059a efbc 6212 acbd 67a0 bcbc
00000280: f7a5 493c 139f b23b eace d53d 1272 89be
00000290: fbaf a0bd 3a34 263d 8af0 a9bb 38aa b7be
000002a0: 6b63 713f 3cd7 46be c6b4 88bc 4fdd 92bd
000002b0: 457c 38b8 515a 533d bf7f 493c 0169 cb3d
000002c0: 8d1e 3ebd 465b 073f e97a 523d 6bd2 fbbe
000002d0: 9381 bdbe e821 8d3d b290 1d3e 4e1a bc3d
000002e0: 4d76 983e 5701 f0bd f548 c0be f2f5 57be
000002f0: 8895 bf3e ae7b 0e3d 0223 8a3e e47c 0bbd
00000300: 32ef c13e 0822 d6bd dbc1 d1be d678 3abd
00000310: 4293 1cbd aae4 1bbd ac44 42bd 7afb 3dbb
00000320: 4149 ed3c 16d0 c7bd 62f4 5d3f 5416 51bd
00000330: e706 5abd 5a40 92bc c42b 2cbd b357 68b9
00000340: abda 303e c12c 12be 9179 eebc 2742 05bd
00000350: d375 e9bb ec57 48bd b56f c3bb ec05 27bd
00000360: bb48 b6bd 85d2 33bd e8a0 58bd 3ae6 28bd
00000370: c3e0 78bd 0d8d 653f cd71 1c3d 3834 80bd
00000380: d7f2 13be 320f 613f d3e5 19be d24b a33d
00000390: 59a7 763d 2254 573d 772b 313d 60d7 f4bd
000003a0: f9d3 e7bc 682e 19bd 62f1 a6bd f649 a53c
000003b0: bbd3 28be bbf2 0f3f 30e2 c5bd b873 303e
000003c0: 701c 26be 8cdd bf3d 8fca 87bd 7d91 5ebe
000003d0: 6bf9 323e 6fb6 8c3d 5c88 a33e ec6b c23d
000003e0: d52a 383d 025f 57bd f3e3 f03c 3a45 25be
000003f0: 86bf 313e f4b4 333f 434b c1be 1b11 a5be
0.11883546 0.04552008 -0.005715682 -0.11440963 -0.114007875 0.01939808 -0.079626314 -0.10804515
-0.1542634 -0.08792555 0.70157564 0.1077922 -0.11631008 -0.1635575 -0.8673239 0.21203692
-0.032533593 -0.02531731 -0.5121207 0.1669931 0.028735766 0.04767544 0.09398655 0.05513834
-0.036117297 -0.14380224 -0.1149447 -0.0829063 0.6422663 0.4748783 0.05153752 0.0013567209
0.005104949 -0.10550331 -0.061669484 -0.055911094 0.018259812 -0.045794055 -0.13700521 1.1006608
-0.038663927 -0.08102692 -0.5775559 -0.025506742 -0.23780899 0.16059597 -0.11732097 -0.300906
-0.20282182 -0.009744324 0.11762942 0.060602013 0.041994806 0.11047017 0.11853726 0.26717892
-0.29531497 -0.529131 0.49773046 0.33676597 -0.042797953 -0.016557217 -0.11801246 0.042837113
0.16640449 -0.62971866 0.24612942 0.008867308 -0.008961429 -0.11343577 -0.09085261 0.018079745
0.48925206 0.26186845 -0.5264183 -0.07850099 -0.68182355 0.084920555 0.051616754 -0.17535998
-0.1435591 -0.13812514 -0.13840929 0.20537673 0.18385012 0.22058207 -0.038997993 -0.45860308
0.43470198 -0.0373682 -0.0807532 -0.11726088 0.15845525 0.3163362 0.31548604 0.016830388
0.011797286 0.051064 0.10530681 -0.110955805 -0.38279763 -0.25385818 -0.19647524 -0.28696638
0.02339924 -0.048250258 0.4036921 -0.0021958386 -0.08604442 -0.11441741 -0.077475965 -0.023567436
0.056521144 -0.22844559 -0.60960114 0.10230389 0.12074216 -0.35687017 0.011665773 -0.39543566
-0.006210442 0.017961565 0.041364618 0.066875905 0.0022790078 -0.00487846 0.121640556 0.07895917
-0.9412198 0.25887808 0.03475214 0.1471579 -0.1942753 0.54528576 -0.42406997 -0.31602526
0.29624885 0.40714115 -0.092307895 -0.032208495 -0.21012403 0.0075129005 0.015727276 -0.19263151
0.022424359 0.07755371 -0.020121513 0.32904977 0.20555711 0.91804016 -0.023013031 -0.13510045
1.1868865 -0.11670659 -0.06456977 -0.013087742 0.00970326 -0.029248247 -0.08401944 -0.023025705
0.0123076355 0.005451092 0.10439856 -0.2684484 -0.078460656 0.04057715 -0.005186145 -0.35872054
0.94292325 -0.19418043 -0.016687762 -0.071711175 -4.3984754e-05 0.051599804 0.012298523 0.09932137
-0.046415854 0.5287365 0.051386748 -0.49183974 -0.3701292 0.06891233 0.15387228 0.09184705
0.29777756 -0.117190056 -0.37555662 -0.21089914 0.3741877 0.03478592 0.26979834 -0.03405465
0.37877804 -0.1045571 -0.40968212 -0.045525394 -0.038226373 -0.038059868 -0.04742877 -0.0028989003
0.028965594 -0.09756486 0.86701024 -0.051046684 -0.05322924 -0.01785295 -0.042033926 -0.00022157915
0.17270915 -0.14274885 -0.029110702 -0.03253379 -0.0071246414 -0.048911974 -0.0059642443 -0.040777132
-0.08900591 -0.04390194 -0.052887827 -0.041235186 -0.060761224 0.8966835 0.038194466 -0.0625996
-0.14448105 0.8791381 -0.15029077 0.07973446 0.06021819 0.05257047 0.043254342 -0.11955142
-0.028299319 -0.037397772 -0.08151509 0.020176869 -0.16487019 0.5622975 -0.096622825 0.17231643
-0.16221786 0.093684286 -0.06630432 -0.21735187 0.17477958 0.06870734 0.3193997 0.09493241
0.044962723 -0.05258084 0.02940557 -0.16139689 0.17358217 0.7019799 -0.37752733 -0.32239613

bias f4 [128]
00000000: d768 33be 67ea 853d 8449 bdbd ea93 ee3e
00000010: bbca 9b3d c902 ff3d 372c d9bd 046a 653d
00000020: 63cb 29be 9a9d d5bd 9ca4 15bf 71df ee3e
00000030: ebb4 5a3e 818f db3e e063 053f 7c1e 1abe
00000040: ca33 463e dd3d 8abe d209 903e 7360 debe
00000050: cf48 a73e edef c33e 263a 8fbe f26a 2c3e
00000060: e12e eebc 68d5 0abe c4c5 c03e 9bc6 19be
00000070: 65b9 bf3e d761 093f 42cf e8bd cb50 433e
00000080: de2d e43c 9620 b1bc c207 5abe d2a8 0d3f
00000090: 6d21 d9bd 1900 fdbc fc7b 88be 3ec1 f03b
000000a0: 4f69 a73e 3911 91be 7543 143e 840b 773d
000000b0: 9263 d83d a6ba 26be eb1e d5bd 3d5e c43e
000000c0: e123 13be 6c4c 903e 1b2b 153f 4f0f 033f
000000d0: 4500 a03d c415 ccbe af45 b03e ccd7 b9be
000000e0: eb8c c13d 695d a93e 3a86 6a3e 8bc3 a6bd
000000f0: fcb2 463e 76ae e2bd 2360 fb3e 9978 9c3d
00000100: 7440 223f 3095 d53e 1fd8 d13e 0429 183e
00000110: 50cd e13d b38c b0be d32f 4ebe ffef d43e
00000120: ebff 783e 49ea d13e 271f 333f 619e 063e
00000130: 9cc8 eebc 1cbf 9ebd 3aeb abbe 6f1d 2ebd
00000140: 926d 32be ced4 903e d8f4 2bbe 0b1a d7bd
00000150: dac9 ddbe d566 c03e 97a8 383f fa9d d73e
00000160: eabc 44be 7998 e13e 6bcb 78bd d708 8ebd
00000170: 27ce 303e f0e7 12bd 36dd fa3e 70b7 70be
00000180: fcf5 833c ec1f 32bf b0ea 24bd 6984 1a3e
00000190: 0450 16be e531 a63c a950 c43e b76b a63e
000001a0: d6db 853e 0641 1f3f b53b db3e d1e8 4d3e
000001b0: 7e6f f23e 8433 c6bc 16e8 d63e 4616 2ebd
000001c0: 0484 fbbd 969c a1bc 73c8 093e 1b30 203e
000001d0: 0f6b 3bbf 53dd 28bd eca8 e8be 0eef 3a3e
000001e0: 12ff e83e 53f1 703e 9146 853c 9d36 59bc
000001f0: a15b acbe 9e40 47bd ce9d 073f 86b5 42bd
-0.17520462 0.06538849 -0.092425376 0.46597224 0.07607027 0.12451703 -0.106041364 0.056009308
-0.16581492 -0.10430451 -0.584543 0.46654847 0.21358077 0.42882922 0.5210552 -0.15050691
0.19355693 -0.27000323 0.28132492 -0.4343296 0.32672736 0.38268986 -0.2797405 0.16837671
-0.029075088 -0.1355797 0.37650883 -0.15017168 0.37446132 0.53664917 -0.11367656 0.19073789
0.027853902 -0.021621983 -0.21292022 0.55335724 -0.106020786 -0.030883836 -0.26657093 0.007347255
0.32697532 -0.28333452 0.14478858 0.060313717 0.105658665 -0.16282138 -0.10406288 0.38353148
-0.14369155 0.28183305 0.582689 0.51195234 0.078125514 -0.39860356 0.34428164 -0.36297452
0.09450706 0.3307908 0.22902766 -0.081427656 0.19404215 -0.11068432 0.49096784 0.0764019
0.633796 0.41715384 0.409852 0.14859396 0.110254884 -0.34482345 -0.20135431 0.41589352
0.24316375 0.40999058 0.6996941 0.13146354 -0.029148392 -0.07751295 -0.335779 -0.04250854
-0.1742461 0.28287357 -0.16792619 -0.10503014 -0.43318063 0.37578455 0.7213225 0.42112714
-0.1921269 0.4406164 -0.06074087 -0.0693528 0.17266141 -0.035865724 0.48996896 -0.23507476
0.016108505 -0.6957996 -0.040262878 0.15089573 -0.14678961 0.020287463 0.3834279 0.32504055
0.26144284 0.6220859 0.4281899 0.20108344 0.47350687 -0.024194486 0.41973943 -0.04250171
-0.12281039 -0.019727986 0.13455372 0.15643351 -0.73210233 -0.041226696 -0.45441377 0.18255255
0.45507103 0.23529558 0.016269 -0.01325765 -0.33663657 -0.048645608 0.52975166 -0.047536395

weight f4 [64, 128]
00000000: 0312 1abe 9e60 04be 8384 7fbe e2cc 9fbd
00000010: 1948 b8bd ca51 783e 2859 303e b12f 6e3e
00000020: e54c 98bd b1bb 58bd 5f9b 81bc 9ccf 15be
00000030: 35ac 96bc 549e 03bd c195 1a3e c661 2dbe
00000040: c3c9 24bd f2a4 25be 807b 093e 5250 d53d
00000050: 6d00 ce3c 010d d1bc f315 283e fed3 093e
00000060: 7fc8 853d 0977 fd3d 872f 85be 21a9 3dbe
00000070: 6258 10bf 306d 86be 524f 303e 5032 3c3d
00000080: 98a7 27be 2229 0b3d f667 9fbe 0fb0 713d
00000090: eaa7 08bc 81ec a43e 6936 603e 0995 d23c
000000a0: 6302 b7b9 4938 4c3d 66d9 e23d 17a4 813e
000000b0: c7de 9c3b 8c0d ed3d 40cd 043d 35c5 443d
000000c0: 1352 8c3d b09b b4bd 5052 343e e0e1 7dbd
000000d0: 9fec a83c eda5 af3d fe64 f3ba 861f 4e3d
000000e0: 4e9c 7d3d df81 f139 574a a1bd 022d 17bd
000000f0: 4a3c f7bd 3acc 8ebd a70d 84be fb58 263e
00000100: ce01 0f3d 65b9 073c 54e4 e3bb ffcc 783e
00000110: 443b 893c 7e58 153e 3cc4 a7bd 3ead 4a3d
00000120: 56f6 d7bd 23da 043b 26db 8fbe 6374 3f3c
00000130: 7efc d03d 804d 2e3e 0e01 db3d 7746 4abe
00000140: 3438 4b3d 3f6e 1cbe f400 4b3d 4fc8 e6bd
00000150: 48a5 5d3c 0e36 f5bd 995e 21be 05e6 0e3e
00000160: f039 e23d d23e 223e e21d 733d dce7 003d
00000170: 7e62 243e 2a1d 623e 61de 70bd 7d15 563e
00000180: aa6a df3d d7b0 8abd b429 eebc ed43 e23d
00000190: 6525 92be 5d16 85be 1be1 ffbe f93d 703e
000001a0: a41c 96bc 6536 cfbd 3a6a 0dbe 1081 a6bc
000001b0: 567b bcbd 8068 8dbe 14fe 02bd 3935 0ebe
000001c0: feb5 bebd 5fa4 cb3e 856a 2abc 9dfa fe3d
000001d0: 91e6 f23d 13ba c8bc 945f d6bd bafb 983e
000001e0: 2c8a 2c3d 46d0 883d 8d80 213d 7504 3e3e
000001f0: d53a 113d b83e dcbd df41 09bd 21ef aabb
00000200: 4608 8c3e 3789 d33d 7dbc 85bd 7d85 c1bd
00000210: 2283 89bd d48d d2bd da33 3a3e cbbe 843d
00000220: cbf9 e1bd b657 bebd 6d54 8f3e b778 0bbe
00000230: 13e4 e83b 59c8 8d3d 6c43 8ebd 644a 7dbd
00000240: 76c7 bdbe c697 8a3e 279f 7fbd c5f1 9e3e
00000250: af96 013d 409b 313d 29bb f3bc 8e2c 13be
00000260: bebc a6bd e873 64be e463 04be 06c2 7a3e
00000270: f239 97bd aa85 523e a99f 0bbe a57a 8b3e
00000280: a854 9a3e 36d7 e83d 9cb2 d83d 0e26 063b
00000290: 98ad 73bd 7e16 583e bbfd 653e 9c95 e63a
000002a0: dad5 89bb de13 053e 1bf1 053e ce76 86bd
000002b0: 1000 50bd 5ed5 943d e3e6 cd3d 2f0f 8f3e
000002c0: 331d 853b ee66 3cbe b49f 46bd a7bc 943d
000002d0: 5f1e bd3d c4c8 d8bd 0760 f73d 681c 903e
000002e0: 5216 3f3d cf36 9bbd 9621 f2bd 6f61 13bc
000002f0: db74 953b 6bfc 413d 6d08 68be c01e ab3b
00000300: fb82 b2be 0cf7 6f3d 48ba 64bc 0c53 bc3e
00000310: 0e32 813d c423 2f3d fe09 1e3e 1e3d 3bbc
00000320: 0dfe b53d e320 53be 0f7d f7bc 3383 ed3c
00000330: 2dbf 0e3d 8bb3 56be 4721 40be b190 493e
00000340: 3989 7dbd f44b 723e 5b09 37be 7c1f 99bd
00000350: 613d 23be 5126 3e3e 6b42 623c d17a b4bd
00000360: 2ab8 c4bd d0f6 8cbd 8fe1 05be 5a41 4abc
00000370: 80d5 aabd ba07 12be 1749 c53a 0096 1fbe
00000380: d117 123d fe1d 7cbd 7a84 36bd 5c3d a63d
00000390: 68cb e93d abaa 52bd 5b8e acbd 49d3 08bd
000003a0: f06e 213d e9de b83d d302 3d3d 940e 3b3e
000003b0: d164 1f3e 9860 953d d1b5 61bd 1412 a4bd
000003c0: 7ca8 d1bd c7ed 913c 24a4 13be 4e65 b33c
000003d0: 3caa 8e3e 51e1 843d 9b02 0e3f c043 2bbe
000003e0: 75b6 2fbe 6432 7c3e cf3e 8f3e 9d84 073e
000003f0: ea4b 443c eb1d cd3d 78fe 04bf 14a2 913c
-0.15045933 -0.12927482 -0.24952893 -0.0780275 -0.089981265 0.2424995 0.1722151 0.2326038
-0.074365415 -0.05291337 -0.015821157 -0.14629978 -0.018392662 -0.032133415 0.15096189 -0.16931829
-0.040231477 -0.16176203 0.13426018 0.104157105 0.025146687 -0.025518896 0.16414623 0.13459775
0.06532382 0.1237622 -0.26012823 -0.18521549 -0.5638486 -0.26255178 0.17217758 0.04594642
-0.16372526 0.033974774 -0.31134003 0.059005793 -0.008340815 0.32211688 0.21895756 0.025705831
-0.00034906258 0.049858365 0.11076622 0.25320503 0.0047872993 0.115748495 0.032422304 0.048039634
0.06851592 -0.088187575 0.17609525 -0.06198299 0.020620642 0.0857657 -0.0018569527 0.05032303
0.061916642 0.00046063864 -0.07875507 -0.036908157 -0.12072046 -0.06972547 -0.25791666 0.16244881
0.03491383 0.008283948 -0.006954709 0.2429695 0.016751893 0.14584538 -0.081917256 0.049481623
-0.10545032 0.0020271621 -0.28096884 0.011685464 0.10204409 0.17021751 0.106935605 -0.19753443
0.049614146 -0.1527643 0.049561456 -0.112686746 0.013528176 -0.11973201 -0.15758742 0.13954933
0.11046207 0.15844277 0.05935467 0.03147112 0.16053197 0.22081438 -0.058805827 0.20906635
0.109090164 -0.06772011 -0.02907262 0.11048112 -0.28544155 -0.25993624 -0.4997643 0.2346114
-0.018324204 -0.10117797 -0.13810053 -0.020325214 -0.09203212 -0.2761879 -0.03198059 -0.1388749
-0.09312056 0.39773843 -0.010401373 0.124501444 0.11860383 -0.02450279 -0.10467449 0.29879552
0.04212396 0.0668035 0.039429236 0.18556388 0.035456497 -0.1075415 -0.033510085 -0.0052164947
0.27350062 0.10328906 -0.06530092 -0.09449289 -0.06714465 -0.10280958 0.18183842 0.06481703
-0.11033972 -0.09294073 0.279941 -0.13620268 0.0071072667 0.06922979 -0.069464535 -0.061838523
-0.3706624 0.2706892 -0.06240764 0.3104383 0.031637844 0.04336095 -0.02975233 -0.14372465
-0.081414685 -0.2230984 -0.1292873 0.24488077 -0.07384099 0.20558801 -0.13635124 0.27242008
0.30142713 0.11369173 0.10580942 0.002046946 -0.059491724 0.2110233 0.22460072 0.0017592194
-0.0042064013 0.1299586 0.13080256 -0.06565629 -0.05078131 0.07267259 0.10053804 0.27941272
0.0040623187 -0.1839864 -0.04849215 0.07262545 0.092343085 -0.10585168 0.12078863 0.28146672
0.046652146 -0.07578813 -0.11822812 -0.008995398 0.0045610494 0.047359865 -0.22659464 0.0052221715
-0.34865555 0.05858521 -0.013960429 0.3678211 0.06308375 0.042758718 0.15433499 -0.011428146
0.08886347 -0.20618014 -0.030211 0.028993225 0.03485029 -0.20966928 -0.18762694 0.19684102
-0.061898444 0.23661786 -0.17874663 -0.07476708 -0.15941383 0.18569304 0.013809781 -0.08812488
-0.09605439 -0.06883013 -0.13074325 -0.012344683 -0.08341503 -0.1426076 0.001505169 -0.15584564
0.035667244 -0.06155204 -0.044559933 0.08117172 0.1141575 -0.051432293 -0.0842559 -0.033404622
0.03941244 0.09026892 0.04614527 0.1826728 0.15565802 0.072938144 -0.055105034 -0.08011261
-0.10237214 0.017813576 -0.14418083 0.021898892 0.27864254 0.06488288 0.55472726 -0.16725063
-0.17159446 0.24628597 0.27977607 0.13234182 0.01198099 0.10015472 -0.5195079 0.01777748

bias f4 [64]
00000000: 0da0 febe bbf8 c0be 83b9 22bd 9dc1 0d3e
00000010: 3eb6 69be 065c acbe ef78 5e3e a793 92be
00000020: 4004 9f3c 689f 37be 81bb 643e 9e4a 9bbe
00000030: ea28 fcbe cbc2 a9be 84d4 ca3c 3bc0 60be
00000040: be6a a53c e113 4a3e 947f 99bd f039 21bf
00000050: 2342 db3d 6172 67be 2aaa d0bc 8092 503c
00000060: 6da1 0d3e f89d 24bf c719 2cbe 4e0a e2bd
00000070: c4fd 09be b13f edbe f629 07bf 7f84 8fbe
00000080: b9af a0be a6ba 87be b438 1bbe 1e9f 883d
00000090: 40a6 cb3c 9afb 83bc 4d70 e0be 1f01 27bf
000000a0: 53d6 823c fd15 0ebf 7304 94be 7e72 f93d
000000b0: 8980 0b3f 5d40 17be f23b 3dbe 91a6 c03c
000000c0: d21a 133d 8605 14bf 186e e7be a0e2 f13d
000000d0: 9bc5 41bf 0970 b8bd c602 d03d 40d6 efbd
000000e0: 088d f4be 9a46 233e 44c9 03bf 1253 b9be
000000f0: d85b febe 3067 bbbe 536c fc3e 41de 943d
-0.49731484 -0.37689766 -0.0397277 0.13843389 -0.22823426 -0.33663958 0.2172582 -0.28628275
0.019411206 -0.17931902 0.22337152 -0.30330366 -0.49249965 -0.33156428 0.024759538 -0.2194833
0.0201925 0.19734146 -0.07495037 -0.6297903 0.10705974 -0.22602226 -0.025471766 0.012730241
0.1383111 -0.6430354 -0.16806708 -0.11037122 -0.1347571 -0.46337655 -0.527984 -0.28030774
-0.31384066 -0.2650959 -0.1515835 0.06670974 0.024859548 -0.016111184 -0.4383568 -0.65236086
0.015971338 -0.555023 -0.28909644 0.12180041 0.54493004 -0.14770646 -0.18479899 0.023516925
0.03591425 -0.5782093 -0.45201182 0.118108034 -0.75692147 -0.09005744 0.10156779 -0.11710787
-0.47763848 0.15944901 -0.5147898 -0.3619619 -0.49679446 -0.36602163 0.49301395 0.07268954

weight f4 [32, 64]
00000000: bdb1 16be 26d6 843d 1928 a6bd d7ba 013e
00000010: 11c0 9bbc 841c bcbd 04f7 e33d 4cc6 70bd
00000020: 8e68 23be ac92 033e 5be9 54bd 5147 703c
00000030: 0753 52b9 a16a 24bd 377c c13e df05 0a3e
00000040: bcae 0ebf 02be e6bd e7d9 b1be c9b3 4abe
00000050: add5 dc3d c1ef b83d 9e91 87be 2691 403d
00000060: 19f9 08be c901 c53d 5e93 36be 747e 85be
00000070: 4a35 c8be aa12 c33e f8b3 cd3e e830 9ebe
00000080: 0f8b 453e ffda 9e3b 82e6 ccbd 136b 273d
00000090: a11a 15be 2388 523e c5c7 c4bc 53a4 e8bc
000000a0: 6b9a 63bd 8953 b0be 782f f03d 12b8 083d
000000b0: b026 90be 6298 483e 06b4 10be 5bf6 25bd
000000c0: 3ffb 9ebd b2e4 583b 4288 8ebd 6f7c 48bd
000000d0: e12e bcbe 92c2 8b3d c9d6 00bc 7de7 90be
000000e0: bd3b 09be 3001 143e b004 a1bd 6a96 a4bb
000000f0: 14c4 d63d 796d 19be e83d 4ebe 296d b03d
00000100: bc6c 183f 3eee c2be b0dd 9d3e 5b65 75bd
00000110: d984 f53c a314 083c b854 383c d43f c8bd
00000120: b249 01bd 7ced 0fbe 1f82 573e e2ab 513d
00000130: 86d7 0fbe dec6 21bb f5be 153e a635 e13d
00000140: 161d 273c 83b3 da3d 3045 0cbe 3d21 60bd
00000150: 5743 963d 68ac 813d 8af5 09bd 8ed7 873c
00000160: fb3f acbe 1b67 a53d 3da1 babe 4f9f ddbd
00000170: 7171 6dbb 2eba fbbc 98ab 8fbc fa66 273d
00000180: cdd8 9f3e a35a e83d 5db5 cfbc 621c b93d
00000190: ea62 6dbd bd9a 09be 1e7e 4dbc 6ac2 cf3d
000001a0: 4f2c 463d e577 bb3e 264a 0b3d c703 af3d
000001b0: 8c90 643e a8ae 3f3d 5ec3 74bd 6e88 993e
000001c0: 4fab b1be 004f 7f3c 3d91 5c3e 35da 86bd
000001d0: 6abc 063e 437f 203d 1e95 d63d 427e 3bbe
000001e0: 4a44 d93d 7bae 433d 5273 da3d ad82 6cba
000001f0: 3d63 c8bd 37de f6bd 9410 14be 8255 b83e
00000200: 223b 8dbe 2a92 14be ceac 9dbd 57a2 03be
00000210: 5d40 833e 6556 4b3e d2ab 1bbd 51c8 7d3e
00000220: a913 c5bd 6c09 903e 5c54 3e3e 335d f0bc
00000230: 602a 533e 5bd7 76bd c1cd a33e 89bb bfbd
00000240: ed87 98be 245a beb9 33f9 61bd e164 0e3e
00000250: 4d07 c4be 6efe bd3d 4bfa e2be 2e3c a43d
00000260: bf21 56be 5ccb ec3d 3209 25be 49b0 bbbd
00000270: 9c83 acbd d93e 17bb 0e14 593e cd95 783c
00000280: 3a08 9abd 4e27 2fbd 902d 2abc 4e2c ad3d
00000290: 2919 bcbd cf47 313d d3ec debc c372 743e
000002a0: b30f 3abd 2dc3 2b3e 4662 7d3d f945 403d
000002b0: 6de3 113f b514 b23b 954e 453e 771c 9b3d
000002c0: ae7b fbbc 25be a3be 30f0 1ebe ee2b 183d
000002d0: 1962 ff3d 5473 12bd dc05 b23d 805f c6bc
000002e0: 0b6f 343e fb13 88bb fc4f 553e af91 91bd
000002f0: ffbe cf3e 052f 263d b96a 813e 424c 8f3d
00000300: fdd1 b73d 8ec9 ca3c 8355 50bd 67bb c7bd
00000310: 3826 5c3d 08b7 623e 59c0 3f3e 6595 603e
00000320: fcfa 433d f42a 543e 187b 43be 91b2 23be
00000330: 6fba b43e ee37 87be c972 a9be cf18 043e
00000340: 5358 5fbe b507 f9bd f320 1bbe fc01 86be
00000350: 73d5 3ebe 7a30 453e 67cc 1abc 0d9d 02be
00000360: 9572 20be 4fcc 793e 8800 60be 4b00 49be
00000370: a346 e73d 4ac0 6b3e 95e4 873a 00a8 1fbe
00000380: 5549 ec3d 29f9 173e 8b78 183d bf8d bbbd
00000390: fad7 a93d 88ff 95bd d550 f6be 3549 62bb
000003a0: 7415 e3be 396d 94bd aa6d 45bc 47ba 323e
000003b0: 4f41 a8be 0b87 c2bd 8b37 173d 66fd d33e
000003c0: 828a 2abe 59ed 7d3d 384c 81be ddfe 83bd
000003d0: 5ecd 8a3d ac5d efbd 30c4 473e 7a17 85be
000003e0: 188d 70be 31c6 6d3d 719b 7fbe c6ac 313d
000003f0: 231d 8abd 50b5 61be 3863 40be 721a f9bc
-0.1471624 0.06486158 -0.08113117 0.1266893 -0.019012483 -0.091851264 0.11131099 -0.05878286
-0.15957853 0.1284892 -0.051980358 0.014665441 -0.00020058091 -0.04014075 0.3779008 0.13478802
-0.55735373 -0.1126671 -0.3473656 -0.19795145 0.10782943 0.090301044 -0.26478285 0.047013424
-0.13376273 0.09619481 -0.17829654 -0.2607304 -0.39103156 0.38100177 0.40176368 -0.30896688
0.19291328 0.0048478837 -0.100049034 0.0408736 -0.1456094 0.20559745 -0.024021039 -0.028398668
-0.055567186 -0.34438732 0.11727804 0.033378668 -0.28154516 0.1958938 -0.14131173 -0.040518146
-0.07762765 0.0033095297 -0.06959583 -0.048946794 -0.36754516 0.06824221 -0.007863709 -0.28301612
-0.13401695 0.14453578 -0.07862222 -0.0050228136 0.10486618 -0.14983167 -0.20140803 0.08614571
0.59540915 -0.3807239 0.30833197 -0.059911113 0.029970573 0.008305701 0.011250667 -0.09777799
-0.031564422 -0.14055437 0.21045731 0.05118931 -0.1404706 -0.0024685184 0.14623626 0.10996561
0.010199806 0.106787704 -0.13698268 -0.0547192 0.07337063 0.06331712 -0.03368143 0.016582277
-0.33642563 0.080763064 -0.3645114 -0.10821401 -0.0036230946 -0.030728426 -0.017537877 0.04086969
0.31220093 0.113454126 -0.025355035 0.09038617 -0.05795566 -0.13437934 -0.012542276 0.101445034
0.0483821 0.3661491 0.03400626 0.08545642 0.22320765 0.046797425 -0.05975663 0.299869
-0.3470101 0.0155828 0.21539779 -0.065845884 0.13157812 0.039183866 0.104776606 -0.18309882
0.10608728 0.04777382 0.10666527 -0.0009022158 -0.09784553 -0.12054103 -0.14459449 0.36002737
-0.27584177 -0.14508882 -0.076989755 -0.12854896 0.25635043 0.19857176 -0.038005657 0.24783446
-0.096228905 0.28132188 0.18586868 -0.029341316 0.20621634 -0.060263973 0.31992915 -0.09361941
-0.29791203 -0.00036306784 -0.055169296 0.1390567 -0.3828682 0.09277044 -0.44331583 0.08019291
-0.2091131 0.11562225 -0.16116789 -0.09164483 -0.0842354 -0.0023078232 0.21199057 0.015172434
-0.075211 -0.042762093 -0.0103868395 0.08455716 -0.091844864 0.043281373 -0.027212536 0.23871903
-0.04542513 0.16773672 0.0618613 0.04694173 0.5698765 0.0054345974 0.19268258 0.075737886
-0.030698624 -0.31981006 -0.15521312 0.03715127 0.124698825 -0.035754517 0.08692524 -0.02421546
0.17620485 -0.0041527725 0.20831293 -0.07107865 0.40575406 0.040572185 0.25276735 0.06996967
0.08975599 0.024754312 -0.0508628 -0.09752541 0.053747386 0.22140133 0.18725719 0.2193199
0.04784678 0.2071951 -0.19089925 -0.15986086 0.35298488 -0.26409858 -0.33095387 0.12900089
-0.21811037 -0.12159673 -0.15149288 -0.2617339 -0.18636112 0.19256774 -0.009448147 -0.12755223
-0.1566871 0.24394344 -0.21875203 -0.19629018 0.1129277 0.23022571 0.0010367805 -0.1559143
0.115374245 0.14841141 0.037224334 -0.09157895 0.082931474 -0.07324129 -0.48108545 -0.0034528498
-0.44352305 -0.07247395 -0.012050072 0.17453872 -0.32862327 -0.09498414 0.036918204 0.41404265
-0.16654399 0.06199393 -0.25253463 -0.06445096 0.06777452 -0.11687788 0.19508433 -0.25994474
-0.23491323 0.05805034 -0.2496164 0.04337766 -0.06743839 -0.22041821 -0.18787849 -0.030408118
