Modeling eMNS/Trained_model/EMS_ANN_backward_v2.pt (torch, 37904 bytes, 16 tensors)

total_net.0.net.0.fc.weight f4 [100, 6]
000000 45 35 29 3f 08 ae d1 3e 77 7a 35 3f b0 7f f2 be
       0.6609691 0.40953088 0.7088999 -0.47363043
000010 30 7f 9d be c5 5a c5 be 88 d9 7f be fc 0e ca 3e
       -0.307611 -0.38545814 -0.24985325 0.39464557
000020 b9 9b 15 3f df 2d a7 be 9e 8e c0 3e 76 51 69 3e
       0.5844074 -0.32652184 0.37608808 0.22784981
000030 0c cc 4b bd 74 dd 41 bf bd d8 37 be 63 cf 2e 3e
       -0.04975514 -0.75728536 -0.17953773 0.17071299
000040 7d 39 95 3f bd 53 2f 3f 93 5f bb be be d4 4f 3d
       1.1658169 0.6848715 -0.36596355 0.050739996
000050 66 a7 7c 3d b1 3c 02 be ef df 45 bf 39 84 47 3f
       0.06168308 -0.12718464 -0.7729482 0.7793613
000060 fa fc db 3d 3f 1b db be df e8 d5 3e 7d 9e 36 be
       0.10741611 -0.42794225 0.4177923 -0.17833896
000070 d1 3a 06 bf 5f 45 82 3d 06 df 0d 3e fa cf 41 bc
       -0.52433497 0.06360888 0.13854608 -0.011829371
000080 d6 70 bd 3e a9 8a 6c 3f 63 98 47 3d 9a c1 0f bf
       0.3700015 0.9239908 0.04872931 -0.5615479
000090 59 8e b5 3e 1a c1 f2 3d bd 80 b0 be 89 6a 49 bf
       0.35460165 0.118532375 -0.3447322 -0.78678185
0000a0 f4 1b db 3e 12 77 d1 3e 2e c6 ae 3e 18 5d ae 3d
       0.42794764 0.40911156 0.34135574 0.0851385
0000b0 95 fe 24 3f 5b 95 8c be c3 a0 6b bf 8b 7b 13 3e
       0.6445096 -0.274577 -0.9204218 0.14402597
0000c0 1c e5 e2 be c0 74 42 3e cd 61 5a 3e c6 0f 13 3f
       -0.44315422 0.18989849 0.2132637 0.57445943
0000d0 fe 0b dc 3e 66 c4 7a be 21 51 bb be f9 e6 2b bf
       0.429779 -0.24488983 -0.36585334 -0.6714931
0000e0 7d 11 70 3e 44 cb c9 3c a7 82 82 bf 1d bb 8a be
       0.23444171 0.024633057 -1.0196122 -0.2709588
0000f0 2b 9d af 3d 29 2e 84 bd da bc 67 bf b8 67 65 bf
       0.08574899 -0.06454117 -0.9052254 -0.8961139
000100 1f 0f eb bb a0 bf 02 bf 0f 63 94 bd c0 42 5f bf
       -0.0071734334 -0.51073647 -0.072454564 -0.8721123
000110 ae 01 b5 be 0e c9 54 bc 36 39 f1 3e b4 08 e0 be
       -0.35352844 -0.012987388 0.4711396 -0.4375664
000120 4c 59 ce 3e de b9 86 3e c4 62 21 bf e4 86 37 3f
       0.40302503 0.2631368 -0.6304133 0.716902
000130 ab da b5 3e 08 5f 0c bf 0b 2a 52 bd dd 79 ab bc
       0.35518393 -0.54832506 -0.051309627 -0.020932132
000140 19 3a de 3e bf 77 5a 3f 1c 67 09 3d c2 67 25 be
       0.434037 0.8533897 0.0335456 -0.16152862
000150 99 c0 91 3e 25 37 8c 3e c9 9d e2 3d 48 c2 05 be
       0.28467253 0.27385822 0.110652514 -0.13062394
000160 38 74 01 be 8d 4d 19 be 37 ad 9e be 76 a1 1c bf
       -0.1264199 -0.1497099 -0.30991527 -0.6118387
000170 32 87 8b 3d c8 d3 b3 3e 29 6a c6 bc 30 28 c8 bf
       0.06812896 0.35122514 -0.024220543 -1.5637264
000180 53 64 9c 3e 24 06 1c bf ff 57 11 3e c4 f2 4b bf
       0.3054529 -0.6094687 0.14193724 -0.79667306
000190 aa 92 b9 3f a5 a8 4e 3e 2e 3a 86 3e e2 44 30 3f
       1.4497883 0.2018152 0.26216263 0.68855107
0001a0 e5 05 18 3f 75 91 5a bd 97 e7 00 be c0 62 32 be
       0.59383994 -0.053361375 -0.12588345 -0.17420483
0001b0 77 dd 0d bf fc bb fc bd 5f ac e8 3e 9c 5d 76 be
       -0.55416054 -0.12340543 0.4544401 -0.24059147
0001c0 d5 b2 43 3e 02 55 a6 be 27 2b 6b 3f f3 92 60 bf
       0.19111188 -0.3248673 0.9186272 -0.87724227
0001d0 0d 28 38 3e 9f d6 17 be b5 b8 da be 73 76 a3 3e
       0.17984028 -0.14827965 -0.42719045 0.31926307
0001e0 f7 82 4e be c6 77 68 be b0 c8 a9 3e 17 cd 3a bd
       -0.20167147 -0.2270194 0.33160925 -0.045605745
0001f0 fd ce 0e bf 25 91 33 3f 35 1e 87 3e 95 30 b8 3d
       -0.5578459 0.7014335 0.26390234 0.08993641
000200 b8 8f 8b bf 3f 3c d8 3e 9b 8c 3b 3f 93 be 50 bf
       -1.0903234 0.42233464 0.7326142 -0.81540793
000210 55 d6 45 3f 19 3a 18 3e ea ca 6f bd 21 dd 17 bd
       0.7728017 0.14865912 -0.058543123 -0.03707612
000220 32 1d c1 3e f2 19 14 bf 7c 1b c8 3c 10 85 b7 3e
       0.37717587 -0.5785209 0.024427168 0.35843706
000230 64 9a c1 3e 02 f5 00 3e b9 d5 6b bf c3 b1 1e bf
       0.37813103 0.12593463 -0.9212299 -0.6198999
000240 1b d1 b1 be a1 ec 0b 3e d7 11 fa be 00 0e 74 3f
       -0.34729847 0.13664486 -0.48841736 0.9533386
000250 8a 47 c7 bd aa 88 0a 3f fe 86 14 3e e8 ca 31 3d
       -0.09730442 0.5411478 0.1450462 0.043406397
000260 1c e3 f7 3c 21 16 05 be 30 2d 86 3e 73 47 30 bf
       0.030259661 -0.12996723 0.2620635 -0.6885902
000270 27 72 36 be 0d 59 17 bf 6e 8f 07 bf d3 3e 80 3d
       -0.17816983 -0.59120256 -0.5295323 0.06261983
000280 53 ce 4e bf 1e eb bd be ad d2 48 3e 60 28 4f be
       -0.80783576 -0.37093443 0.19611616 -0.20230246
000290 fe 19 60 3e e4 52 02 3e ae fb b6 be b7 47 18 3f
       0.21884915 0.12726933 -0.3573889 0.5948443
0002a0 69 59 da be 0d 8c 01 3f f1 74 ed 3d 6d 55 a7 be
       -0.4264634 0.50604326 0.115945704 -0.32682362
0002b0 70 40 f5 be 8c 0b 14 bf a8 e6 fa 3a 07 62 2d bd
       -0.47900724 -0.5783012 0.0019142227 -0.042329814
0002c0 77 d0 fe 3e b0 33 75 3d 22 43 ec bd 70 58 05 bf
       0.4976842 0.059863746 -0.11536242 -0.5208807
0002d0 6b b0 ab 3e bf 8d 14 3f 05 a5 bb bc 66 fe 96 3f
       0.33533034 0.5802879 -0.022905836 1.1796386
0002e0 1d e7 aa be a8 2a c7 3d 7d f7 e5 be 2f 04 57 3e
       -0.3337945 0.09724933 -0.4491538 0.2099769
0002f0 f2 55 79 be 4a fe 56 3f 38 86 a5 3e 64 2f 8e 3c
       -0.24349192 0.83981764 0.32328963 0.017356582
000300 18 8a 10 bf e6 b7 13 bf 46 78 fd bd b1 fd 57 bf
       -0.56460714 -0.5770248 -0.12376456 -0.8437148
000310 1d 9f bf bd e0 c1 9d 3c b4 d2 e0 3e e5 a7 a2 3e
       -0.0935652 0.019257486 0.43910754 0.31768718
000320 f0 47 db 3e 00 a5 d2 be 10 72 27 be b7 c2 eb be
       0.4282832 -0.4114151 -0.16352105 -0.46046993
000330 74 71 4c bf fd 2d 0c 3f 4a 56 19 bf 2e 2f 1e be
       -0.79860616 0.5475767 -0.5989729 -0.15447685
000340 89 cc ff be e5 6e 91 3f f5 c8 63 be 7c f8 0b bf
       -0.49960735 1.1361967 -0.22244628 -0.5467603
000350 ec 43 bf ba 86 ab a4 3e 56 6e b4 3f c6 05 76 be
       -0.0014592386 0.32162112 1.4096172 -0.2402564
000360 30 7d 59 3f 82 61 31 3f b0 4c 6f be c6 ee c6 be
       0.84956646 0.6928941 -0.23369098 -0.38854045
000370 d9 a5 03 bf d5 aa 6d 3e b9 56 77 be 3f ea e5 3e
       -0.5142494 0.23209698 -0.24154176 0.44905278
000380 2d 95 d6 bd 1b da 19 3f 94 57 89 bf f9 a1 2c be
       -0.10477672 0.6009843 -1.0729852 -0.16858663
000390 c7 a3 9e 3e 57 ba a9 be ee 3a 32 3c 69 4c 10 bf
       0.30984327 -0.3314998 0.010878308 -0.5636659
0003a0 b3 96 30 be 06 08 80 3d 35 64 e2 3e b0 bb 79 3d
       -0.17244987 0.0625153 0.44217077 0.06097001
0003b0 af b4 f6 3d f6 49 b6 3e 33 e9 f9 3d 66 d1 57 3f
       0.120461814 0.35603303 0.12202682 0.8430389
0003c0 b1 f7 58 bf c6 ff 9e bc e2 c2 3c be da f2 8e bf
       -0.8475295 -0.019409072 -0.18433717 -1.1167862
0003d0 fe 96 82 3e a4 dd 10 bc e6 d0 e6 3e f4 be 00 be
       0.25505823 -0.008841906 0.45081252 -0.12572843
0003e0 2a 55 2c 3e 4a 07 cf 3d 2b 4f 51 be 4b d7 fb bd
       0.16829363 0.10108812 -0.20440356 -0.12296923
0003f0 03 dd b5 be f1 b6 2c bf e9 3f 11 3f 92 07 3f bd
       -0.3552018 -0.67466646 0.56738144 -0.04663808

total_net.0.net.0.fc.bias f4 [100]
000000 2f 83 c6 3c b9 3c 81 bc 46 19 32 3c b1 fe 6e 3c
       0.024232475 -0.015776025 0.0108702835 0.01458709
000010 3b c0 13 be ba 29 4a be e9 d6 5e 3e 8f a7 b8 3e
       -0.14428799 -0.1974248 0.21761669 0.36065337
000020 23 f3 2b bd 5e bb 6f be 0f 28 7f 3e b4 79 73 3e
       -0.04197992 -0.23411319 0.24917625 0.23776895
000030 9e e3 89 3e 7a db 90 3e 27 56 a0 3d 89 06 9c 3e
       0.2693147 0.28292447 0.07828932 0.30473736
000040 65 eb 5a 3e 95 80 79 bd f1 e6 7c bd 61 c3 88 be
       0.21378858 -0.06091364 -0.06174368 -0.26711562
000050 b1 57 31 3e fa 4e 0d bf 8a 17 42 3d 54 27 da 3e
       0.17318608 -0.55198634 0.04738573 0.4260813
000060 bb 6b ca 3e 64 7e 72 3e ad 5f 6c 3e 66 67 74 3e
       0.39535317 0.23681027 0.23083372 0.23867568
000070 5b 07 87 3e 81 71 b8 be 09 33 90 3e 03 d3 4d be
       0.263728 -0.36024097 0.28163937 -0.20100026
000080 51 04 9c 3a af e8 f2 be 71 d3 8b 3e 7c c5 ba bd
       0.0011903142 -0.47443148 0.27309754 -0.091196984
000090 6a 5e 4b bc 9a 4a 2d be f1 c7 30 3e ad 35 c4 3e
       -0.012412647 -0.1692299 0.17263772 0.383222
0000a0 3a 1a 49 bd 1c 10 8d 3d 67 d4 c1 3c 4a 01 d6 3b
       -0.049097277 0.06887838 0.023660852 0.0065309154
0000b0 a2 ea a9 bd a3 5d eb bb f1 54 04 3d 11 f5 6c 3e
       -0.08296706 -0.007182793 0.03230757 0.2314036
0000c0 d1 f8 c3 3d b6 c2 a4 3e fc 07 a3 3e 9b fe f5 bd
       0.09568942 0.32179803 0.3184203 -0.12011453
0000d0 25 9c 5d 3e d1 9b 80 3c 22 48 96 be 1b 60 d2 3d
       0.21641596 0.015699299 -0.29351908 0.10272237
0000e0 58 cf 86 bd fe 0e 13 3e 30 e5 09 bc 99 78 17 3e
       -0.065825164 0.14361188 -0.008416459 0.14792098
0000f0 07 9d d7 bc ed 15 ab 3d 40 3a 11 3f 85 f1 83 3e
       -0.026319994 0.083537914 0.5672951 0.25770202
000100 41 46 99 bd c2 ec 4e bc 72 05 84 bd 64 94 2e be
       -0.07484103 -0.01262969 -0.06446351 -0.17048794
000110 2d ad 9d be 65 47 db 3d 68 ce 7a 3e 74 8d 57 be
       -0.30796185 0.10706977 0.244928 -0.21050054
000120 b7 4f 86 be d4 1a 72 bd 8d de 0c be 10 b7 c2 3e
       -0.26232693 -0.059107617 -0.13756771 0.3803029
000130 a7 4c 4f be cc 44 84 3e 01 f8 90 3d c8 d3 cc 3e
       -0.20244084 0.25833738 0.07078553 0.40005326
000140 93 84 88 bd 4a 1d 10 3e d3 d2 56 3e 3a 4f 2f bc
       -0.066659115 0.14073673 0.2097886 -0.010700041
000150 8d b8 8f be c4 6a ac bd e2 0a 5b be 90 ed 6b 3c
       -0.2807049 -0.084188014 -0.2139087 0.014399901
000160 29 90 71 3e 1a 7c 87 bb 06 d2 76 3e 87 78 79 3c
       0.23590149 -0.004134667 0.24103555 0.01522649
000170 05 66 a8 bc 49 62 eb 3c 22 05 12 bd 61 44 89 3e
       -0.02055646 0.02873339 -0.035649426 0.2680998
000180 19 d4 8c bd 0b 9d a8 3d 6d 8b ab 3e b1 50 15 3e
       -0.06876392 0.082330786 0.3350481 0.14581563

total_net.1.net.0.fc.weight f4 [50, 100]
000000 3f 12 76 3e db b9 2e bd ac 24 13 3d 07 4c ff bb
       0.24030398 -0.042657714 0.035923645 -0.0077910456
000010 93 a4 27 3d 8c 5a 74 3e c8 b9 81 bd 9f f6 fa 3d
       0.040928435 0.23862666 -0.06334263 0.122540705
000020 82 b4 4b 3e b4 a7 99 3d b8 b9 ae 3a 9f 78 d8 bd
       0.19893077 0.0750269 0.0013330495 -0.10569882
000030 c3 48 93 bd 07 99 f2 3d a7 a9 24 be 59 21 e4 bd
       -0.071916126 0.11845594 -0.16080342 -0.11139173
000040 0c 7d bf bd b7 f4 79 bd 02 04 41 bc a5 b2 4f 3d
       -0.09350023 -0.061024394 -0.011780741 0.050707478
000050 25 3a 17 be e8 75 2d 3e 72 e6 f2 bd 42 dd 67 3d
       -0.14768274 0.16939509 -0.1186036 0.056607492
000060 fd 7e 4d be 83 ac 82 be de 27 70 be ff 22 d3 bc
       -0.20067973 -0.2552224 -0.23452708 -0.025773523
000070 69 fe ab bd d5 ec 25 3e 6b 47 b7 3d 0a 71 46 3e
       -0.08398134 0.16203626 0.08949169 0.19379058
000080 07 59 0e 3e ec c2 62 3e ab be 4b bc 51 7f 8a 3e
       0.13901149 0.2214467 -0.0124355955 0.2705026
000090 b3 db 82 bd 20 a0 e6 3c b8 5d 74 be 43 6b 2e bd
       -0.063895606 0.028152525 -0.23863876 -0.04258276
0000a0 e4 c2 ab 3e 5c d1 d9 3d 96 0c b8 bd dc d2 5e 3d
       0.33547127 0.10635635 -0.089867756 0.05440031
0000b0 50 de 37 be 4b 40 19 be 96 7a 91 3e 27 0e b0 be
       -0.17955899 -0.14965932 0.28413838 -0.34385797
0000c0 00 68 8c bc 0e 8a 0a 3d 90 2c 91 3d 62 5b 07 be
       -0.017139435 0.033823065 0.07088578 -0.13218454
0000d0 98 2c 28 3d 73 0d 8f 3e 97 39 12 3e d4 13 cc 3d
       0.041058153 0.27939948 0.14279781 0.099647194
0000e0 3d 3a e3 3d 13 a3 6a be 62 58 89 bc fe 90 01 3d
       0.110950924 -0.2291377 -0.016765777 0.031632416
0000f0 fa c2 e0 bd 9e 83 30 3d 17 91 0b bd 57 d6 46 bd
       -0.10974689 0.04309427 -0.034073915 -0.048544254
000100 40 75 3e 3c 1e 28 ac bd 34 d8 da bd 45 8f 20 3e
       0.011624634 -0.08406089 -0.10685769 0.15679653
000110 c4 ed 78 bd 07 80 f6 bd 77 c4 f2 3d 5f 66 be 3d
       -0.060773626 -0.12036138 0.11853879 0.092968695
000120 aa 93 b4 3e 88 a6 ae 3e 59 75 56 3e 3d 3d cd bd
       0.3526891 0.34111428 0.20943202 -0.10021446
000130 76 83 09 be f3 9d a3 3e 42 61 af 3d 22 cb 88 be
       -0.13429055 0.31956443 0.08563472 -0.26717478
000140 e2 7d df 3e cd 84 23 3e c2 b0 20 3e a9 fa 28 be
       0.43650728 0.15968628 0.15692428 -0.1650187
000150 40 f9 c6 be 9d 69 07 3e 72 53 1f 3b 39 3d 01 be
       -0.38862038 0.13223882 0.0024311212 -0.12621011
000160 d2 16 bc bd b9 3e b8 3e 54 83 ad be 0f 8e 37 3e
       -0.0918404 0.35985354 -0.33889258 0.17925285
000170 35 9a b4 3d 1e 32 92 be e5 96 22 3e e7 41 74 3c
       0.08818475 -0.2855386 0.15877874 0.0149082905
000180 be 1c 9d 3d 8b 3e 5e be ef a9 29 bd 3b 45 9e 3e
       0.07671498 -0.21703546 -0.041421827 0.30912194
000190 4a 85 3b be 69 2d 9c 3e 8a ed 50 3d 5a 80 81 3e
       -0.18312564 0.30503395 0.051007785 0.25293237
0001a0 b0 0b bc bd ac 9d 00 be fd 78 92 3d e1 dd 23 be
       -0.09181917 -0.12560147 0.07151983 -0.16002609
0001b0 2e 40 b6 bd f0 a9 db bc d1 52 91 3d 4d b4 84 bd
       -0.0889896 -0.026814431 0.07095874 -0.06479702
0001c0 4f bb 21 bd a5 3f aa bd 40 c3 7a bd 39 1d 7e 3d
       -0.039485272 -0.083129205 -0.06122136 0.062039588
0001d0 ef 0a 11 3d 5e 97 85 3d d3 e2 9a bd 5c 30 2d be
       0.035410818 0.065230116 -0.075627945 -0.16912979
0001e0 e6 0d ed 3e d3 99 91 be bf a9 1a 3e 7c 17 99 3b
       0.46299666 -0.2843767 0.15103815 0.004671989
0001f0 9d eb 10 3e 5e 01 70 be 2e 98 df bd d0 b2 a6 bd
       0.1415238 -0.23438022 -0.10917698 -0.081395745
000200 f9 01 64 be 85 cd 17 bf 09 28 cd 3d 06 6f ee bc
       -0.22266378 -0.5929797 0.10017402 -0.029105674
000210 b6 39 bb 3d e9 0d 8f 3e d8 2c 95 3d 1e 93 66 3d
       0.09141867 0.279403 0.07283944 0.056292646
000220 89 eb de bd 1c e4 d3 bd e4 3e 05 3e 68 0b a4 3d
       -0.108847685 -0.10346243 0.13012272 0.08009988
000230 3d 7c 5d 3e b8 de a9 3c 59 37 a4 be 10 93 41 3e
       0.21629424 0.020736083 -0.32073477 0.18903756
000240 45 95 f1 3d 70 b7 66 bd d1 b8 07 3e b3 1b 3d 3e
       0.11796049 -0.056327283 0.13254096 0.18467598
000250 62 c2 0c 3e 1a 56 63 3e 74 25 77 be 26 7b 01 bd
       0.13746026 0.22200814 -0.24135381 -0.031611584
000260 02 f6 63 3e 36 da e7 be fe 32 e6 bd 8c d0 d7 3d
       0.22261813 -0.4528367 -0.11240195 0.10537824
000270 64 36 b8 be b7 13 b2 bd e6 90 9b bd 70 76 f5 3d
       -0.35978997 -0.086951666 -0.075959966 0.11985481
000280 2f 31 2a 3e 0c 13 bd 3d 6e d5 73 3e 48 ee d7 bd
       0.16620325 0.092321485 0.23811886 -0.105434954
000290 a4 f2 d4 3d fe aa df bd 17 d2 29 bd a7 68 b2 be
       0.103978425 -0.10921286 -0.041460123 -0.34845468
0002a0 10 92 eb bd 22 97 a0 bd 26 13 84 bd 68 f4 5c 3e
       -0.115024686 -0.07841326 -0.06448965 0.21577609
0002b0 4b 71 da 3c 23 15 29 be 70 97 d6 bc 4d 3c 1b 3d
       0.02666535 -0.1651197 -0.026195258 0.037899304
0002c0 04 9d 30 be a6 ae 25 3e 50 57 32 3e 62 da 39 3e
       -0.17247397 0.16179904 0.1741612 0.18149713
0002d0 9a d1 8e bd 20 d5 22 3e 35 a1 94 3e ed da d4 bd
       -0.06973572 0.15901613 0.2902924 -0.10393319
0002e0 da a6 1e 3d f6 7a 1f bd 5d 03 11 3d 25 b0 87 bd
       0.03873334 -0.038935624 0.035403598 -0.06625394
0002f0 20 f3 51 3e 99 ff 64 3d 1e 87 cc bc 70 af 78 3d
       0.20502901 0.05590782 -0.024966773 0.060714185
000300 1a 17 29 bd 23 ad 31 3e a6 7a 50 bc 39 59 0c 3e
       -0.041281797 0.17351203 -0.012724554 0.1370591
000310 cc 5c 74 3e a4 01 a9 3e f9 a5 fd bd a5 06 0e bd
       0.23863524 0.33009064 -0.123851724 -0.034674305
000320 5a b9 1e 3d 17 0a cb 3d 39 cd aa bd 29 00 06 3e
       0.038750984 0.09914034 -0.08339924 0.13085999
000330 1d 1a 89 bc af 1c 95 3e bd 9a 9c 3d 85 ee 50 be
       -0.016736085 0.29123446 0.076467015 -0.20403488
000340 84 52 95 3d 2e 7b a1 3e f0 e5 f5 bc 61 36 f4 bd
       0.07291129 0.3153929 -0.03001687 -0.119244345
000350 4c 64 59 3e e8 d5 91 3d c7 6c 17 3e 06 04 97 3c
       0.21229666 0.071208775 0.14787589 0.018434536
000360 64 13 4b 3e 67 bc eb bd 23 b9 3e bd 80 fe 21 bb
       0.19831616 -0.11510544 -0.04656328 -0.0024718344
000370 eb b9 1e 3e 51 ae 3b be 20 20 79 be e6 71 6f be
       0.1550061 -0.18328215 -0.24328661 -0.23383293
000380 73 e4 a3 bd 75 b8 8b be ed bb ab bb 16 f8 b6 3d
       -0.080025576 -0.27289167 -0.0052409084 0.089340374
000390 f8 71 cc bd 53 a5 6c be 0d f3 3e 3d ad d7 0f 3e
       -0.09982675 -0.23109941 0.04661851 0.14047118
0003a0 4a d4 46 be b6 04 81 be 79 ea d8 bd ca de 96 3d
       -0.1941692 -0.25198907 -0.10591597 0.073667124
0003b0 6d 61 98 3d 93 1d 01 be be 3b 64 bd 8f aa 83 3e
       0.074404575 -0.12608938 -0.055721037 0.25716063
0003c0 9b 24 d0 3d e6 a4 95 bd dc c5 8c bd 70 df 23 bc
       0.10163232 -0.073068425 -0.06873676 -0.010002002
0003d0 4c dc ec 3d f2 61 3f be b9 be b7 bd fe 60 34 3e
       0.11565456 -0.18689707 -0.08971924 0.17615125
0003e0 6f 0e 6f 3e 7d 45 dc 3d ad c5 51 bd c2 5c f5 bd
       0.2334535 0.10755441 -0.05121391 -0.11980583
0003f0 dc 4c 20 3d d1 90 b4 3d 26 80 83 bd c1 8e 96 bd
       0.0391358 0.08816684 -0.06420927 -0.07351447

total_net.1.net.0.fc.bias f4 [50]
000000 6b a5 20 be bd 0f b4 3d 6f 96 41 3e e5 b7 52 3e
       -0.15688102 0.08792064 0.18905042 0.20577963
000010 4a cf b9 3d d8 fe 71 bd 48 65 89 3d da 6c 5b bd
       0.090727404 -0.05908093 0.06708771 -0.053570606
000020 86 41 e0 bd a3 60 2e be 45 ea 81 be 1e c1 2e 3e
       -0.109499976 -0.17029051 -0.25374046 0.17065856
000030 92 75 b7 bc 44 85 03 3e 77 8b ea bd 0f 89 3c 3e
       -0.02239493 0.12843806 -0.11452382 0.18411659
000040 b7 65 d5 be 81 fa a4 bd fb c0 89 3d 34 dc 02 3e
       -0.41679165 -0.08055592 0.06726261 0.12779313
000050 99 e7 63 3c 7e cd d9 3d e6 55 26 3e 36 0c 27 3e
       0.013910198 0.10634898 0.16243705 0.16313252
000060 e4 36 89 bc 84 6b 9e bd 80 59 39 bd da dd e8 3d
       -0.016749807 -0.07735351 -0.04525137 0.1137044
000070 9c 0a b2 bd 7a 18 f3 bb 57 80 07 3d 77 eb 37 3e
       -0.0869343 -0.0074186893 0.03308138 0.17960916
000080 83 79 08 3e 16 ba cb 3d 40 2e 9f 3e 00 ec 07 3e
       0.13327603 0.099476025 0.31089973 0.1327362
000090 22 dc 14 3d 48 be 18 3e 49 ba 22 3e 19 0b ac 3d
       0.036342748 0.14916337 0.15891375 0.08400554
0000a0 25 88 1f 3d 4b cd 52 bd 62 13 d2 be cf 65 f2 3c
       0.038948197 -0.051465314 -0.41030413 0.029589562
0000b0 c9 c0 a8 3d 92 f8 35 3e 72 b1 a3 bd 7f 4e 12 bc
       0.08239896 0.17770603 -0.079928294 -0.008929848
0000c0 e2 33 5f be 6d 9a 2c be
       -0.21797135 -0.16855784

total_net.2.net.0.fc.weight f4 [25, 50]
000000 19 99 b8 be 33 5c d5 bd ed 29 3d 3d df b0 b5 3d
       -0.36054304 -0.10417976 0.04618256 0.08871626
000010 d2 15 9e 3e 96 7d 11 bb 9b 8a ab bd 00 84 a0 bd
       0.30876023 -0.00222001 -0.08376046 -0.07837677
000020 0b 56 3f 3d 00 00 4d 3d 29 57 6a be 85 16 8d 3d
       0.046712916 0.050048828 -0.22884811 0.06889061
000030 92 0a fc 3e 52 51 ca bd 10 c7 ac 3e 58 68 39 3e
       0.49226815 -0.09878792 0.33745623 0.1810621
000040 f9 f4 31 3e f7 05 64 be 38 7b 17 3e 34 db 46 be
       0.17378606 -0.222679 0.14793098 -0.19419557
000050 6c 82 f8 3e b2 d2 ac 3d 74 07 01 be 30 b3 f8 bd
       0.48537004 0.084386244 -0.126005 -0.12143552
000060 14 15 7d 3e b5 d4 d1 bd 6f 2c 89 bd 04 fc 3e be
       0.24715072 -0.10245649 -0.06697928 -0.18650824
000070 d0 8f 71 3e 6f 41 ce be 34 f1 a3 3e 6c f4 fd bd
       0.23590016 -0.40284297 0.3201996 -0.124001354
000080 55 68 0a be bd e9 68 be 7e 8f 5d be 17 45 b3 3d
       -0.13516362 -0.22745414 -0.21636769 0.08753412
000090 f4 f8 62 be 03 e0 2a 3e 74 ba 18 bd 56 39 97 3d
       -0.2216528 0.16687016 -0.03728719 0.07383983
0000a0 f6 8f a6 bd 74 26 87 3e 1a 6d 8f 3e a1 25 95 3c
       -0.08132927 0.26396525 0.28012925 0.01820642
0000b0 98 b1 17 3e ff 95 51 3e 39 da 39 be 84 e2 b6 3e
       0.1481384 0.20467375 -0.18149652 0.35719693
0000c0 4d 4d 87 bd 69 a7 e7 bd e8 d2 07 bc ec 68 ac 3d
       -0.06606541 -0.11311228 -0.00829003 0.0841845
0000d0 26 a0 63 3e 65 ab b4 3d a1 d1 db 3d c3 49 38 be
       0.2222906 0.088217534 0.10733343 -0.17996888
0000e0 a2 67 06 bd 90 9a 0c bd 51 5b 13 be 36 bb a1 be
       -0.032813676 -0.03432709 -0.14390303 -0.31588143
0000f0 99 e7 91 3d 82 26 96 3c f8 5c 0a 3d a3 8c 86 bd
       0.07124252 0.018328909 0.03378007 -0.06569793
000100 eb 9f eb 3d 8d 9c 2f 3e 08 59 0b be ed d6 16 bd
       0.11505111 0.17149563 -0.13608181 -0.036826063
000110 31 83 4b be 88 18 a4 3e 73 b0 2e 3e 9c 0c 95 3e
       -0.19874264 0.32049966 0.17059498 0.29111183
000120 e1 df 88 3d 7d a7 26 bd e7 c5 6f bc 72 81 ae 3d
       0.066833265 -0.040687073 -0.014634586 0.085207835
000130 60 f3 ed bc 12 92 ec bd bf d6 0f be ed c5 3d be
       -0.029046714 -0.11551298 -0.14046763 -0.18532534
000140 46 77 11 3d 70 0c ca 3e 7b 21 3e 3e c7 01 dc bd
       0.03551414 0.39462614 0.1856746 -0.107425265
000150 87 e9 2b 3e c1 9d e1 3b 8f 5e 5c be 24 33 93 3e
       0.16788302 0.006885261 -0.21520446 0.28749955
000160 7a 88 80 be b4 3c e4 3d 35 3e c2 bd b6 19 b9 3e
       -0.25104123 0.11144391 -0.09484521 0.36152428
000170 04 43 b0 bc 99 79 c2 3d 24 33 91 3e c4 0f 03 bf
       -0.02151633 0.09495849 0.2835933 -0.5119593
000180 ac 99 5b be 07 89 43 bd 79 3a c4 3e f3 8c 9a 3c
       -0.2144534 -0.0477381 0.3832586 0.018866038
000190 8d d6 95 3e 5f 56 e0 3c 4f 20 0a be 57 78 70 3c
       0.29265252 0.027384935 -0.13488887 0.014677129
0001a0 e4 43 52 be f9 68 0c 3d 26 fc 5d 3e 59 6d c0 bd
       -0.2053371 0.034279797 0.21678218 -0.093958564
0001b0 20 aa 5c bd b8 b0 48 be bd 40 4a be d0 9e 87 bb
       -0.05387318 -0.19598663 -0.19751258 -0.004138805
0001c0 36 e7 d1 bd e2 ca 49 3e b2 e1 03 bf 92 60 47 bd
       -0.10249178 0.197063 -0.5151626 -0.04867608
0001d0 a9 ab a4 be 54 00 d1 bd e2 15 29 3e b4 95 a8 be
       -0.32162216 -0.10205141 0.16512254 -0.32926714
0001e0 a1 6c 5b 3d 75 15 85 3d 5f d5 92 3c ae 0c ca bd
       0.053570393 0.06498233 0.017924009 -0.098657
0001f0 80 74 8f 3e 39 90 43 be ca 19 70 bb 10 82 98 3d
       0.2801857 -0.19097985 -0.0036636465 0.074466825
000200 0a ae 2f 3e 5f 66 21 be 7c a1 1c be 29 e9 bf 3d
       0.17156234 -0.15761708 -0.15295976 0.09370644
000210 08 a7 18 3e 78 9f 18 3e b0 80 40 bd 43 75 21 3e
       0.14907467 0.14904583 -0.046997726 0.15767388
000220 38 8d a1 bd b8 a5 60 3e de c3 9e 3d f4 b6 c3 3d
       -0.078882635 0.21938217 0.077522025 0.0955638
000230 94 3e 97 be 88 ac a7 bd c5 77 68 bd 75 0b 6d be
       -0.2953993 -0.081872046 -0.056754846 -0.23148902
000240 9a fc a5 3e 46 dd 96 3b 55 25 34 bd 23 35 0e 3d
       0.32419282 0.0046040146 -0.043980915 0.034718644
000250 19 c9 a7 be f4 2a 1c be fb 83 9f 3d ad 9a d4 3d
       -0.32770613 -0.1525076 0.07788845 0.103810646
000260 9b da 37 3e 27 a6 6f 3d 65 43 b9 3e 5b 3d f3 3c
       0.17954485 0.058508065 0.3618423 0.029692343
000270 a4 12 de 3d d2 9d 68 be 82 05 4b be da 39 be 3d
       0.10843399 -0.22716454 -0.1982632 0.09288378
000280 91 48 45 be 8d 30 89 3e 53 95 83 3e 83 43 f5 3d
       -0.19265963 0.26794854 0.25699863 0.119757675
000290 ac ad 00 3e 6d 52 3a be d7 0e 82 be a6 b9 9b bb
       0.1256625 -0.18195505 -0.25401947 -0.0047523556
0002a0 a0 a4 e7 3d 45 fb eb bd 28 00 44 be 63 ba 44 bd
       0.113106966 -0.11522535 -0.19140685 -0.048029315
0002b0 e7 bc 5e 3e 19 6c 64 3e a0 6a 80 bd 74 a4 7e 3e
       0.21751748 0.22306861 -0.06270337 0.24867421
0002c0 42 02 76 be e9 13 8c be a1 64 20 3e 6f a1 99 3e
       -0.24024299 -0.2735894 0.15663387 0.30005977
0002d0 cf 8e b1 3d c5 4b 22 be 13 0a a1 bc 7c 92 36 3e
       0.08669817 -0.15849216 -0.019658124 0.17829317
0002e0 34 17 8f 3d fd 54 d5 bc ea b5 b6 3e da f0 0b 3e
       0.069868475 -0.026041502 0.35685664 0.13666096
0002f0 3a 6c 22 3d ba 62 f8 3d 18 e0 c8 bb b7 55 8d bd
       0.039653994 0.121282056 -0.0061302297 -0.069011144
000300 38 78 69 bd 63 9c 3b 3e ec fd 87 be 12 dc 3a be
       -0.056999415 0.18321376 -0.26560915 -0.18248013
000310 86 58 6b 3e 60 85 51 3e 93 fc af be a0 77 90 be
       0.22982988 0.20461035 -0.34372386 -0.28216267
000320 ac 79 0d 3e 4f 06 03 3b bf 78 3f bd ed d7 9e 3e
       0.13815945 0.0019992774 -0.04674601 0.31024113
000330 b1 42 c6 3d 28 16 c6 bd 33 6d 93 bd e3 cf 38 bb
       0.09680689 -0.09672195 -0.071985625 -0.0028200082
000340 6f 72 d3 3d 1f 8f 4d bd b3 20 06 be f8 02 3d bd
       0.10324561 -0.05018532 -0.13098411 -0.04614541
000350 e2 ff 83 be 1a 52 dd bd d8 57 28 3d 83 ff d7 3c
       -0.2578116 -0.10806675 0.0410994 0.026366955
000360 0c 57 07 bf 52 78 3a 3e ca e6 60 3e 68 8d ba bc
       -0.528672 0.18209961 0.21963039 -0.022772506
000370 95 34 9c 3d c9 59 11 be 49 15 47 3e 4b bc 21 3e
       0.07627217 -0.14194407 0.19441713 0.15794484
000380 f3 43 ae 3d 70 1c 2d be f3 67 c2 3e 81 43 c5 bd
       0.08509054 -0.1690538 0.37969932 -0.09632016
000390 c9 33 45 be c0 aa 93 be 61 b2 f6 bd c4 64 d7 3e
       -0.19258036 -0.2884121 -0.12045742 0.42069066
0003a0 35 62 b2 bd a4 c1 1c bd ee 09 b1 3d c9 0f a2 bc
       -0.08710138 -0.038270608 0.08644472 -0.019782918
0003b0 34 86 42 bd d2 56 0d 3d 0c b8 07 3e 4f bb 16 3e
       -0.047491267 0.034506626 0.13253802 0.1471989
0003c0 a4 43 99 be e4 d9 59 3e 1c 89 d4 3d 22 e6 17 bf
       -0.29934418 0.21274525 0.10377714 -0.5933553
0003d0 bf 5b 25 3e 00 74 88 be 56 60 c0 be 0f b0 46 3e
       0.1614828 -0.26651 -0.37573498 0.19403099
0003e0 39 62 ec bd 29 48 2a 3d 07 4e 50 bf de 55 b9 bd
       -0.11542172 0.041572724 -0.8136906 -0.09049581
0003f0 bb 27 7e 3e d0 c2 91 3b 23 fd 9a bd 22 f5 7f be
       0.24819843 0.0044482723 -0.07567813 -0.24995854

total_net.2.net.0.fc.bias f4 [25]
000000 90 44 0b 3e 68 d4 09 3e d0 ff d8 3c 8f 68 90 3d
       0.13600373 0.13459933 0.026489168 0.07051193
000010 8c a4 41 3e 3a b8 cc 3c ff df 29 3e 2a f1 61 3d
       0.18910426 0.02499019 0.16589354 0.055161633
000020 21 6f 52 ba fb a6 38 bd 5b 07 5a bf a1 64 35 3e
       -0.0008027424 -0.04508112 -0.85167474 0.17714168
000030 de 33 36 3a 38 35 32 3d cb f9 4c 3d 8c aa ba 3d
       0.0006950478 0.043507785 0.05004291 0.091145605
000040 3d 33 1b 3d 18 23 50 bd cc 54 36 3d 7b 6e 2d bf
       0.03789066 -0.050814718 0.044514462 -0.67746705
000050 60 1c 63 3e f1 57 59 3e e9 d0 c8 3c 6d 9a 1c 3d
       0.22178793 0.21224953 0.024513679 0.03823321
000060 21 cb b7 3d
       0.08974291

total_net.3.weight f4 [12, 25]
000000 4e 8c 53 3d 1f bd 35 be e7 50 22 bd 44 07 cc bb
       0.051647477 -0.17747925 -0.039627936 -0.006226452
000010 3f d0 48 bd da a0 9f bc 83 83 80 bc 5f 6d d2 3d
       -0.049026724 -0.01948588 -0.01568771 0.10274767
000020 cd 41 f8 3c 07 39 a3 bd 20 d4 56 be 09 da 0b bc
       0.030304814 -0.079698615 -0.20979357 -0.00853587
000030 f4 de 11 3d da 87 00 bd fc a6 4c 3d bc a5 fd 3d
       0.035613015 -0.03137956 0.049963936 0.12385127
000040 67 22 14 bd b3 48 66 3d 48 3d 13 3d 2f 93 69 3c
       -0.03616562 0.056221675 0.035947114 0.014256283
000050 a0 68 10 3e 0c 67 be bc de 61 1b 3d 71 5c ce 3d
       0.14102411 -0.023242496 0.03793513 0.100762255
000060 7c 7d 5a be 8c e4 98 bd d7 c6 d1 bb c9 50 65 3c
       -0.21336931 -0.07465467 -0.0064018774 0.013996311
000070 a9 4d 07 3c 98 cd c0 bd 1a 30 00 3c de 82 bb bd
       0.008258262 -0.09414214 0.007823968 -0.0915582
000080 1d db db 3d a4 46 22 3c 9d 21 1b 3d 9e 91 1c be
       0.10735152 0.009904537 0.037873853 -0.15289924
000090 e9 ea b5 bd 44 c9 f9 3d a6 04 01 3d 88 dd 10 3e
       -0.08882696 0.121965915 0.031498574 0.14147007
0000a0 ef 04 26 3e 74 53 49 bd 6d 2f 1f be 84 f5 3c 3d
       0.1621282 -0.049151853 -0.15545435 0.04613258
0000b0 72 0f 6d be f3 ec cc 3c 46 7a ab bd c4 83 fe bd
       -0.23150423 0.02501533 -0.08372931 -0.12427476
0000c0 73 be 34 be 16 2c 06 3a 93 21 c2 3d 4a 07 b9 3b
       -0.17650776 0.00051182637 0.0947906 0.005646621
0000d0 d6 5e 0d 3d 96 8a 7e 3d ad ea 37 3d 35 b4 dc 3c
       0.03451427 0.062143885 0.04490154 0.026941398
0000e0 6e b7 bc 3d ab 14 fd bd 1e b4 2e bd 55 72 c3 3d
       0.09214674 -0.12357458 -0.042652242 0.095432915
0000f0 af 6a 4a be 67 5c 07 be f9 ec 43 3e d2 fe 91 3d
       -0.19767259 -0.13218842 0.19133367 0.07128681
000100 a7 fd 0f bd a8 fd b1 3d b4 be 7c 3c c6 b7 3f 3e
       -0.03515401 0.08690959 0.015426327 0.18722448
000110 8d 2d e5 bd f8 01 6d be 5c bc 8d 3d 29 bf ab bd
       -0.11190329 -0.23145282 0.06920692 -0.0838607
000120 ee 29 b7 3d 40 af 3b be 3d f5 a7 3c 1c 1b d2 bc
       0.08943544 -0.18328571 0.02050268 -0.025647692
000130 d2 78 48 3e d6 76 36 bd a5 8f 89 3d ff 58 14 3c
       0.1957734 -0.044546925 0.06716851 0.009054421
000140 90 f5 e6 bc 46 ad af bc 89 94 5a be 48 e2 ab bc
       -0.028193265 -0.021444928 -0.21345724 -0.020981923
000150 f2 5d 16 be 45 9f 4e be fa 95 13 3c c8 32 10 3e
       -0.14684275 -0.20177944 0.009007925 0.14081872
000160 91 28 68 3c 84 61 a5 bd e3 da 94 3c df f8 d3 bc
       0.014169828 -0.0807524 0.01817078 -0.025875507
000170 e7 b2 e2 3d f0 9b 15 bc a1 15 ba 3c 27 88 9d bc
       0.11069279 -0.009131417 0.022715392 -0.019229962
000180 78 4a b7 3c d5 a7 d1 bc 42 da 96 3d 56 07 79 bd
       0.022374377 -0.025592724 0.07365848 -0.06079801
000190 82 1b 98 bd a2 ba 21 3e d1 92 cb 3d 27 29 86 bd
       -0.07427122 0.15793851 0.099401124 -0.06550818
0001a0 a2 ca cd bc 17 84 6e 3d fb fa 5a 3d 9c 9e af bd
       -0.025121037 0.05823144 0.05346201 -0.08575174
0001b0 22 24 ba bd 91 52 9b bc e8 0c 34 be da 25 9c bd
       -0.09088923 -0.01896027 -0.17583048 -0.07624407
0001c0 ab 49 36 be b9 38 41 3c 04 8d 81 3d 12 10 14 3e
       -0.1780154 0.011793309 0.06325725 0.14459255
0001d0 2a 72 5e bd 2d de 8b 3d 69 59 c3 3d e9 6b 83 3e
       -0.054308094 0.06829486 0.09538538 0.25668266
0001e0 6c dd 42 3d 7d 6c 8c bd 1e 60 54 bd e5 da 03 3e
       0.047574446 -0.0685663 -0.051849477 0.1287647
0001f0 05 2f 73 bc 25 b6 b3 3b 9b c6 15 be 7a dc c5 3d
       -0.014842753 0.00548436 -0.14626543 0.09661193
000200 58 84 38 bd f0 cd 05 3c 38 00 af bd 0d 2a 02 3e
       -0.045048088 0.008166775 -0.085449636 0.12711354
000210 30 ab 8e bd 51 0b 73 bd ae 30 19 bd 8b c1 3c be
       -0.06966245 -0.059336964 -0.03739994 -0.18433206
000220 d3 ec 44 bc 25 31 e8 bd fb c8 b8 3d c3 8a 6c 3d
       -0.012019354 -0.113374986 0.09022709 0.05774952
000230 d6 a1 11 3e bf a7 1a 3e 3a a7 3a 3e c4 a0 ba bd
       0.14221892 0.15103053 0.18227854 -0.09112695
000240 82 4a 5f 3e b9 7c 6a bd 3e ce 96 bc b4 44 47 3c
       0.21805766 -0.05724785 -0.01840889 0.012162376
000250 59 89 d3 3d 7f 5b 64 bc 73 0e b1 bc c9 39 0f be
       0.10328931 -0.01393783 -0.021613335 -0.13986887
000260 5e eb 97 3c 55 60 44 be 06 47 a0 bd 53 90 fd 3d
       0.018544849 -0.19177373 -0.07826047 0.12381043
000270 2f 85 4e bd a5 e0 2a bd f8 f0 99 3c 96 fe 0d 3d
       -0.050419983 -0.041718144 0.01879166 0.03466662
000280 0e ab 41 3e 53 70 65 3d cb fd e3 3d 36 4f 35 bd
       0.18912908 0.056015324 0.111323915 -0.044264995
000290 66 89 6c bd 7d dc 39 be 8d 81 08 3d 1a d2 34 3e
       -0.05774822 -0.18150516 0.033326674 0.17658272
0002a0 da cc 8b 3d 19 4e d3 bc c3 54 74 3d 17 57 bd bc
       0.06826182 -0.025794076 0.059651148 -0.023112817
0002b0 98 fd b1 3d d0 ce 51 3d 60 f3 18 3e 8b 82 9f bc
       0.08690947 0.051222622 0.1493659 -0.019471427
0002c0 b8 0b fe bb f9 84 ac bd 71 c2 c1 3d 4e b9 a4 bd
       -0.007752862 -0.084238 0.09460915 -0.080431566
0002d0 91 d9 19 be 4d e5 22 be 0f 66 70 3d c7 fe 12 3c
       -0.15024401 -0.15907784 0.05869108 0.008971876
0002e0 49 b2 63 bc 6d 91 38 3e 0d 8c 8b bd 09 b7 8a 3c
       -0.013897487 0.18024226 -0.06813822 0.016932981
0002f0 d8 2b a9 bc a6 9f ce bc 12 02 1a be 87 f7 be 3d
       -0.02065079 -0.02522261 -0.15039852 0.09324556
000300 f1 85 28 3e 06 9a 50 3e 9e 94 70 be 81 b4 ea bd
       0.16457345 0.20371255 -0.23494193 -0.1146021
000310 1a 10 d0 bc 57 e7 7d 3d 7c cd 81 bd 4e d4 de 3d
       -0.025398303 0.0619882 -0.06338021 0.10880338
000320 66 ec 0f 3e fb e8 8d 3c 4c 8f 44 bc ba a8 2f 3e
       0.14055023 0.017323008 -0.011997055 0.17154208
000330 bd 4d c0 3d f4 ad 8a 3d 23 e2 86 bd 34 89 ab 3d
       0.093898274 0.0677146 -0.06586101 0.08375779
000340 b1 ca 4d 3d ff 1e c0 bd 96 1e 3c 3e 06 5e 8e bd
       0.05024213 -0.09380912 0.18371043 -0.06951527
000350 6a cd 09 be b1 8c c2 3b cc 7b 2b be 64 1a 1e bd
       -0.13457265 0.005937182 -0.16746444 -0.038599387
000360 ae 32 b2 3c 3b 04 84 bd 2b a6 02 3d 26 b6 59 be
       0.021752682 -0.064461194 0.03189675 -0.2126089
000370 0f 9d 7e ba 35 01 c7 3d fd 00 14 be de e5 51 bd
       -0.00097127346 0.09717027 -0.14453502 -0.05124461
000380 8b 12 c7 3d 32 fd 80 bd f4 f3 bd 3d 58 08 0e 3d
       0.09720334 -0.06298293 0.09275046 0.034675926
000390 e0 2f 84 bc 94 20 59 3e 65 58 8b bc 4a 6b 80 3d
       -0.01613611 0.21203834 -0.017009923 0.06270464
0003a0 87 0e 01 3e 8b f6 68 3c 19 39 06 be b6 ed 65 3e
       0.12603198 0.014218937 -0.13107719 0.22453961
0003b0 0a e8 24 3e 06 fc ee bc eb 41 14 3d 5c ad cb bd
       0.16104141 -0.029172909 0.036195677 -0.09945175
0003c0 3f 1b bc bd 84 1d 0e bc fd 55 82 bd aa d6 43 bd
       -0.09184884 -0.008674029 -0.06364057 -0.04781214
0003d0 fc 96 d8 bb a3 1f 80 bd ef 91 cf 3c aa 0b b2 3d
       -0.0066097956 -0.06256034 0.025338141 0.08693631
0003e0 c9 6b 30 bd 44 bc 65 bd d9 33 8a bd 69 4d a2 3d
       -0.043071542 -0.056087747 -0.067481704 0.07924921
0003f0 96 09 a6 bd b4 30 8e bb df ef 92 3d 82 eb b6 3d
       -0.08107297 -0.004339302 0.07174658 0.08931638

total_net.3.bias f4 [12]
000000 65 b7 bc bc 25 0d 3c be 3c 36 9e 3c d0 ff 8b 3b
       -0.023036668 -0.18364389 0.01931297 0.0042724386
000010 9c ba 18 be 15 cc 0a 3e ae 3f 41 3d ad be 83 3d
       -0.14914936 0.13554414 0.04717987 0.06432853
000020 2a 09 85 3d bb 56 99 bd c6 d5 a8 3d f2 a0 18 3e
       0.064958885 -0.07487246 0.08243899 0.14905146

weight f4 [100, 6]
000000 45 35 29 3f 08 ae d1 3e 77 7a 35 3f b0 7f f2 be
       0.6609691 0.40953088 0.7088999 -0.47363043
000010 30 7f 9d be c5 5a c5 be 88 d9 7f be fc 0e ca 3e
       -0.307611 -0.38545814 -0.24985325 0.39464557
000020 b9 9b 15 3f df 2d a7 be 9e 8e c0 3e 76 51 69 3e
       0.5844074 -0.32652184 0.37608808 0.22784981
000030 0c cc 4b bd 74 dd 41 bf bd d8 37 be 63 cf 2e 3e
       -0.04975514 -0.75728536 -0.17953773 0.17071299
000040 7d 39 95 3f bd 53 2f 3f 93 5f bb be be d4 4f 3d
       1.1658169 0.6848715 -0.36596355 0.050739996
000050 66 a7 7c 3d b1 3c 02 be ef df 45 bf 39 84 47 3f
       0.06168308 -0.12718464 -0.7729482 0.7793613
000060 fa fc db 3d 3f 1b db be df e8 d5 3e 7d 9e 36 be
       0.10741611 -0.42794225 0.4177923 -0.17833896
000070 d1 3a 06 bf 5f 45 82 3d 06 df 0d 3e fa cf 41 bc
       -0.52433497 0.06360888 0.13854608 -0.011829371
000080 d6 70 bd 3e a9 8a 6c 3f 63 98 47 3d 9a c1 0f bf
       0.3700015 0.9239908 0.04872931 -0.5615479
000090 59 8e b5 3e 1a c1 f2 3d bd 80 b0 be 89 6a 49 bf
       0.35460165 0.118532375 -0.3447322 -0.78678185
0000a0 f4 1b db 3e 12 77 d1 3e 2e c6 ae 3e 18 5d ae 3d
       0.42794764 0.40911156 0.34135574 0.0851385
0000b0 95 fe 24 3f 5b 95 8c be c3 a0 6b bf 8b 7b 13 3e
       0.6445096 -0.274577 -0.9204218 0.14402597
0000c0 1c e5 e2 be c0 74 42 3e cd 61 5a 3e c6 0f 13 3f
       -0.44315422 0.18989849 0.2132637 0.57445943
0000d0 fe 0b dc 3e 66 c4 7a be 21 51 bb be f9 e6 2b bf
       0.429779 -0.24488983 -0.36585334 -0.6714931
0000e0 7d 11 70 3e 44 cb c9 3c a7 82 82 bf 1d bb 8a be
       0.23444171 0.024633057 -1.0196122 -0.2709588
0000f0 2b 9d af 3d 29 2e 84 bd da bc 67 bf b8 67 65 bf
       0.08574899 -0.06454117 -0.9052254 -0.8961139
000100 1f 0f eb bb a0 bf 02 bf 0f 63 94 bd c0 42 5f bf
       -0.0071734334 -0.51073647 -0.072454564 -0.8721123
000110 ae 01 b5 be 0e c9 54 bc 36 39 f1 3e b4 08 e0 be
       -0.35352844 -0.012987388 0.4711396 -0.4375664
000120 4c 59 ce 3e de b9 86 3e c4 62 21 bf e4 86 37 3f
       0.40302503 0.2631368 -0.6304133 0.716902
000130 ab da b5 3e 08 5f 0c bf 0b 2a 52 bd dd 79 ab bc
       0.35518393 -0.54832506 -0.051309627 -0.020932132
000140 19 3a de 3e bf 77 5a 3f 1c 67 09 3d c2 67 25 be
       0.434037 0.8533897 0.0335456 -0.16152862
000150 99 c0 91 3e 25 37 8c 3e c9 9d e2 3d 48 c2 05 be
       0.28467253 0.27385822 0.110652514 -0.13062394
000160 38 74 01 be 8d 4d 19 be 37 ad 9e be 76 a1 1c bf
       -0.1264199 -0.1497099 -0.30991527 -0.6118387
000170 32 87 8b 3d c8 d3 b3 3e 29 6a c6 bc 30 28 c8 bf
       0.06812896 0.35122514 -0.024220543 -1.5637264
000180 53 64 9c 3e 24 06 1c bf ff 57 11 3e c4 f2 4b bf
       0.3054529 -0.6094687 0.14193724 -0.79667306
000190 aa 92 b9 3f a5 a8 4e 3e 2e 3a 86 3e e2 44 30 3f
       1.4497883 0.2018152 0.26216263 0.68855107
0001a0 e5 05 18 3f 75 91 5a bd 97 e7 00 be c0 62 32 be
       0.59383994 -0.053361375 -0.12588345 -0.17420483
0001b0 77 dd 0d bf fc bb fc bd 5f ac e8 3e 9c 5d 76 be
       -0.55416054 -0.12340543 0.4544401 -0.24059147
0001c0 d5 b2 43 3e 02 55 a6 be 27 2b 6b 3f f3 92 60 bf
       0.19111188 -0.3248673 0.9186272 -0.87724227
0001d0 0d 28 38 3e 9f d6 17 be b5 b8 da be 73 76 a3 3e
       0.17984028 -0.14827965 -0.42719045 0.31926307
0001e0 f7 82 4e be c6 77 68 be b0 c8 a9 3e 17 cd 3a bd
       -0.20167147 -0.2270194 0.33160925 -0.045605745
0001f0 fd ce 0e bf 25 91 33 3f 35 1e 87 3e 95 30 b8 3d
       -0.5578459 0.7014335 0.26390234 0.08993641
000200 b8 8f 8b bf 3f 3c d8 3e 9b 8c 3b 3f 93 be 50 bf
       -1.0903234 0.42233464 0.7326142 -0.81540793
000210 55 d6 45 3f 19 3a 18 3e ea ca 6f bd 21 dd 17 bd
       0.7728017 0.14865912 -0.058543123 -0.03707612
000220 32 1d c1 3e f2 19 14 bf 7c 1b c8 3c 10 85 b7 3e
       0.37717587 -0.5785209 0.024427168 0.35843706
000230 64 9a c1 3e 02 f5 00 3e b9 d5 6b bf c3 b1 1e bf
       0.37813103 0.12593463 -0.9212299 -0.6198999
000240 1b d1 b1 be a1 ec 0b 3e d7 11 fa be 00 0e 74 3f
       -0.34729847 0.13664486 -0.48841736 0.9533386
000250 8a 47 c7 bd aa 88 0a 3f fe 86 14 3e e8 ca 31 3d
       -0.09730442 0.5411478 0.1450462 0.043406397
000260 1c e3 f7 3c 21 16 05 be 30 2d 86 3e 73 47 30 bf
       0.030259661 -0.12996723 0.2620635 -0.6885902
000270 27 72 36 be 0d 59 17 bf 6e 8f 07 bf d3 3e 80 3d
       -0.17816983 -0.59120256 -0.5295323 0.06261983
000280 53 ce 4e bf 1e eb bd be ad d2 48 3e 60 28 4f be
       -0.80783576 -0.37093443 0.19611616 -0.20230246
000290 fe 19 60 3e e4 52 02 3e ae fb b6 be b7 47 18 3f
       0.21884915 0.12726933 -0.3573889 0.5948443
0002a0 69 59 da be 0d 8c 01 3f f1 74 ed 3d 6d 55 a7 be
       -0.4264634 0.50604326 0.115945704 -0.32682362
0002b0 70 40 f5 be 8c 0b 14 bf a8 e6 fa 3a 07 62 2d bd
       -0.47900724 -0.5783012 0.0019142227 -0.042329814
0002c0 77 d0 fe 3e b0 33 75 3d 22 43 ec bd 70 58 05 bf
       0.4976842 0.059863746 -0.11536242 -0.5208807
0002d0 6b b0 ab 3e bf 8d 14 3f 05 a5 bb bc 66 fe 96 3f
       0.33533034 0.5802879 -0.022905836 1.1796386
0002e0 1d e7 aa be a8 2a c7 3d 7d f7 e5 be 2f 04 57 3e
       -0.3337945 0.09724933 -0.4491538 0.2099769
0002f0 f2 55 79 be 4a fe 56 3f 38 86 a5 3e 64 2f 8e 3c
       -0.24349192 0.83981764 0.32328963 0.017356582
000300 18 8a 10 bf e6 b7 13 bf 46 78 fd bd b1 fd 57 bf
       -0.56460714 -0.5770248 -0.12376456 -0.8437148
000310 1d 9f bf bd e0 c1 9d 3c b4 d2 e0 3e e5 a7 a2 3e
       -0.0935652 0.019257486 0.43910754 0.31768718
000320 f0 47 db 3e 00 a5 d2 be 10 72 27 be b7 c2 eb be
       0.4282832 -0.4114151 -0.16352105 -0.46046993
000330 74 71 4c bf fd 2d 0c 3f 4a 56 19 bf 2e 2f 1e be
       -0.79860616 0.5475767 -0.5989729 -0.15447685
000340 89 cc ff be e5 6e 91 3f f5 c8 63 be 7c f8 0b bf
       -0.49960735 1.1361967 -0.22244628 -0.5467603
000350 ec 43 bf ba 86 ab a4 3e 56 6e b4 3f c6 05 76 be
       -0.0014592386 0.32162112 1.4096172 -0.2402564
000360 30 7d 59 3f 82 61 31 3f b0 4c 6f be c6 ee c6 be
       0.84956646 0.6928941 -0.23369098 -0.38854045
000370 d9 a5 03 bf d5 aa 6d 3e b9 56 77 be 3f ea e5 3e
       -0.5142494 0.23209698 -0.24154176 0.44905278
000380 2d 95 d6 bd 1b da 19 3f 94 57 89 bf f9 a1 2c be
       -0.10477672 0.6009843 -1.0729852 -0.16858663
000390 c7 a3 9e 3e 57 ba a9 be ee 3a 32 3c 69 4c 10 bf
       0.30984327 -0.3314998 0.010878308 -0.5636659
0003a0 b3 96 30 be 06 08 80 3d 35 64 e2 3e b0 bb 79 3d
       -0.17244987 0.0625153 0.44217077 0.06097001
0003b0 af b4 f6 3d f6 49 b6 3e 33 e9 f9 3d 66 d1 57 3f
       0.120461814 0.35603303 0.12202682 0.8430389
0003c0 b1 f7 58 bf c6 ff 9e bc e2 c2 3c be da f2 8e bf
       -0.8475295 -0.019409072 -0.18433717 -1.1167862
0003d0 fe 96 82 3e a4 dd 10 bc e6 d0 e6 3e f4 be 00 be
       0.25505823 -0.008841906 0.45081252 -0.12572843
0003e0 2a 55 2c 3e 4a 07 cf 3d 2b 4f 51 be 4b d7 fb bd
       0.16829363 0.10108812 -0.20440356 -0.12296923
0003f0 03 dd b5 be f1 b6 2c bf e9 3f 11 3f 92 07 3f bd
       -0.3552018 -0.67466646 0.56738144 -0.04663808

bias f4 [100]
000000 2f 83 c6 3c b9 3c 81 bc 46 19 32 3c b1 fe 6e 3c
       0.024232475 -0.015776025 0.0108702835 0.01458709
000010 3b c0 13 be ba 29 4a be e9 d6 5e 3e 8f a7 b8 3e
       -0.14428799 -0.1974248 0.21761669 0.36065337
000020 23 f3 2b bd 5e bb 6f be 0f 28 7f 3e b4 79 73 3e
       -0.04197992 -0.23411319 0.24917625 0.23776895
000030 9e e3 89 3e 7a db 90 3e 27 56 a0 3d 89 06 9c 3e
       0.2693147 0.28292447 0.07828932 0.30473736
000040 65 eb 5a 3e 95 80 79 bd f1 e6 7c bd 61 c3 88 be
       0.21378858 -0.06091364 -0.06174368 -0.26711562
000050 b1 57 31 3e fa 4e 0d bf 8a 17 42 3d 54 27 da 3e
       0.17318608 -0.55198634 0.04738573 0.4260813
000060 bb 6b ca 3e 64 7e 72 3e ad 5f 6c 3e 66 67 74 3e
       0.39535317 0.23681027 0.23083372 0.23867568
000070 5b 07 87 3e 81 71 b8 be 09 33 90 3e 03 d3 4d be
       0.263728 -0.36024097 0.28163937 -0.20100026
000080 51 04 9c 3a af e8 f2 be 71 d3 8b 3e 7c c5 ba bd
       0.0011903142 -0.47443148 0.27309754 -0.091196984
000090 6a 5e 4b bc 9a 4a 2d be f1 c7 30 3e ad 35 c4 3e
       -0.012412647 -0.1692299 0.17263772 0.383222
0000a0 3a 1a 49 bd 1c 10 8d 3d 67 d4 c1 3c 4a 01 d6 3b
       -0.049097277 0.06887838 0.023660852 0.0065309154
0000b0 a2 ea a9 bd a3 5d eb bb f1 54 04 3d 11 f5 6c 3e
       -0.08296706 -0.007182793 0.03230757 0.2314036
0000c0 d1 f8 c3 3d b6 c2 a4 3e fc 07 a3 3e 9b fe f5 bd
       0.09568942 0.32179803 0.3184203 -0.12011453
0000d0 25 9c 5d 3e d1 9b 80 3c 22 48 96 be 1b 60 d2 3d
       0.21641596 0.015699299 -0.29351908 0.10272237
0000e0 58 cf 86 bd fe 0e 13 3e 30 e5 09 bc 99 78 17 3e
       -0.065825164 0.14361188 -0.008416459 0.14792098
0000f0 07 9d d7 bc ed 15 ab 3d 40 3a 11 3f 85 f1 83 3e
       -0.026319994 0.083537914 0.5672951 0.25770202
000100 41 46 99 bd c2 ec 4e bc 72 05 84 bd 64 94 2e be
       -0.07484103 -0.01262969 -0.06446351 -0.17048794
000110 2d ad 9d be 65 47 db 3d 68 ce 7a 3e 74 8d 57 be
       -0.30796185 0.10706977 0.244928 -0.21050054
000120 b7 4f 86 be d4 1a 72 bd 8d de 0c be 10 b7 c2 3e
       -0.26232693 -0.059107617 -0.13756771 0.3803029
000130 a7 4c 4f be cc 44 84 3e 01 f8 90 3d c8 d3 cc 3e
       -0.20244084 0.25833738 0.07078553 0.40005326
000140 93 84 88 bd 4a 1d 10 3e d3 d2 56 3e 3a 4f 2f bc
       -0.066659115 0.14073673 0.2097886 -0.010700041
000150 8d b8 8f be c4 6a ac bd e2 0a 5b be 90 ed 6b 3c
       -0.2807049 -0.084188014 -0.2139087 0.014399901
000160 29 90 71 3e 1a 7c 87 bb 06 d2 76 3e 87 78 79 3c
       0.23590149 -0.004134667 0.24103555 0.01522649
000170 05 66 a8 bc 49 62 eb 3c 22 05 12 bd 61 44 89 3e
       -0.02055646 0.02873339 -0.035649426 0.2680998
000180 19 d4 8c bd 0b 9d a8 3d 6d 8b ab 3e b1 50 15 3e
       -0.06876392 0.082330786 0.3350481 0.14581563

weight f4 [50, 100]
000000 3f 12 76 3e db b9 2e bd ac 24 13 3d 07 4c ff bb
       0.24030398 -0.042657714 0.035923645 -0.0077910456
000010 93 a4 27 3d 8c 5a 74 3e c8 b9 81 bd 9f f6 fa 3d
       0.040928435 0.23862666 -0.06334263 0.122540705
000020 82 b4 4b 3e b4 a7 99 3d b8 b9 ae 3a 9f 78 d8 bd
       0.19893077 0.0750269 0.0013330495 -0.10569882
000030 c3 48 93 bd 07 99 f2 3d a7 a9 24 be 59 21 e4 bd
       -0.071916126 0.11845594 -0.16080342 -0.11139173
000040 0c 7d bf bd b7 f4 79 bd 02 04 41 bc a5 b2 4f 3d
       -0.09350023 -0.061024394 -0.011780741 0.050707478
000050 25 3a 17 be e8 75 2d 3e 72 e6 f2 bd 42 dd 67 3d
       -0.14768274 0.16939509 -0.1186036 0.056607492
000060 fd 7e 4d be 83 ac 82 be de 27 70 be ff 22 d3 bc
       -0.20067973 -0.2552224 -0.23452708 -0.025773523
000070 69 fe ab bd d5 ec 25 3e 6b 47 b7 3d 0a 71 46 3e
       -0.08398134 0.16203626 0.08949169 0.19379058
000080 07 59 0e 3e ec c2 62 3e ab be 4b bc 51 7f 8a 3e
       0.13901149 0.2214467 -0.0124355955 0.2705026
000090 b3 db 82 bd 20 a0 e6 3c b8 5d 74 be 43 6b 2e bd
       -0.063895606 0.028152525 -0.23863876 -0.04258276
0000a0 e4 c2 ab 3e 5c d1 d9 3d 96 0c b8 bd dc d2 5e 3d
       0.33547127 0.10635635 -0.089867756 0.05440031
0000b0 50 de 37 be 4b 40 19 be 96 7a 91 3e 27 0e b0 be
       -0.17955899 -0.14965932 0.28413838 -0.34385797
0000c0 00 68 8c bc 0e 8a 0a 3d 90 2c 91 3d 62 5b 07 be
       -0.017139435 0.033823065 0.07088578 -0.13218454
0000d0 98 2c 28 3d 73 0d 8f 3e 97 39 12 3e d4 13 cc 3d
       0.041058153 0.27939948 0.14279781 0.099647194
0000e0 3d 3a e3 3d 13 a3 6a be 62 58 89 bc fe 90 01 3d
       0.110950924 -0.2291377 -0.016765777 0.031632416
0000f0 fa c2 e0 bd 9e 83 30 3d 17 91 0b bd 57 d6 46 bd
       -0.10974689 0.04309427 -0.034073915 -0.048544254
000100 40 75 3e 3c 1e 28 ac bd 34 d8 da bd 45 8f 20 3e
       0.011624634 -0.08406089 -0.10685769 0.15679653
000110 c4 ed 78 bd 07 80 f6 bd 77 c4 f2 3d 5f 66 be 3d
       -0.060773626 -0.12036138 0.11853879 0.092968695
000120 aa 93 b4 3e 88 a6 ae 3e 59 75 56 3e 3d 3d cd bd
       0.3526891 0.34111428 0.20943202 -0.10021446
000130 76 83 09 be f3 9d a3 3e 42 61 af 3d 22 cb 88 be
       -0.13429055 0.31956443 0.08563472 -0.26717478
000140 e2 7d df 3e cd 84 23 3e c2 b0 20 3e a9 fa 28 be
       0.43650728 0.15968628 0.15692428 -0.1650187
000150 40 f9 c6 be 9d 69 07 3e 72 53 1f 3b 39 3d 01 be
       -0.38862038 0.13223882 0.0024311212 -0.12621011
000160 d2 16 bc bd b9 3e b8 3e 54 83 ad be 0f 8e 37 3e
       -0.0918404 0.35985354 -0.33889258 0.17925285
000170 35 9a b4 3d 1e 32 92 be e5 96 22 3e e7 41 74 3c
       0.08818475 -0.2855386 0.15877874 0.0149082905
000180 be 1c 9d 3d 8b 3e 5e be ef a9 29 bd 3b 45 9e 3e
       0.07671498 -0.21703546 -0.041421827 0.30912194
000190 4a 85 3b be 69 2d 9c 3e 8a ed 50 3d 5a 80 81 3e
       -0.18312564 0.30503395 0.051007785 0.25293237
0001a0 b0 0b bc bd ac 9d 00 be fd 78 92 3d e1 dd 23 be
       -0.09181917 -0.12560147 0.07151983 -0.16002609
0001b0 2e 40 b6 bd f0 a9 db bc d1 52 91 3d 4d b4 84 bd
       -0.0889896 -0.026814431 0.07095874 -0.06479702
0001c0 4f bb 21 bd a5 3f aa bd 40 c3 7a bd 39 1d 7e 3d
       -0.039485272 -0.083129205 -0.06122136 0.062039588
0001d0 ef 0a 11 3d 5e 97 85 3d d3 e2 9a bd 5c 30 2d be
       0.035410818 0.065230116 -0.075627945 -0.16912979
0001e0 e6 0d ed 3e d3 99 91 be bf a9 1a 3e 7c 17 99 3b
       0.46299666 -0.2843767 0.15103815 0.004671989
0001f0 9d eb 10 3e 5e 01 70 be 2e 98 df bd d0 b2 a6 bd
       0.1415238 -0.23438022 -0.10917698 -0.081395745
000200 f9 01 64 be 85 cd 17 bf 09 28 cd 3d 06 6f ee bc
       -0.22266378 -0.5929797 0.10017402 -0.029105674
000210 b6 39 bb 3d e9 0d 8f 3e d8 2c 95 3d 1e 93 66 3d
       0.09141867 0.279403 0.07283944 0.056292646
000220 89 eb de bd 1c e4 d3 bd e4 3e 05 3e 68 0b a4 3d
       -0.108847685 -0.10346243 0.13012272 0.08009988
000230 3d 7c 5d 3e b8 de a9 3c 59 37 a4 be 10 93 41 3e
       0.21629424 0.020736083 -0.32073477 0.18903756
000240 45 95 f1 3d 70 b7 66 bd d1 b8 07 3e b3 1b 3d 3e
       0.11796049 -0.056327283 0.13254096 0.18467598
000250 62 c2 0c 3e 1a 56 63 3e 74 25 77 be 26 7b 01 bd
       0.13746026 0.22200814 -0.24135381 -0.031611584
000260 02 f6 63 3e 36 da e7 be fe 32 e6 bd 8c d0 d7 3d
       0.22261813 -0.4528367 -0.11240195 0.10537824
000270 64 36 b8 be b7 13 b2 bd e6 90 9b bd 70 76 f5 3d
       -0.35978997 -0.086951666 -0.075959966 0.11985481
000280 2f 31 2a 3e 0c 13 bd 3d 6e d5 73 3e 48 ee d7 bd
       0.16620325 0.092321485 0.23811886 -0.105434954
000290 a4 f2 d4 3d fe aa df bd 17 d2 29 bd a7 68 b2 be
       0.103978425 -0.10921286 -0.041460123 -0.34845468
0002a0 10 92 eb bd 22 97 a0 bd 26 13 84 bd 68 f4 5c 3e
       -0.115024686 -0.07841326 -0.06448965 0.21577609
0002b0 4b 71 da 3c 23 15 29 be 70 97 d6 bc 4d 3c 1b 3d
       0.02666535 -0.1651197 -0.026195258 0.037899304
0002c0 04 9d 30 be a6 ae 25 3e 50 57 32 3e 62 da 39 3e
       -0.17247397 0.16179904 0.1741612 0.18149713
0002d0 9a d1 8e bd 20 d5 22 3e 35 a1 94 3e ed da d4 bd
       -0.06973572 0.15901613 0.2902924 -0.10393319
0002e0 da a6 1e 3d f6 7a 1f bd 5d 03 11 3d 25 b0 87 bd
       0.03873334 -0.038935624 0.035403598 -0.06625394
0002f0 20 f3 51 3e 99 ff 64 3d 1e 87 cc bc 70 af 78 3d
       0.20502901 0.05590782 -0.024966773 0.060714185
000300 1a 17 29 bd 23 ad 31 3e a6 7a 50 bc 39 59 0c 3e
       -0.041281797 0.17351203 -0.012724554 0.1370591
000310 cc 5c 74 3e a4 01 a9 3e f9 a5 fd bd a5 06 0e bd
       0.23863524 0.33009064 -0.123851724 -0.034674305
000320 5a b9 1e 3d 17 0a cb 3d 39 cd aa bd 29 00 06 3e
       0.038750984 0.09914034 -0.08339924 0.13085999
000330 1d 1a 89 bc af 1c 95 3e bd 9a 9c 3d 85 ee 50 be
       -0.016736085 0.29123446 0.076467015 -0.20403488
000340 84 52 95 3d 2e 7b a1 3e f0 e5 f5 bc 61 36 f4 bd
       0.07291129 0.3153929 -0.03001687 -0.119244345
000350 4c 64 59 3e e8 d5 91 3d c7 6c 17 3e 06 04 97 3c
       0.21229666 0.071208775 0.14787589 0.018434536
000360 64 13 4b 3e 67 bc eb bd 23 b9 3e bd 80 fe 21 bb
       0.19831616 -0.11510544 -0.04656328 -0.0024718344
000370 eb b9 1e 3e 51 ae 3b be 20 20 79 be e6 71 6f be
       0.1550061 -0.18328215 -0.24328661 -0.23383293
000380 73 e4 a3 bd 75 b8 8b be ed bb ab bb 16 f8 b6 3d
       -0.080025576 -0.27289167 -0.0052409084 0.089340374
000390 f8 71 cc bd 53 a5 6c be 0d f3 3e 3d ad d7 0f 3e
       -0.09982675 -0.23109941 0.04661851 0.14047118
0003a0 4a d4 46 be b6 04 81 be 79 ea d8 bd ca de 96 3d
       -0.1941692 -0.25198907 -0.10591597 0.073667124
0003b0 6d 61 98 3d 93 1d 01 be be 3b 64 bd 8f aa 83 3e
       0.074404575 -0.12608938 -0.055721037 0.25716063
0003c0 9b 24 d0 3d e6 a4 95 bd dc c5 8c bd 70 df 23 bc
       0.10163232 -0.073068425 -0.06873676 -0.010002002
0003d0 4c dc ec 3d f2 61 3f be b9 be b7 bd fe 60 34 3e
       0.11565456 -0.18689707 -0.08971924 0.17615125
0003e0 6f 0e 6f 3e 7d 45 dc 3d ad c5 51 bd c2 5c f5 bd
       0.2334535 0.10755441 -0.05121391 -0.11980583
0003f0 dc 4c 20 3d d1 90 b4 3d 26 80 83 bd c1 8e 96 bd
       0.0391358 0.08816684 -0.06420927 -0.07351447
