Modeling eMNS/Trained_model/EMS_ANN_backward_v2.pt (torch, 37904 bytes, 16 tensors)

total_net.0.net.0.fc.weight f4 [100, 6]
00000000: b020 343f 0eee b53e 3421 5c3f c740 a33f
00000010: 99d8 04be 8750 d43e 1e1f 49be 5f56 c73d
00000020: d220 323f 0f16 2a3e 5231 e13c 3ca7 153f
00000030: 3132 5a3e 209a fc3a 1a50 17bf 81e1 553f
00000040: 7e55 b1be 0b21 35bc 0701 d6be 759c 84bf
00000050: 5449 2f3f 7eb1 0abf ed50 2e3f 625f afbe
00000060: a7dc b13e dc40 903e 6838 573f f201 9ebe
00000070: 6e7b 86be a2ab 4f3f 0fae 0a3e 4442 513e
00000080: 9ab3 f4be 5977 dc3e 6cc2 0fbf ecbf adbf
00000090: 0c9f a23e 7688 093f fbd0 2ebf 9563 ba3e
000000a0: c953 d33f 483f 073f 0a79 833e 1f6c 6d3d
000000b0: 0421 dabe acfe ebbe f569 7a3d 4d6a 0d3f
000000c0: 9086 02bc df15 3fbd a088 5c3f 771c b7be
000000d0: 1097 293f bc46 70be baba 3abf b471 193f
000000e0: 0a53 893e 2aba d63f ef3f 993e 9516 36bd
000000f0: 9829 f43d 6965 583f fb8d b9bc e2a6 3d3e
00000100: a2a4 eabe a8a0 6bbc 24f9 1bbe dbae 363f
00000110: edb6 b63b db31 80bf cf60 97bf 8bd4 053f
00000120: 123e cf3d 91ad f0be 5a10 0f3f 1031 ea3e
00000130: 8dc2 a0be 22fc cb3e 416d 6bbe 2063 ef3e
00000140: 6d14 c5be 7ec6 d13e f796 92bd 848d b43f
00000150: 5234 2a3f db8d 51be e911 453f 0cbe 103e
00000160: b1ec 183f c899 33be 7c05 bb3d c394 143e
00000170: 94ae 363e fc6b c7be 1a43 0bbd 2071 0a3f
00000180: ba5f f9bd 74db 8e3e 8879 3b3d 7366 103d
00000190: 03b9 b73e 9eea 2bbf 3978 04bd f309 d0bd
000001a0: c9ff 34bf f0e6 80be 49ee e2be 19e4 8c3f
000001b0: b7da 1abf a40e 6a3e b888 4b3f 2419 173f
000001c0: 65df a2bf f817 66be dd7c 713f bfe3 b63e
000001d0: d44d 77bf 64e5 2f3f 8c49 7bbf 5412 853e
000001e0: db32 a7bd 2d0b a1bd ef9b 313e b3d3 8e3f
000001f0: 0f9d 8ebd a989 57be ae26 13bf 4a38 993f
00000200: 58b2 a2bd e915 e23e 2131 353f 1a23 2f3f
00000210: 4d7b 68be e0df 78bf 8f75 7fbf f166 073f
00000220: 9c98 8d3e 3886 bcbd 88dc 2d3d 080b 753e
00000230: 6832 ed3e e3c4 b8bd c641 cd3f 0574 d73e
00000240: a753 11bf 2bd3 b33e 904a 10bf 85d3 4b3f
00000250: f4f2 5fbe cb49 f83e 497d b43e 633b 9a3e
00000260: cca3 ebbe feaa 303f 7b9f 2b3f fca2 97be
00000270: 6614 953d d1c6 67be 89c2 e0be 1c23 ba3f
00000280: 5d6b 473e eee2 17be a066 94bf f7de bfbc
00000290: ee71 9abd e541 77bf e653 82be fda3 673f
000002a0: fe5c 10bf ce88 723f 35a6 5e3e 5d13 6f3e
000002b0: c5e7 143e 6957 1dbf f048 cb3d cdd0 26be
000002c0: 3b57 ef3e 2b02 54be b778 063f f975 5e3f
000002d0: 5ca5 343e b8ac 19bf dc4e 90bd d2da a0be
000002e0: 42cb 4bbf ccae 39bf 30bc 0fbe 0997 783c
000002f0: 2ff6 59bf d39d c0be f73c 7ebf e0c2 e5bd
00000300: bdd8 57bf d017 2d3f f490 35bf aa09 27bf
00000310: ced1 8e3e 1d84 8cbf 6a27 b6bd 66c8 aabc
00000320: 3ac4 673f 8827 33bf ac4a 29bf 7287 b13d
00000330: 8aac 08bf 58f6 023e 3614 0bbe 45c3 293e
00000340: ac68 673f 79d7 873e adf0 5bbd 0282 073f
00000350: fc8c 7a3e ae73 3abf 0d8b 203f 69ce 613e
00000360: 7ad6 82bf 2101 cf3e 14b2 8dbf 6a6f 47be
00000370: 39a5 b3bd 406e ca3e dd99 60be 65fb 4bbf
00000380: e2ac 9e3e 8ea2 14bf 1315 803f cce6 9a3d
00000390: 70cc c63e 6173 09bf 74c5 1d3f 308a 61bf
000003a0: 4162 3f3f 191c 57be 59ef e7be 36fe 5fbe
000003b0: 1336 d7be 37af 92bf 2947 cebe 4e6e 32bf
000003c0: 5f62 bd3e c9b5 303f a509 15be 028a 09bf
000003d0: 7fa5 21be 6093 933f c044 54be 9043 26bd
000003e0: dd70 5dbf eeba d0be 685b 1c3f 19df aabe
000003f0: d18b bfbf 44a5 4bbe f6a9 25bf 51db 3b3f
0.7036238 0.35533184 0.85988164 1.2754143 -0.1297325 0.41467687 -0.19640777 0.09733271
0.6958133 0.16609977 0.027489338 0.58458304 0.21308209 0.0019272007 -0.591066 0.83547217
-0.34635538 -0.011055241 -0.4179766 -1.0360247 0.68471265 -0.5417708 0.6809223 -0.3425246
0.34738657 0.28174484 0.84070444 -0.3086086 -0.26266044 0.81121266 0.1354296 0.20435435
-0.47793275 0.43059805 -0.5615604 -1.3574195 0.31761968 0.5372385 -0.6828763 0.364041
1.6509944 0.52830935 0.25678283 0.05796444 -0.42603314 -0.46092737 0.061136205 0.5524033
-0.0079666525 -0.046651717 0.86145973 -0.35763904 0.6624613 -0.23464483 -0.7294117 0.5993912
0.26821166 1.6775563 0.2993159 -0.04445513 0.11921996 0.8452974 -0.02265071 0.18520692
-0.4582873 -0.014381565 -0.15231758 0.7136056 0.0055760057 -1.0015215 -1.1826419 0.5227744
0.10119261 -0.4700742 0.55884326 0.45740557 -0.3139843 0.398408 -0.22990896 0.46755314
-0.38492146 0.4097175 -0.071577005 1.4105687 0.66486084 -0.2046427 0.76980454 0.14134997
0.5973616 -0.17539132 0.091319054 0.14509873 0.17840034 -0.38949573 -0.03399954 0.54078865
-0.121764615 0.27901804 0.045770198 0.035253953 0.3588334 -0.6715487 -0.032341216 -0.10158148
-0.707028 -0.2517619 -0.44322422 1.100711 -0.6048998 0.22857147 0.7950549 0.59022737
-1.2724425 -0.22470081 0.9433115 0.3572063 -0.9660313 0.687094 -0.981591 0.25990546
-0.08163997 -0.0786346 0.1734464 1.1158355 -0.0696355 -0.21048607 -0.57480896 1.1970303
-0.079441726 0.4415734 0.7077809 0.68412936 -0.22703286 -0.97216606 -0.99788755 0.5289145
0.27655494 -0.09205288 0.042446643 0.2392999 0.4632752 -0.09021928 1.6035697 0.42080703
-0.5676827 0.35122046 -0.56363773 0.7961963 -0.21870023 0.484938 0.35251835 0.30123433
-0.46023405 0.69010913 0.6704022 -0.29616535 0.07279281 -0.22634436 -0.4389842 1.4541965
0.1947455 -0.1483266 -1.1593819 -0.023421748 -0.075412616 -0.9658492 -0.25454634 0.904846
-0.56391895 0.9474 0.2174309 0.2334723 0.14541538 -0.614615 0.09926021 -0.16290589
0.4674624 -0.20703952 0.52527946 0.8689876 0.17641205 -0.6002917 -0.07046291 -0.31416947
-0.7960702 -0.72532344 -0.14036632 0.015172728 -0.8514127 -0.3762041 -0.99311775 -0.1121881
-0.8431509 0.6761446 -0.70924306 -0.6524912 0.27894443 -1.0977818 -0.088942364 -0.02084751
0.9053379 -0.69982195 -0.66129565 0.08668412 -0.53388274 0.12789285 -0.13581929 0.16578396
0.9039409 0.2653158 -0.053696323 0.5293275 0.24467844 -0.72832763 0.62712175 0.22051395
-1.0221703 0.4043055 -1.106997 -0.19476095 -0.08771748 0.3953724 -0.21933694 -0.7968047
0.30991274 -0.5806054 1.0006431 0.07563552 0.38827848 -0.5369168 0.61629415 -0.8810148
0.747593 -0.21006812 -0.45299795 -0.21874318 -0.42033443 -1.1459721 -0.40288666 -0.6969956
0.36989114 0.6902738 -0.1455446 -0.5372621 -0.15785788 1.152935 -0.20729351 -0.040591776
-0.8650034 -0.40767616 0.61076975 -0.33373335 -1.4964544 -0.19887263 -0.64712465 0.73381525

total_net.0.net.0.fc.bias f4 [100]
00000000: 6624 26bd 7191 fe3d ab8e a93d 679b af3c
00000010: 16bc 06bd af68 de3d 6a64 34bd 5346 08be
00000020: 5d5e b1bc 09f6 643e a652 2cbe 3c4b 563e
00000030: a3be 5abc 0d9a 0f3e 7bd6 b53d 2b4f e23c
00000040: 9ead e2bc 4bc4 28bd 949e e03c 609e 303e
00000050: 562e 913e e10b f53b 3d9f 9ebb e60c 5c3e
00000060: ca57 55bd c326 a93d 94bf 4b3e a88e 363e
00000070: 34d1 87bd ec39 053e 42f3 4e3d 57fc d6bd
00000080: b7d8 09be b6ad 133e 637f 9f3a 68eb e33c
00000090: eb1d 393e 4a75 8b3d 072b ac3e 5adb 183e
000000a0: 3298 3dbe 8f6b 5b3e ee82 d43d 1a5c cd3c
000000b0: 4388 93bd e57a a1bb 4125 bf3d ef44 95bc
000000c0: 985f df3d 3eb5 623e f25a 1b3e 07f9 093e
000000d0: f214 663e f041 893c 671f 163e 06f8 1a3e
000000e0: c194 2c3e 59cc c63c 0577 4dbe 7036 1f3e
000000f0: 78a6 a0bd 3359 f8bd 8c4c 85bd 903c 8c3d
00000100: 679f c63d 19d3 5e3d 090e e83d d4ab 843e
00000110: 0498 36be e9e5 f03d 036d 64be e86e 873e
00000120: 7eee ef3d 36b0 cebc b0a1 79bd 886c 093e
00000130: d15f e93c c294 0e3e 1aea 9f3e f069 583e
00000140: 3525 8b3d b4d6 9f3d 08d4 1e3d 1e03 503e
00000150: c4cf 883e 9035 f03d 3962 8ebd d66d 2ebd
00000160: 8fe5 64be 2a02 9e3d ae2a bb3d 26c5 95bd
00000170: 0ee5 af3d 84a7 34be 7c33 24be 1759 293e
00000180: 0c04 8d3d 953c 213e fae0 0cbe a4cd b73d
-0.040562056 0.124300845 0.08279165 0.021436406 -0.032894216 0.108598106 -0.044041075 -0.13308077
-0.021651441 0.2235948 -0.16828403 0.20927137 -0.013351115 0.1402361 0.088787995 0.02762564
-0.027670678 -0.041202825 0.027419366 0.17247915 0.28355664 0.0074782227 -0.00484076 0.21489295
-0.052085675 0.08259346 0.198973 0.17827857 -0.06631699 0.13010377 0.050524957 -0.10497349
-0.13461576 0.14421734 0.0012168702 0.027822211 0.18077819 0.068094805 0.33626577 0.14927426
-0.18515089 0.21427749 0.10376535 0.025068332 -0.07203724 -0.0049279802 0.093332775 -0.018221347
0.10906905 0.22139451 0.15171412 0.13473903 0.22468928 0.016755074 0.14660417 0.15133676
0.1685362 0.024267362 -0.20064934 0.1554811 -0.078442514 -0.121263884 -0.06508741 0.06847489
0.09698372 0.054400537 0.11330802 0.25912344 -0.17831427 0.11762602 -0.2230721 0.26451802
0.11715411 -0.025230508 -0.060945213 0.13420308 0.028488072 0.13923934 0.31233293 0.21134162
0.06794206 0.07804623 0.038776428 0.20313689 0.26721013 0.11728966 -0.06952328 -0.042585216
-0.22353195 0.077152565 0.09139 -0.07312994 0.085886106 -0.17642027 -0.16035265 0.16537891
0.068855375 0.15745766 -0.13757697 0.0897477

total_net.1.net.0.fc.weight f4 [50, 100]
00000000: 8742 87bd d01d 74be f124 d13d 37cf 4a3d
00000010: e21b 13be a90b 4abe c85b 2dbe f808 2ebd
00000020: 7919 b03e e8ea b83d e0f9 02be aacf ebbd
00000030: fa5a a23d 6094 e8bb d9d8 b2bc 43c1 67be
00000040: 243a ec3d e69f 443c 487f b0bd 16ba 033e
00000050: ec45 97be 94c2 e73d 2aed 563c 13aa 30bd
00000060: e979 0bbe 1be2 8c3e 9239 7a3e ce39 473d
00000070: 92f9 46bd 3120 7bbe fa7c 8e3d eaa7 34be
00000080: 1b0e 6bbd ec2a 41bd e156 84bd 8af8 543e
00000090: e692 ddbc 6041 63bd 2adf 94be d590 863d
000000a0: 508e ec3d 275d acbb 7658 93bc 8f96 3b3d
000000b0: 95c4 413e 8165 e33d 55ad 0ebe 0a54 7cbe
000000c0: b523 d63d b79d 76bd c5ad 6e3e b5e1 e4ba
000000d0: f2d2 f4bd 0562 933d 6a55 05be fef5 d83e
000000e0: 718b 7c3e c0ef 8c3d 0e33 36be 2372 a5bd
000000f0: 6830 0abe e68f 423c a7d5 81bc cb70 dc3d
00000100: ed64 9a3d cd9e 5dbd 3661 563d 411f d1bc
00000110: 5e23 413d 86d1 5fbe b822 51bd 4555 06be
00000120: 2b4b 343e 84a8 f93d c4cc a23c c51e a23b
00000130: f240 843d f206 10bd 1bb8 993e b2a3 583e
00000140: 3826 3c3c 6a58 0cbe f440 86be b521 fcbb
00000150: 1af3 a4be 6981 8a3d ee0b 98bd 81bc 123e
00000160: 850f 0c3e 989e 1e3e b75c 49bd 0812 fa3d
00000170: 0f1d 50be d1a9 b7bc 9def f9bc 067f 2f3d
00000180: 2960 0f3d 943e babe 5be2 753d 42a4 a5be
00000190: 7c5f 0cbe 754b 56bd f5df 8a3b 2c5f 9cbd
000001a0: d999 e4bc 2565 853e 6fcc 633b 6a10 00be
000001b0: 105e 0fbe ea00 ccbd 656a a3bd afe9 1cbe
000001c0: 97bd 443c 42e5 2ebe 8feb 8d3b dad4 45be
000001d0: 53b0 86ba 5280 efbb 3c18 0fbe 3586 a63d
000001e0: c8ad f33e 94ce 59be d558 66bd e834 bb3c
000001f0: 88e4 c4bd 4e9d 453d a087 163e 2e01 c73d
00000200: 64c9 45be 9e50 413c 9446 2cbe ff15 3e3e
00000210: 992b 543c 2999 11be d825 0abe a709 1abe
00000220: b3b4 333d 86bc 243e f647 a63d 20d3 a33e
00000230: fcbc d93c d6ed af3c 2f2a f8bd 295f 1f3e
00000240: 427c 9ebd 80b1 6cbd 93cc 19bd 21fa 713e
00000250: dc40 803c 18aa 313d 724d f8bd 6f77 87bd
00000260: 648b a9be 8652 71bd fea5 0c3e d2c6 9f3d
00000270: c63d 19be e6a7 c83c 5649 1c3e f137 1dbe
00000280: af4e b0bb 5866 edbd 919b 173e b866 f53d
00000290: e4b8 ed39 49ec 153d d4a0 9e3c d693 56bd
000002a0: 1dc8 1dbc 7c12 b83d 0dd6 023b 0fc6 a0bd
000002b0: 4185 cc3e fb91 e43d 93ef 8639 bf53 783d
000002c0: 4b06 63bd 65cd 6c3e 110a b3bd c9f3 aa3e
000002d0: 8260 2ebd 0856 6f3e 8fba c13d e039 143d
000002e0: eec1 46bc a843 05be 00fd 463e 9715 583b
000002f0: e0da 0d3e 0ef4 84bc a8a0 c83c 948c 55bd
00000300: 083e 9dbd ae9b 81bb c046 0ebe 4b07 68be
00000310: 58fc 94bd 00f8 89be f386 91bc 381a 26be
00000320: 2ce4 90be 39dd 21be 95c5 cebb f38e 8b3e
00000330: 0aca 55be 5106 313e b11d 38be c0fa 943e
00000340: bf4c 91bd 529e eabd 6a79 c73d 216a 273e
00000350: d9f9 3ebe 1d33 16bc 8346 6c3d 7945 8dbc
00000360: 4953 34be 1893 2fbd 573a 6f3d b30f d9bd
00000370: 928e d7bd 64db 54be 95a1 173e 2647 b63b
00000380: ae47 edbd 1997 0a3a 1209 cebd df0f 263d
00000390: f53a 96be dda4 b3bd 20bb 3ebe 664c 91bd
000003a0: 2794 343d f38b 63bd f609 ee3c efce 2cbe
000003b0: 1fff 263e ec49 263e 3242 b63d b8dd aa3c
000003c0: da84 d43d acbc de3d 5a89 953e e289 7c3d
000003d0: ac6c cebd d708 8c3c 04e4 0e3d 727d c2bd
000003e0: 6258 ab3e 1724 7e3e 4b48 35bd ecf3 d23c
000003f0: 1182 37be 245c d6bc 7110 3cbd fdae 783d
-0.06604486 -0.23839498 0.10212124 0.04951402 -0.14366105 -0.1973101 -0.16929543 -0.042489022
0.34394434 0.0902918 -0.12790632 -0.11514218 0.07927509 -0.007097766 -0.021831917 -0.22632317
0.11534527 0.012001013 -0.08618027 0.12863955 -0.29545534 0.1131641 0.013118068 -0.043130945
-0.13620724 0.27516255 0.24436024 0.04863911 -0.048577853 -0.24523999 0.06957431 -0.17642179
-0.0573865 -0.047160074 -0.06461883 0.20797935 -0.027047586 -0.05548227 -0.2907651 0.06570593
0.115505815 -0.005260128 -0.017986517 0.04579788 0.18922646 0.11103345 -0.13933308 -0.24641433
0.10456029 -0.060209002 0.23308475 -0.0017462285 -0.11954297 0.0719643 -0.13020864 0.42375177
0.24662568 0.06881666 -0.17792913 -0.080784105 -0.13495028 0.011875128 -0.015848948 0.10763701
0.07538781 -0.054106522 0.0523388 -0.025527598 0.04715287 -0.2185727 -0.0510585 -0.13118465
0.176068 0.12190345 0.01987303 0.0049475157 0.064577 -0.035162874 0.30023274 0.21156195
0.011483721 -0.13705602 -0.2622143 -0.007694448 -0.32216722 0.06762964 -0.074241504 0.14329721
0.13677795 0.15490186 -0.049160685 0.122104704 -0.20323585 -0.022419842 -0.030509764 0.04284575
0.035003815 -0.36375868 0.060030323 -0.3235188 -0.137083 -0.052318055 0.0042381235 -0.0763534
-0.027905392 0.2605373 0.0034759303 -0.12506261 -0.14000726 -0.09961112 -0.079792775 -0.15323518
0.012008092 -0.17079642 0.0043310593 -0.19319478 -0.0010275937 -0.007308998 -0.13974088 0.08131067
0.47593522 -0.2127021 -0.05623706 0.022852376 -0.096139014 0.04824572 0.14700174 0.09717022
-0.19315106 0.011799006 -0.16823798 0.18563078 0.012949848 -0.14218582 -0.13490999 -0.15042745
0.0438735 0.16087541 0.08119194 0.31997013 0.026579373 0.021475714 -0.12117421 0.15563644
-0.07738544 -0.057786465 -0.037548613 0.23630573 0.015655927 0.043375105 -0.121241465 -0.06614577
-0.3311416 -0.05891659 0.13735196 0.07801594 -0.14964971 0.024494123 0.1526235 -0.15353371
-0.0053804736 -0.11591786 0.14805438 0.11982483 0.00045341917 0.036602292 0.019363798 -0.05238708
-0.00963023 0.089879006 0.001996401 -0.07850277 0.39945415 0.11160656 0.00025736968 0.06062674
-0.055425923 0.23125227 -0.087421544 0.33389118 -0.042572506 0.23372662 0.09459411 0.036188006
-0.012131197 -0.1301409 0.1943245 0.0032971853 0.13853025 -0.016229656 0.02449067 -0.05213602
-0.07677847 -0.003955326 -0.13894176 -0.22659032 -0.07274693 -0.2694702 -0.017764544 -0.16220939
-0.2829908 -0.15807046 -0.0063101747 0.272575 -0.20877853 0.17287566 -0.17980076 0.29097557
-0.07094716 -0.114559785 0.09739955 0.16349079 -0.18649997 -0.00916746 0.057684433 -0.017245041
-0.17609896 -0.04286489 0.058405247 -0.105986975 -0.1052524 -0.20786816 0.14807732 0.005562681
-0.115859374 0.00052867975 -0.10060324 0.04054248 -0.29341856 -0.087716796 -0.1862607 -0.0709465
0.0440866 -0.055553388 0.029057484 -0.16875814 0.16308258 0.16239136 0.088993445 0.020857677
0.10376902 0.1087583 0.29206353 0.061654933 -0.10079321 0.017094059 0.03488542 -0.09496583
0.33465868 0.24818455 -0.044258397 0.025751077 -0.1792071 -0.026166983 -0.045914117 0.060713757

total_net.1.net.0.fc.bias f4 [50]
00000000: e517 91bd 2d71 e73d 9c23 633e ed17 653d
00000010: c61b 323d 804c 9a3c 857b f93d 15f4 d03d
00000020: 2dac 963c ee02 943d 98fd d93b 9fe9 2abe
00000030: 5630 f83d 892a ce3d b3ca e03d d069 983d
00000040: 77cb 493c db3f ea3c 5873 83bd fddf 5a3e
00000050: 82e1 c13d 68c6 ea3d 44c6 103e d4f8 3e3d
00000060: 0383 09bd c08c 5e3e 47df 023e 1999 0b3d
00000070: 41c3 d2bc 93ad bbba 91c3 94bb 7fa8 65bd
00000080: 0c2c d0bd 32d7 273e 9cae 463e a701 05be
00000090: 2015 9f3d 7f93 a13d 0e9c 05bc 5758 70bc
000000a0: d1b8 ab3c 771e 213e 28d7 963d eb0c 53be
000000b0: 0d2b 0c3e 6b93 3abc 3611 c5bc 1873 bb3d
000000c0: fb7f 593d 2b9d ab3d
-0.07084636 0.113008834 0.22181553 0.05593102 0.043483518 0.018835306 0.121817626 0.10202805
0.018392647 0.07227121 0.006652545 -0.16690682 0.12118594 0.10066707 0.10976162 0.07442057
0.012316576 0.028594902 -0.064184844 0.21374507 0.0946684 0.11463624 0.14138132 0.04662402
-0.033572208 0.2173338 0.12780486 0.034081552 -0.02572787 -0.0014318697 -0.004539915 -0.056068894
-0.10164651 0.16390684 0.19402546 -0.12988912 0.07767701 0.07889461 -0.008154882 -0.014669499
0.02096215 0.15734278 0.073652565 -0.20610397 0.13688298 -0.011387686 -0.024056058 0.09152812
0.053100567 0.08379587

total_net.2.net.0.fc.weight f4 [25, 50]
00000000: cc09 993c c94b ee3e a780 933e a155 49be
00000010: 99b0 02be b48c 983e 84d4 10be 14c7 333d
00000020: 5d7d 13be 6fc4 95bc 3db8 26be 9d0a 043e
00000030: 6aaf 263e 1273 403e 910f 983d e140 67bd
00000040: 11ba a03e d46c 04bf 3d85 74be e689 ab3c
00000050: 7f80 3cbe 8f7d 453e d3ab f53d 7404 29bd
00000060: d63d 98be cdab 253d 83cb 103e f798 0e3e
00000070: 5d44 ecbd 7169 063e 48b4 2cbd 4efd 40bd
00000080: c37b 2d3e 23a8 cb3e 373d 74be 0553 e13d
00000090: deac a73e 6f74 153e 6b7e 48bc d80b 033e
000000a0: 1860 c6bd f437 f53d 22ab 62be 2c8e 35be
000000b0: a842 5d3e 0c3a d5bd d59a cb3a 6df1 18bd
000000c0: fcce 12be 9693 86be b035 1f3d 290b 9fbe
000000d0: d7a7 8d3d 760c 963e 6849 8ebd 037c 5abb
000000e0: ff76 a53d f009 72be 2c6f 823c 7a61 aebd
000000f0: 5125 65be 196d dc3e 5b55 9a3d 20e5 94bd
00000100: bd6a d83d a63a 6a3e c954 3abe 6d8a 83bd
00000110: ef89 41be ac94 4cbd f75a 4e3e a1ac 843e
00000120: fe2b 7ebe 7274 aa3b 8fb1 093e 3791 99bd
00000130: a3fe 1ebe 30bf 663c dd51 8bbe 4796 24be
00000140: 3f9d 69bd c0df b43d 9875 363e d0f7 5ebd
00000150: 735d 06bd 44f0 8dbe 589d f23c e2db 4dbd
00000160: c694 bb3d fddd 96bc 6d2f 073e eb98 14be
00000170: db40 60be f300 07be 0255 d53e effd 83bd
00000180: b637 1ebe 261e 523e 0918 1d3e f353 503e
00000190: e05e 3dbd 4d6d 91bd 3f56 28be 3d81 4d3e
000001a0: 4a55 9c3d ba48 8cbe 0fa8 cabc 8fa3 34be
000001b0: 6c12 29be 632d 89be 3cdc 3cbe 9486 143d
000001c0: 656f adbe e7f8 a3bd b7cc 2ebe 6b68 0fbd
000001d0: 7918 7abe 967c 72bd 9076 843e ad7e 913e
000001e0: 1c71 8bbd accb 843e 3c66 c4bd c73e aa3e
000001f0: 92d0 113f 43ee 473d 4095 a63e b82c 1fbe
00000200: 7936 e5bd 2454 633d 3b95 23be dfae d5bd
00000210: b061 3e3c 6560 6fbd cad9 88bd f8a7 52be
00000220: af1b 993e afb4 7f3e 491a b7bc 8b45 033d
00000230: 6dcc 453d 82c6 a93d 3a32 353d c9ca fcbd
00000240: aa3c 333e 6748 86be c7fe f43d dcc8 893e
00000250: bdab 3b3e 992a dd3d 6080 0b3d 9cc3 28be
00000260: 29ef 8a3e bd9f 32be 37d5 0a3e b39b 81be
00000270: 1a9c 37be 17f3 a7be e5a9 5bbd c7b1 053d
00000280: 28dc 3c3e 1815 42be dd13 74be f78d bd3c
00000290: 57de bd3d a694 8a3d 6440 663d 3c24 49be
000002a0: 8265 c83d ff7b e13e 8ac9 58bd 8b42 ea3d
000002b0: c7b0 ab3c 3e40 a7bd 5273 fc3d 44c2 c8bd
000002c0: 67fd bebe 6913 ebbd f154 7dbd 62db a3be
000002d0: 55cd ae3c 275d 56bb d77e abbd ac37 963d
000002e0: eeb2 e5bd 30de 02be 8337 c7bc dfd5 34bc
000002f0: 6e35 c53d abd0 a13d 44d8 16bc d427 1f3e
00000300: 3e49 243d 39ef d53d f779 683e fce6 87be
00000310: 7051 2f3e bb53 c6be 70c9 133e ae92 fb3d
00000320: b4dc 8f3d c352 303e 2e7b 913d 826d 81bd
00000330: 689d 55be 7e0f c03e f237 1b3d d7c1 ffbd
00000340: 0e93 78bd 9294 e73c 3f2a 16be 28f2 0abd
00000350: 05eb 62be 4014 50be 4b99 4c3e a1c5 6f3d
00000360: ea5c 81bc 54a9 be3d f6b7 5e3e 371e 97be
00000370: 305e 693e aaba b7bd 22a3 9e3e 2968 233d
00000380: 6a0e 7fbe 58f3 263e e03c 49be 9331 143e
00000390: 134f 71be b9b1 0b3c b398 e63d 4117 59be
000003a0: 864e 4fbe 626e a1be 6485 adbb fcc6 153e
000003b0: 9fdf f13c 63b6 c63b d597 5bbe d8a2 fa3e
000003c0: 9d72 c13c 54ee 4a3d 617a 3ebe b35e 58be
000003d0: aa1b 2b3e 633d b0bd 8185 e5bd 5747 97be
000003e0: 857b 80bc 4f8c 1ebb bb73 1bbe 2e6f 593e
000003f0: 2e2a c93d 883f 333e 4670 403e 50dd ae3d
0.01868143 0.46542194 0.2880909 -0.19661571 -0.12762679 0.29794848 -0.14143568 0.043891028
-0.14403291 -0.018282143 -0.16281219 0.12894674 0.16277853 0.18793896 0.07424844 -0.056458358
0.31391957 -0.5172856 -0.23878951 0.020939779 -0.18408392 0.19286178 0.119956635 -0.041264012
-0.29734677 0.040447045 0.14140134 0.13925539 -0.11536477 0.1312616 -0.042164117 -0.04711657
0.16941743 0.39776716 -0.23851477 0.11002163 0.32749075 0.14595197 -0.012237172 0.12797487
-0.09686297 0.11973563 -0.22135594 -0.17730016 0.21607459 -0.10411462 0.0015533814 -0.037339617
-0.14336771 -0.26284474 0.03886956 -0.31063202 0.069167785 0.29306382 -0.06947595 -0.0033338077
0.08079337 -0.23636603 0.015922152 -0.08514686 -0.22377516 0.43051985 0.075358115 -0.072702646
0.10567234 0.22873935 -0.18196405 -0.06422887 -0.18900274 -0.049946472 0.20151888 0.25912955
-0.24821469 0.0052018696 0.1344664 -0.07498401 -0.15526824 0.014083669 -0.27210894 -0.16072951
-0.057034727 0.088317394 0.17818296 -0.05443555 -0.032803964 -0.2772237 0.029616043 -0.050258525
0.09159236 -0.0184164 0.13201685 -0.14511459 -0.2189974 -0.13183956 0.41666418 -0.06444918
-0.1545094 0.20519313 0.153412 0.20344524 -0.046233058 -0.071009256 -0.1643915 0.20068832
0.07633455 -0.27399236 -0.02473834 -0.17640518 -0.16510934 -0.2679244 -0.18443388 0.036261156
-0.3387405 -0.08006459 -0.1707028 -0.03501169 -0.24423398 -0.059200846 0.25871706 0.28416958
-0.06808683 0.2593664 -0.09589812 0.3325102 0.5695888 0.04881121 0.32535744 -0.15544403
-0.111920305 0.055500165 -0.15974896 -0.10433745 0.01161997 -0.05844154 -0.06682165 -0.20571887
0.29903933 0.24971269 -0.0223514 0.032048743 0.04829066 0.082898155 0.044237353 -0.12343366
0.1750361 -0.26227114 0.119626574 0.26911056 0.18327232 0.107991405 0.034057975 -0.16480869
0.2713559 -0.17443748 0.13557898 -0.25314102 -0.17930642 -0.3280265 -0.05362882 0.032640245
0.18443358 -0.18953359 -0.23835702 0.023138983 0.092709236 0.06766634 0.05621375 -0.19642729
0.09784986 0.44039914 -0.052926578 0.11438473 0.020958317 -0.0816655 0.12326683 -0.09802678
-0.37302706 -0.114783116 -0.061848585 -0.32003313 0.021338144 -0.0032709332 -0.08373802 0.07334837
-0.11215769 -0.1278007 -0.024318462 -0.011037319 0.096293315 0.079011284 -0.009206835 0.15542537
0.04010891 0.10446019 0.22702776 -0.26543415 0.1712091 -0.38735756 0.14432311 0.12283836
0.07024518 0.17219071 0.07103573 -0.06319715 -0.20860827 0.3751182 0.03789515 -0.12488144
-0.060687117 0.028269086 -0.14664553 -0.033922344 -0.22159965 -0.20320225 0.19980352 0.058538083
-0.015791375 0.093096405 0.21749863 -0.2951524 0.22789836 -0.0897115 0.30983835 0.039894257
-0.24907842 0.16303766 -0.19652128 0.14472036 -0.2356532 0.008526259 0.11259594 -0.21200277
-0.20244798 -0.31529528 -0.0052954424 0.14626688 0.029525576 0.0060642227 -0.21444638 0.48952365
0.023614222 0.049543694 -0.18601371 -0.21129875 0.16709772 -0.086054586 -0.112071045 -0.29546615
-0.015683899 -0.0024192517 -0.15180866 0.21233818 0.09822498 0.17504704 0.18792829 0.08538306

total_net.2.net.0.fc.bias f4 [25]
00000000: a9c1 d13d 12f9 c83d 467a 94bd f893 833e
00000010: a6ae 763d a006 e03d cd38 8f3d 205d 833d
00000020: 10f6 893b 793b de39 6ee8 e53d 2460 5bbe
00000030: e20f 2d3d 6e20 7cbb 3f1d 163e f086 a13d
00000040: 2464 a33d 328f 38bc 2778 94bc ee36 36bd
00000050: 46c0 813e 3517 e43d 84d4 b3bc ce45 453e
00000060: 4f94 a43d
0.10242016 0.098131314 -0.07249884 0.2569883 0.06022515 0.109387636 0.06993256 0.064142466
0.004210241 0.0004238745 0.11225973 -0.21423393 0.042251475 -0.0038471478 0.14659594 0.078870654
0.07978085 -0.011264609 -0.0181237 -0.04448598 0.25342005 0.11137239 -0.021951921 0.1926491
0.080361

total_net.3.weight f4 [12, 25]
00000000: feda e4bd 1b95 483e 04e1 e8bd e4cb 18bb
00000010: f6ce 7ebd 6c16 493c fa03 1e3e 11c3 643d
00000020: e196 833d d460 af3c bdf9 a53d 6a45 90bd
00000030: a4ab b1bb 0b92 943d 404d 8f3d c61f 35be
00000040: 822b cdbb ce01 b4bd ef35 23ba ea9c ddbd
00000050: 39e4 f4bc 7a39 ffbc edd0 41bd 749d 553d
00000060: a378 1b3e 9ba5 923d be09 9e3d 8658 31bd
00000070: 2c6b 23bd c146 563d 9d37 59be 06d3 3f3d
00000080: ea7d 9cba a5c9 53bb 5a0b 413e 22b3 2fbc
00000090: 7289 9e3d 78ee 073e 93d1 9b3b 9d56 473d
000000a0: c416 74bd 91a0 0c3e 1469 e33c c2ac 3b3d
000000b0: caac ffbd f39c 4ebb ac85 2b3d 3ab9 2abb
000000c0: 9762 10be ece0 82bd 8c3c 3fbc 83c4 6b3d
000000d0: 221b 0ebe 6719 19bc 3b46 33bb c020 dcbb
000000e0: 90f4 26be 2fd5 b43d b173 12bd 6aa0 8bbd
000000f0: b7fd 04be a2ff b1bd a68c 21bd 87ae 4abc
00000100: 1ae4 313e c19a 173d 204f c43d adab e13d
00000110: bd98 d83a 6af8 863d 4d8d ae3d 1f8f 8a3d
00000120: dbed bcbb def1 05bd 01c6 b03a 5aa1 f3bc
00000130: a8da fe3c b2ca d1bd 9bf9 033d 177c 15bd
00000140: 7bf6 b93d 85af b4bd d8a5 13be fef2 21bb
00000150: 16c9 d33d ba9f acbd 11c3 8dbd a9c5 08be
00000160: ed4a 313d 6aee 67bc f8ba 87bd 6df2 e13d
00000170: f3b3 13bd 29c0 d8bb eb53 c83d 76c9 1f3c
00000180: 0ba0 003e b6ae 41bd 8116 b73d 53f4 a03c
00000190: 49bf 813d c19b fabc fd27 f13d 7af4 5c3e
000001a0: 51cb d33c d3dd 573d cf89 3a3d 3385 1cbe
000001b0: 3c56 4e3d d25e 1a3e 0a65 7dbd 905a c33c
000001c0: 0d2f c2bd c2bf 2bbe 55ff 7dbd f8c0 63bd
000001d0: c7f1 6c3d 23fa 813d 3971 7a3d a8a7 88bd
000001e0: be6a 6ebd 0ade 3d3c 9674 3e3d c21f 0b3d
000001f0: 0d4a bf3d db1b 2abd 7194 013e 6251 3d3e
00000200: 2708 7f3c 898c 193d defb c73d 24b2 e33d
00000210: 3d22 eabc 567b 17bd 35d2 92bc 81fe aebd
00000220: c6ad ffbd 6c8d 463d f792 ad3d eb2a 223d
00000230: 753b 05bd 21e3 0d3d 462b 9c3c 8957 603d
00000240: aec3 ebbb ee9d cb3d 2a30 4cbe 6ce4 0d3d
00000250: 73be 853b 302c 973d 0e45 4ebd d134 07be
00000260: e49a b2bd 199c b03c deb9 b83d 748b df3d
00000270: fd48 7b39 afe2 0f3d c894 8cbd b538 80bd
00000280: cdf1 3e3e 1c3a 183d 2bce b63d ca7e a0bd
00000290: b727 55bc d949 e0bd 68d5 153d b008 f33b
000002a0: 8320 90bc 3c02 16be 6f5d 723d 7671 c43d
000002b0: eabd e33d 27c7 9dbd 1aee bb3c f8e8 c5b9
000002c0: c6db babd 6dba 173d 06bb a7bd 5051 1bbe
000002d0: 195b 07be 216e 2d3e 6e35 183e 8eb5 cabc
000002e0: 9055 44be e2af 013e 0ef8 b53d a630 13be
000002f0: 6a54 a03d 32c9 eebd 0a10 3c3d 7dbb 123d
00000300: d0a6 28bc a082 703d 2b7d 2fbc 6021 073d
00000310: dd3e e83d 4147 f73d f123 5f3d fcf1 b4bd
00000320: ab38 ce3d 52d8 dfbb ef97 3b3c 06cd 14be
00000330: f348 0e3d 8a58 593c 83a4 e4bc e23d 273e
00000340: 1b82 32be dc44 5dbd ab92 913c 670e cd3d
00000350: 04c4 a9bd ada0 ecbc b301 d03d 5d7d 113e
00000360: d4ad 56be 91dd 2bbd b61f 9ebd bbcf 223d
00000370: fcf5 c3bd 9465 96bc 6a7f 553b bdaa b83d
00000380: 6821 87bc be4f 873d 1f1c 2cbc ec56 e3bd
00000390: 3320 673d 307a 26bd 1af6 083d 5af5 073d
000003a0: 3967 38be a3e0 31be e7ea 4d3e b5a5 d43d
000003b0: 65de a8bc d4fb 0b3e 7281 b13c 3a40 58bd
000003c0: 962c 363e 3e12 b6bd 3704 4f3d b8bb 68bd
000003d0: f583 65bd 1532 203d eb08 9bba fd33 afbd
000003e0: 6dcc d53d 7e29 63bd b767 dfbc 206d adbd
000003f0: 3e88 303d e0e1 e63d 2148 03be 2e7a 92bd
-0.11174582 0.19588129 -0.11371043 -0.0023314888 -0.062209092 0.012273412 0.15431204 0.055850092
0.06425262 0.021408476 0.081042744 -0.0704449 -0.0054220725 0.07254418 0.06997156 -0.17687902
-0.00626129 -0.08789407 -0.0006225993 -0.108209446 -0.029893981 -0.031155337 -0.047318388 0.052152112
0.15182738 0.07160493 0.07716702 -0.043297313 -0.03989713 0.05231357 -0.21212621 0.046832107
-0.0011939381 -0.0032316234 0.18851987 -0.010723861 0.07741059 0.13274562 0.004755208 0.048666585
-0.059592023 0.13733126 0.027760066 0.04581905 -0.12484129 -0.0031526654 0.041875526 -0.0026050345
-0.14100109 -0.06390557 -0.01167215 0.057560455 -0.13877538 -0.009344435 -0.0027355093 -0.0067177713
-0.1630423 0.08829724 -0.035754863 -0.06817706 -0.1298741 -0.08691336 -0.039440773 -0.012370712
0.1737217 0.03701282 0.095854044 0.11019073 0.0016525012 0.0659035 0.08523045 0.067655794
-0.0057656593 -0.032701366 0.0013486744 -0.029740024 0.031110123 -0.10243739 0.032220464 -0.036495294
0.090802155 -0.0882254 -0.14418733 -0.0024711485 0.103410885 -0.08428903 -0.069219716 -0.13356651
0.043284345 -0.014155963 -0.06627458 0.11032567 -0.036060285 -0.006614704 0.09781631 0.009752622
0.12561052 -0.047285758 0.08939839 0.019647753 0.06335313 -0.030591847 0.11775205 0.21577635
0.025853785 0.052701782 0.04554158 -0.15285186 0.05037521 0.15075234 -0.061863936 0.023846895
-0.094816305 -0.16772369 -0.06201108 -0.05560395 0.057847764 0.06346538 0.061143134 -0.06672603
-0.058207266 0.011588583 0.046497904 0.033965833 0.09340296 -0.04153047 0.12654282 0.18488076
0.0155659085 0.03748754 0.09764837 0.11117962 -0.02858078 -0.036982857 -0.0179225 -0.085446365
-0.124843165 0.048474714 0.08475297 0.03959171 -0.032527406 0.034640435 0.019063603 0.05477098
-0.0071949577 0.09942232 -0.19940248 0.03464167 0.004081541 0.07381475 -0.050358824 -0.13203742
-0.08720949 0.021558808 0.09019826 0.109152704 0.00023964416 0.03512829 -0.06864315 -0.06260816
0.18646927 0.037164792 0.08926042 -0.07836683 -0.013009957 -0.10951585 0.036580473 0.007416807
-0.017593628 -0.1464929 0.059171136 0.095919535 0.111202076 -0.07704001 0.022940684 -0.00037748343
-0.0912395 0.037043024 -0.08189969 -0.15167737 -0.13218345 0.16936542 0.14864132 -0.024744775
-0.19173265 0.1266475 0.08885203 -0.14374027 0.07828601 -0.11659469 0.045913734 0.035823334
-0.010293677 0.058718324 -0.010710995 0.032990813 0.11340115 0.120741375 0.054477636 -0.08835217
0.10069402 -0.0068312073 0.011449798 -0.14531335 0.03473754 0.013265738 -0.027910477 0.163322
-0.17432444 -0.054020748 0.017770132 0.10012513 -0.0828934 -0.02888521 0.10156574 0.14207979
-0.20964748 -0.04195935 -0.07720892 0.03974889 -0.09568402 -0.018358983 0.0032577165 0.09016941
-0.016495422 0.066070065 -0.0105047515 -0.111005634 0.056427192 -0.04064387 0.033437826 0.03319297
-0.18008126 -0.17370848 0.2010914 0.103831686 -0.020613858 0.13670284 0.02166817 -0.052795626
0.17790446 -0.08890198 0.05054113 -0.056819648 -0.056034047 0.039110262 -0.0011828219 -0.08554838
0.10439382 -0.055459492 -0.027271135 -0.084680796 0.04309868 0.11273551 -0.12820484 -0.0715221

total_net.3.bias f4 [12]
00000000: 92e2 a7bd a309 953d a560 13bc 24f5 69bd
00000010: 33c8 3dbd 91c2 66bd c1f0 e3bc f150 9bbb
00000020: c33e 87bb 1286 6bbd 936e ff3b 9590 003d
-0.08197512 0.07277229 -0.00899521 -0.05711855 -0.046333503 -0.056337897 -0.027824761 -0.0047398736
-0.004127355 -0.057500906 0.007795164 0.031387884

weight f4 [100, 6]
00000000: b020 343f 0eee b53e 3421 5c3f c740 a33f
00000010: 99d8 04be 8750 d43e 1e1f 49be 5f56 c73d
00000020: d220 323f 0f16 2a3e 5231 e13c 3ca7 153f
00000030: 3132 5a3e 209a fc3a 1a50 17bf 81e1 553f
00000040: 7e55 b1be 0b21 35bc 0701 d6be 759c 84bf
00000050: 5449 2f3f 7eb1 0abf ed50 2e3f 625f afbe
00000060: a7dc b13e dc40 903e 6838 573f f201 9ebe
00000070: 6e7b 86be a2ab 4f3f 0fae 0a3e 4442 513e
00000080: 9ab3 f4be 5977 dc3e 6cc2 0fbf ecbf adbf
00000090: 0c9f a23e 7688 093f fbd0 2ebf 9563 ba3e
000000a0: c953 d33f 483f 073f 0a79 833e 1f6c 6d3d
000000b0: 0421 dabe acfe ebbe f569 7a3d 4d6a 0d3f
000000c0: 9086 02bc df15 3fbd a088 5c3f 771c b7be
000000d0: 1097 293f bc46 70be baba 3abf b471 193f
000000e0: 0a53 893e 2aba d63f ef3f 993e 9516 36bd
000000f0: 9829 f43d 6965 583f fb8d b9bc e2a6 3d3e
00000100: a2a4 eabe a8a0 6bbc 24f9 1bbe dbae 363f
00000110: edb6 b63b db31 80bf cf60 97bf 8bd4 053f
00000120: 123e cf3d 91ad f0be 5a10 0f3f 1031 ea3e
00000130: 8dc2 a0be 22fc cb3e 416d 6bbe 2063 ef3e
00000140: 6d14 c5be 7ec6 d13e f796 92bd 848d b43f
00000150: 5234 2a3f db8d 51be e911 453f 0cbe 103e
00000160: b1ec 183f c899 33be 7c05 bb3d c394 143e
00000170: 94ae 363e fc6b c7be 1a43 0bbd 2071 0a3f
00000180: ba5f f9bd 74db 8e3e 8879 3b3d 7366 103d
00000190: 03b9 b73e 9eea 2bbf 3978 04bd f309 d0bd
000001a0: c9ff 34bf f0e6 80be 49ee e2be 19e4 8c3f
000001b0: b7da 1abf a40e 6a3e b888 4b3f 2419 173f
000001c0: 65df a2bf f817 66be dd7c 713f bfe3 b63e
000001d0: d44d 77bf 64e5 2f3f 8c49 7bbf 5412 853e
000001e0: db32 a7bd 2d0b a1bd ef9b 313e b3d3 8e3f
000001f0: 0f9d 8ebd a989 57be ae26 13bf 4a38 993f
00000200: 58b2 a2bd e915 e23e 2131 353f 1a23 2f3f
00000210: 4d7b 68be e0df 78bf 8f75 7fbf f166 073f
00000220: 9c98 8d3e 3886 bcbd 88dc 2d3d 080b 753e
00000230: 6832 ed3e e3c4 b8bd c641 cd3f 0574 d73e
00000240: a753 11bf 2bd3 b33e 904a 10bf 85d3 4b3f
00000250: f4f2 5fbe cb49 f83e 497d b43e 633b 9a3e
00000260: cca3 ebbe feaa 303f 7b9f 2b3f fca2 97be
00000270: 6614 953d d1c6 67be 89c2 e0be 1c23 ba3f
00000280: 5d6b 473e eee2 17be a066 94bf f7de bfbc
00000290: ee71 9abd e541 77bf e653 82be fda3 673f
000002a0: fe5c 10bf ce88 723f 35a6 5e3e 5d13 6f3e
000002b0: c5e7 143e 6957 1dbf f048 cb3d cdd0 26be
000002c0: 3b57 ef3e 2b02 54be b778 063f f975 5e3f
000002d0: 5ca5 343e b8ac 19bf dc4e 90bd d2da a0be
000002e0: 42cb 4bbf ccae 39bf 30bc 0fbe 0997 783c
000002f0: 2ff6 59bf d39d c0be f73c 7ebf e0c2 e5bd
00000300: bdd8 57bf d017 2d3f f490 35bf aa09 27bf
00000310: ced1 8e3e 1d84 8cbf 6a27 b6bd 66c8 aabc
00000320: 3ac4 673f 8827 33bf ac4a 29bf 7287 b13d
00000330: 8aac 08bf 58f6 023e 3614 0bbe 45c3 293e
00000340: ac68 673f 79d7 873e adf0 5bbd 0282 073f
00000350: fc8c 7a3e ae73 3abf 0d8b 203f 69ce 613e
00000360: 7ad6 82bf 2101 cf3e 14b2 8dbf 6a6f 47be
00000370: 39a5 b3bd 406e ca3e dd99 60be 65fb 4bbf
00000380: e2ac 9e3e 8ea2 14bf 1315 803f cce6 9a3d
00000390: 70cc c63e 6173 09bf 74c5 1d3f 308a 61bf
000003a0: 4162 3f3f 191c 57be 59ef e7be 36fe 5fbe
000003b0: 1336 d7be 37af 92bf 2947 cebe 4e6e 32bf
000003c0: 5f62 bd3e c9b5 303f a509 15be 028a 09bf
000003d0: 7fa5 21be 6093 933f c044 54be 9043 26bd
000003e0: dd70 5dbf eeba d0be 685b 1c3f 19df aabe
000003f0: d18b bfbf 44a5 4bbe f6a9 25bf 51db 3b3f
0.7036238 0.35533184 0.85988164 1.2754143 -0.1297325 0.41467687 -0.19640777 0.09733271
0.6958133 0.16609977 0.027489338 0.58458304 0.21308209 0.0019272007 -0.591066 0.83547217
-0.34635538 -0.011055241 -0.4179766 -1.0360247 0.68471265 -0.5417708 0.6809223 -0.3425246
0.34738657 0.28174484 0.84070444 -0.3086086 -0.26266044 0.81121266 0.1354296 0.20435435
-0.47793275 0.43059805 -0.5615604 -1.3574195 0.31761968 0.5372385 -0.6828763 0.364041
1.6509944 0.52830935 0.25678283 0.05796444 -0.42603314 -0.46092737 0.061136205 0.5524033
-0.0079666525 -0.046651717 0.86145973 -0.35763904 0.6624613 -0.23464483 -0.7294117 0.5993912
0.26821166 1.6775563 0.2993159 -0.04445513 0.11921996 0.8452974 -0.02265071 0.18520692
-0.4582873 -0.014381565 -0.15231758 0.7136056 0.0055760057 -1.0015215 -1.1826419 0.5227744
0.10119261 -0.4700742 0.55884326 0.45740557 -0.3139843 0.398408 -0.22990896 0.46755314
-0.38492146 0.4097175 -0.071577005 1.4105687 0.66486084 -0.2046427 0.76980454 0.14134997
0.5973616 -0.17539132 0.091319054 0.14509873 0.17840034 -0.38949573 -0.03399954 0.54078865
-0.121764615 0.27901804 0.045770198 0.035253953 0.3588334 -0.6715487 -0.032341216 -0.10158148
-0.707028 -0.2517619 -0.44322422 1.100711 -0.6048998 0.22857147 0.7950549 0.59022737
-1.2724425 -0.22470081 0.9433115 0.3572063 -0.9660313 0.687094 -0.981591 0.25990546
-0.08163997 -0.0786346 0.1734464 1.1158355 -0.0696355 -0.21048607 -0.57480896 1.1970303
-0.079441726 0.4415734 0.7077809 0.68412936 -0.22703286 -0.97216606 -0.99788755 0.5289145
0.27655494 -0.09205288 0.042446643 0.2392999 0.4632752 -0.09021928 1.6035697 0.42080703
-0.5676827 0.35122046 -0.56363773 0.7961963 -0.21870023 0.484938 0.35251835 0.30123433
-0.46023405 0.69010913 0.6704022 -0.29616535 0.07279281 -0.22634436 -0.4389842 1.4541965
0.1947455 -0.1483266 -1.1593819 -0.023421748 -0.075412616 -0.9658492 -0.25454634 0.904846
-0.56391895 0.9474 0.2174309 0.2334723 0.14541538 -0.614615 0.09926021 -0.16290589
0.4674624 -0.20703952 0.52527946 0.8689876 0.17641205 -0.6002917 -0.07046291 -0.31416947
-0.7960702 -0.72532344 -0.14036632 0.015172728 -0.8514127 -0.3762041 -0.99311775 -0.1121881
-0.8431509 0.6761446 -0.70924306 -0.6524912 0.27894443 -1.0977818 -0.088942364 -0.02084751
0.9053379 -0.69982195 -0.66129565 0.08668412 -0.53388274 0.12789285 -0.13581929 0.16578396
0.9039409 0.2653158 -0.053696323 0.5293275 0.24467844 -0.72832763 0.62712175 0.22051395
-1.0221703 0.4043055 -1.106997 -0.19476095 -0.08771748 0.3953724 -0.21933694 -0.7968047
0.30991274 -0.5806054 1.0006431 0.07563552 0.38827848 -0.5369168 0.61629415 -0.8810148
0.747593 -0.21006812 -0.45299795 -0.21874318 -0.42033443 -1.1459721 -0.40288666 -0.6969956
0.36989114 0.6902738 -0.1455446 -0.5372621 -0.15785788 1.152935 -0.20729351 -0.040591776
-0.8650034 -0.40767616 0.61076975 -0.33373335 -1.4964544 -0.19887263 -0.64712465 0.73381525

bias f4 [100]
00000000: 6624 26bd 7191 fe3d ab8e a93d 679b af3c
00000010: 16bc 06bd af68 de3d 6a64 34bd 5346 08be
00000020: 5d5e b1bc 09f6 643e a652 2cbe 3c4b 563e
00000030: a3be 5abc 0d9a 0f3e 7bd6 b53d 2b4f e23c
00000040: 9ead e2bc 4bc4 28bd 949e e03c 609e 303e
00000050: 562e 913e e10b f53b 3d9f 9ebb e60c 5c3e
00000060: ca57 55bd c326 a93d 94bf 4b3e a88e 363e
00000070: 34d1 87bd ec39 053e 42f3 4e3d 57fc d6bd
00000080: b7d8 09be b6ad 133e 637f 9f3a 68eb e33c
00000090: eb1d 393e 4a75 8b3d 072b ac3e 5adb 183e
000000a0: 3298 3dbe 8f6b 5b3e ee82 d43d 1a5c cd3c
000000b0: 4388 93bd e57a a1bb 4125 bf3d ef44 95bc
000000c0: 985f df3d 3eb5 623e f25a 1b3e 07f9 093e
000000d0: f214 663e f041 893c 671f 163e 06f8 1a3e
000000e0: c194 2c3e 59cc c63c 0577 4dbe 7036 1f3e
000000f0: 78a6 a0bd 3359 f8bd 8c4c 85bd 903c 8c3d
00000100: 679f c63d 19d3 5e3d 090e e83d d4ab 843e
00000110: 0498 36be e9e5 f03d 036d 64be e86e 873e
00000120: 7eee ef3d 36b0 cebc b0a1 79bd 886c 093e
00000130: d15f e93c c294 0e3e 1aea 9f3e f069 583e
00000140: 3525 8b3d b4d6 9f3d 08d4 1e3d 1e03 503e
00000150: c4cf 883e 9035 f03d 3962 8ebd d66d 2ebd
00000160: 8fe5 64be 2a02 9e3d ae2a bb3d 26c5 95bd
00000170: 0ee5 af3d 84a7 34be 7c33 24be 1759 293e
00000180: 0c04 8d3d 953c 213e fae0 0cbe a4cd b73d
-0.040562056 0.124300845 0.08279165 0.021436406 -0.032894216 0.108598106 -0.044041075 -0.13308077
-0.021651441 0.2235948 -0.16828403 0.20927137 -0.013351115 0.1402361 0.088787995 0.02762564
-0.027670678 -0.041202825 0.027419366 0.17247915 0.28355664 0.0074782227 -0.00484076 0.21489295
-0.052085675 0.08259346 0.198973 0.17827857 -0.06631699 0.13010377 0.050524957 -0.10497349
-0.13461576 0.14421734 0.0012168702 0.027822211 0.18077819 0.068094805 0.33626577 0.14927426
-0.18515089 0.21427749 0.10376535 0.025068332 -0.07203724 -0.0049279802 0.093332775 -0.018221347
0.10906905 0.22139451 0.15171412 0.13473903 0.22468928 0.016755074 0.14660417 0.15133676
0.1685362 0.024267362 -0.20064934 0.1554811 -0.078442514 -0.121263884 -0.06508741 0.06847489
0.09698372 0.054400537 0.11330802 0.25912344 -0.17831427 0.11762602 -0.2230721 0.26451802
0.11715411 -0.025230508 -0.060945213 0.13420308 0.028488072 0.13923934 0.31233293 0.21134162
0.06794206 0.07804623 0.038776428 0.20313689 0.26721013 0.11728966 -0.06952328 -0.042585216
-0.22353195 0.077152565 0.09139 -0.07312994 0.085886106 -0.17642027 -0.16035265 0.16537891
0.068855375 0.15745766 -0.13757697 0.0897477

weight f4 [50, 100]
00000000: 8742 87bd d01d 74be f124 d13d 37cf 4a3d
00000010: e21b 13be a90b 4abe c85b 2dbe f808 2ebd
00000020: 7919 b03e e8ea b83d e0f9 02be aacf ebbd
00000030: fa5a a23d 6094 e8bb d9d8 b2bc 43c1 67be
00000040: 243a ec3d e69f 443c 487f b0bd 16ba 033e
00000050: ec45 97be 94c2 e73d 2aed 563c 13aa 30bd
00000060: e979 0bbe 1be2 8c3e 9239 7a3e ce39 473d
00000070: 92f9 46bd 3120 7bbe fa7c 8e3d eaa7 34be
00000080: 1b0e 6bbd ec2a 41bd e156 84bd 8af8 543e
00000090: e692 ddbc 6041 63bd 2adf 94be d590 863d
000000a0: 508e ec3d 275d acbb 7658 93bc 8f96 3b3d
000000b0: 95c4 413e 8165 e33d 55ad 0ebe 0a54 7cbe
000000c0: b523 d63d b79d 76bd c5ad 6e3e b5e1 e4ba
000000d0: f2d2 f4bd 0562 933d 6a55 05be fef5 d83e
000000e0: 718b 7c3e c0ef 8c3d 0e33 36be 2372 a5bd
000000f0: 6830 0abe e68f 423c a7d5 81bc cb70 dc3d
00000100: ed64 9a3d cd9e 5dbd 3661 563d 411f d1bc
00000110: 5e23 413d 86d1 5fbe b822 51bd 4555 06be
00000120: 2b4b 343e 84a8 f93d c4cc a23c c51e a23b
00000130: f240 843d f206 10bd 1bb8 993e b2a3 583e
00000140: 3826 3c3c 6a58 0cbe f440 86be b521 fcbb
00000150: 1af3 a4be 6981 8a3d ee0b 98bd 81bc 123e
00000160: 850f 0c3e 989e 1e3e b75c 49bd 0812 fa3d
00000170: 0f1d 50be d1a9 b7bc 9def f9bc 067f 2f3d
00000180: 2960 0f3d 943e babe 5be2 753d 42a4 a5be
00000190: 7c5f 0cbe 754b 56bd f5df 8a3b 2c5f 9cbd
000001a0: d999 e4bc 2565 853e 6fcc 633b 6a10 00be
000001b0: 105e 0fbe ea00 ccbd 656a a3bd afe9 1cbe
000001c0: 97bd 443c 42e5 2ebe 8feb 8d3b dad4 45be
000001d0: 53b0 86ba 5280 efbb 3c18 0fbe 3586 a63d
000001e0: c8ad f33e 94ce 59be d558 66bd e834 bb3c
000001f0: 88e4 c4bd 4e9d 453d a087 163e 2e01 c73d
00000200: 64c9 45be 9e50 413c 9446 2cbe ff15 3e3e
00000210: 992b 543c 2999 11be d825 0abe a709 1abe
00000220: b3b4 333d 86bc 243e f647 a63d 20d3 a33e
00000230: fcbc d93c d6ed af3c 2f2a f8bd 295f 1f3e
00000240: 427c 9ebd 80b1 6cbd 93cc 19bd 21fa 713e
00000250: dc40 803c 18aa 313d 724d f8bd 6f77 87bd
00000260: 648b a9be 8652 71bd fea5 0c3e d2c6 9f3d
00000270: c63d 19be e6a7 c83c 5649 1c3e f137 1dbe
00000280: af4e b0bb 5866 edbd 919b 173e b866 f53d
00000290: e4b8 ed39 49ec 153d d4a0 9e3c d693 56bd
000002a0: 1dc8 1dbc 7c12 b83d 0dd6 023b 0fc6 a0bd
000002b0: 4185 cc3e fb91 e43d 93ef 8639 bf53 783d
000002c0: 4b06 63bd 65cd 6c3e 110a b3bd c9f3 aa3e
000002d0: 8260 2ebd 0856 6f3e 8fba c13d e039 143d
000002e0: eec1 46bc a843 05be 00fd 463e 9715 583b
000002f0: e0da 0d3e 0ef4 84bc a8a0 c83c 948c 55bd
00000300: 083e 9dbd ae9b 81bb c046 0ebe 4b07 68be
00000310: 58fc 94bd 00f8 89be f386 91bc 381a 26be
00000320: 2ce4 90be 39dd 21be 95c5 cebb f38e 8b3e
00000330: 0aca 55be 5106 313e b11d 38be c0fa 943e
00000340: bf4c 91bd 529e eabd 6a79 c73d 216a 273e
00000350: d9f9 3ebe 1d33 16bc 8346 6c3d 7945 8dbc
00000360: 4953 34be 1893 2fbd 573a 6f3d b30f d9bd
00000370: 928e d7bd 64db 54be 95a1 173e 2647 b63b
00000380: ae47 edbd 1997 0a3a 1209 cebd df0f 263d
00000390: f53a 96be dda4 b3bd 20bb 3ebe 664c 91bd
000003a0: 2794 343d f38b 63bd f609 ee3c efce 2cbe
000003b0: 1fff 263e ec49 263e 3242 b63d b8dd aa3c
000003c0: da84 d43d acbc de3d 5a89 953e e289 7c3d
000003d0: ac6c cebd d708 8c3c 04e4 0e3d 727d c2bd
000003e0: 6258 ab3e 1724 7e3e 4b48 35bd ecf3 d23c
000003f0: 1182 37be 245c d6bc 7110 3cbd fdae 783d
-0.06604486 -0.23839498 0.10212124 0.04951402 -0.14366105 -0.1973101 -0.16929543 -0.042489022
0.34394434 0.0902918 -0.12790632 -0.11514218 0.07927509 -0.007097766 -0.021831917 -0.22632317
0.11534527 0.012001013 -0.08618027 0.12863955 -0.29545534 0.1131641 0.013118068 -0.043130945
-0.13620724 0.27516255 0.24436024 0.04863911 -0.048577853 -0.24523999 0.06957431 -0.17642179
-0.0573865 -0.047160074 -0.06461883 0.20797935 -0.027047586 -0.05548227 -0.2907651 0.06570593
0.115505815 -0.005260128 -0.017986517 0.04579788 0.18922646 0.11103345 -0.13933308 -0.24641433
0.10456029 -0.060209002 0.23308475 -0.0017462285 -0.11954297 0.0719643 -0.13020864 0.42375177
0.24662568 0.06881666 -0.17792913 -0.080784105 -0.13495028 0.011875128 -0.015848948 0.10763701
0.07538781 -0.054106522 0.0523388 -0.025527598 0.04715287 -0.2185727 -0.0510585 -0.13118465
0.176068 0.12190345 0.01987303 0.0049475157 0.064577 -0.035162874 0.30023274 0.21156195
0.011483721 -0.13705602 -0.2622143 -0.007694448 -0.32216722 0.06762964 -0.074241504 0.14329721
0.13677795 0.15490186 -0.049160685 0.122104704 -0.20323585 -0.022419842 -0.030509764 0.04284575
0.035003815 -0.36375868 0.060030323 -0.3235188 -0.137083 -0.052318055 0.0042381235 -0.0763534
-0.027905392 0.2605373 0.0034759303 -0.12506261 -0.14000726 -0.09961112 -0.079792775 -0.15323518
0.012008092 -0.17079642 0.0043310593 -0.19319478 -0.0010275937 -0.007308998 -0.13974088 0.08131067
0.47593522 -0.2127021 -0.05623706 0.022852376 -0.096139014 0.04824572 0.14700174 0.09717022
-0.19315106 0.011799006 -0.16823798 0.18563078 0.012949848 -0.14218582 -0.13490999 -0.15042745
0.0438735 0.16087541 0.08119194 0.31997013 0.026579373 0.021475714 -0.12117421 0.15563644
-0.07738544 -0.057786465 -0.037548613 0.23630573 0.015655927 0.043375105 -0.121241465 -0.06614577
-0.3311416 -0.05891659 0.13735196 0.07801594 -0.14964971 0.024494123 0.1526235 -0.15353371
-0.0053804736 -0.11591786 0.14805438 0.11982483 0.00045341917 0.036602292 0.019363798 -0.05238708
-0.00963023 0.089879006 0.001996401 -0.07850277 0.39945415 0.11160656 0.00025736968 0.06062674
-0.055425923 0.23125227 -0.087421544 0.33389118 -0.042572506 0.23372662 0.09459411 0.036188006
-0.012131197 -0.1301409 0.1943245 0.0032971853 0.13853025 -0.016229656 0.02449067 -0.05213602
-0.07677847 -0.003955326 -0.13894176 -0.22659032 -0.07274693 -0.2694702 -0.017764544 -0.16220939
-0.2829908 -0.15807046 -0.0063101747 0.272575 -0.20877853 0.17287566 -0.17980076 0.29097557
-0.07094716 -0.114559785 0.09739955 0.16349079 -0.18649997 -0.00916746 0.057684433 -0.017245041
-0.17609896 -0.04286489 0.058405247 -0.105986975 -0.1052524 -0.20786816 0.14807732 0.005562681
-0.115859374 0.00052867975 -0.10060324 0.04054248 -0.29341856 -0.087716796 -0.1862607 -0.0709465
0.0440866 -0.055553388 0.029057484 -0.16875814 0.16308258 0.16239136 0.088993445 0.020857677
0.10376902 0.1087583 0.29206353 0.061654933 -0.10079321 0.017094059 0.03488542 -0.09496583
0.33465868 0.24818455 -0.044258397 0.025751077 -0.1792071 -0.026166983 -0.045914117 0.060713757

bias f4 [50]
00000000: e517 91bd 2d71 e73d 9c23 633e ed17 653d
00000010: c61b 323d 804c 9a3c 857b f93d 15f4 d03d
00000020: 2dac 963c ee02 943d 98fd d93b 9fe9 2abe
00000030: 5630 f83d 892a ce3d b3ca e03d d069 983d
00000040: 77cb 493c db3f ea3c 5873 83bd fddf 5a3e
00000050: 82e1 c13d 68c6 ea3d 44c6 103e d4f8 3e3d
00000060: 0383 09bd c08c 5e3e 47df 023e 1999 0b3d
00000070: 41c3 d2bc 93ad bbba 91c3 94bb 7fa8 65bd
00000080: 0c2c d0bd 32d7 273e 9cae 463e a701 05be
00000090: 2015 9f3d 7f93 a13d 0e9c 05bc 5758 70bc
000000a0: d1b8 ab3c 771e 213e 28d7 963d eb0c 53be
000000b0: 0d2b 0c3e 6b93 3abc 3611 c5bc 1873 bb3d
000000c0: fb7f 593d 2b9d ab3d
-0.07084636 0.113008834 0.22181553 0.05593102 0.043483518 0.018835306 0.121817626 0.10202805
0.018392647 0.07227121 0.006652545 -0.16690682 0.12118594 0.10066707 0.10976162 0.07442057
0.012316576 0.028594902 -0.064184844 0.21374507 0.0946684 0.11463624 0.14138132 0.04662402
-0.033572208 0.2173338 0.12780486 0.034081552 -0.02572787 -0.0014318697 -0.004539915 -0.056068894
-0.10164651 0.16390684 0.19402546 -0.12988912 0.07767701 0.07889461 -0.008154882 -0.014669499
0.02096215 0.15734278 0.073652565 -0.20610397 0.13688298 -0.011387686 -0.024056058 0.09152812
0.053100567 0.08379587
