Modeling eMNS/Trained_model/EMS_ANN_v2.pt (torch, 40484 bytes, 16 tensors)

total_net.0.net.0.fc.weight f4 [100, 15]
-0.36305252 -0.055725247 0.1497853 -0.091630824 0.10947923 -0.13651682 0.06801499 0.21651864
-0.06580676 -0.121506594 0.007739182 0.10546656 0.954994 0.04610224 0.12729704 0.019450698
0.047571197 -0.8524804 0.11097914 0.0519706 -0.020978853 0.020411167 0.045516122 0.062430657
0.015982477 0.053357497 -0.02740656 -0.086867854 0.58446985 0.40968877 0.09661209 0.11921012
0.10079902 0.10069276 0.01599729 0.076991305 -0.12985276 -0.1160573 -0.05237577 -0.13271874
-0.12799416 -0.19678198 0.046230488 0.03546482 0.7838199 0.03679998 0.009231746 0.01258552
0.043142162 0.007864395 0.017136684 0.026508233 0.028807677 0.11012925 -0.80103815 0.032843694
0.032540306 -0.24529563 0.00044629342 -0.1771746 0.18932064 0.11077481 0.01571595 -0.13976315
0.10308855 -0.31557631 -0.13518508 0.051704273 -0.10065567 -0.056101378 0.005189037 0.120959066
0.37360302 0.6873073 0.42806908 -0.015811007 -0.038778912 -0.05059146 0.019753674 0.004946455
-0.07064187 0.91467667 -0.2878844 -0.050859086 -0.0303989 -0.030529384 0.04369976 0.10680245
0.6033219 -0.24676576 -0.11855162 -0.04830769 -0.017197212 -0.02700641 -0.072446555 1.0846074
-0.01954968 0.004641469 -0.034972865 -0.008965532 -0.018829385 -0.06613373 0.03783666 -0.033918157
0.0044961874 0.031764187 -0.014625149 0.075895675 0.0440089 0.019571992 0.038993895 0.1268163
0.016597701 0.011944491 0.019417373 0.09785819 -1.1217998 0.06828539 -0.12765369 -0.062111743
-0.04913168 -0.102611646 -0.09217185 -0.020115245 0.11534197 0.09952456 -0.12714903 0.46617454
-0.081834935 -0.012136423 0.000607273 -0.029176198 -0.06208412 0.8823225 -0.050997447 0.6693194
-0.09453098 -0.032636292 -0.0068349163 0.0014812142 -0.09890552 -0.09592179 0.010844623 0.038866166
-0.0025163696 0.021699116 -0.03177532 1.022325 0.023016252 0.13949344 0.021377249 -0.0008887218
-0.06694828 0.27795538 -0.29149753 -0.114905156 0.18333535 0.008575327 -0.10551651 0.06792486
-0.20466806 0.31850466 0.37932348 -0.24779539 -0.07089377 0.114670716 -0.5715724 0.0030216184
0.17090207 -0.013635678 -0.03943234 0.1475099 0.04176193 -0.03301947 -0.10720412 -0.032146964
-0.01948245 0.50061554 -0.5315588 -0.6173833 0.032565773 -0.08784868 0.039352484 -0.10235566
0.08766247 0.42302334 -0.062237952 0.011550868 0.08375424 0.032834273 -0.07058377 -0.2161182
0.75975126 -0.7366042 0.5291707 -0.08624864 0.048430398 -0.052428152 -0.17113502 -0.2081817
0.8979617 0.025927894 -0.017002301 0.11295409 0.05004979 -0.0563092 0.0035711096 -0.41728166
-0.37621027 0.36895052 0.0065344027 0.007667015 -0.034528982 0.021434322 0.00963017 0.083863005
0.077176094 0.039836455 0.016005399 0.069428325 0.10233112 -0.97917867 -0.07617974 0.18530305
0.08813227 -0.046227816 -0.09380538 -0.15198517 0.23293808 0.06804559 -0.12980819 0.30990824
0.2870776 -0.043586303 -0.090403005 -0.067552306 0.00083490135 0.40123054 0.2018613 -0.46861914
0.22765757 0.04309727 -0.17066127 -0.055730406 -0.17555368 0.3873582 -0.13700567 -0.3042656
0.06627145 -0.0030948264 -0.08926163 0.01222674 0.69976234 -0.05119463 0.13013649 0.0846509
00000000: 05e2 b9be 2840 64bd 5161 193e f1a8 bbbd
00000010: a636 e03d 11cb 0bbe 714b 8b3d 10b7 5d3e
00000020: b2c5 86bd 73d8 f8bd f798 fd3b dafe d73d
00000030: 7d7a 743f b4d5 3c3d 285a 023e 1257 9f3c
00000040: 04da 423d 283c 5abf 0849 e33d 20df 543d
00000050: d8db abbc 5235 a73c 1d6f 3a3d 4ab7 7f3d
00000060: afed 823c 648d 5a3d b983 e0bc c6e7 b1bd
00000070: d19f 153f bac2 d13e 8fdc c53d 6f24 f43d
00000080: b76f ce3d 0138 ce3d c00c 833c 9ead 9d3d
00000090: 1ff8 04be 73af edbd fa87 56bd 6ce7 07be
000000a0: e710 03be 3781 49be 2e5c 3d3d 8f43 113d
000000b0: 6ca8 483f 93bb 163d c040 173c 7f33 4e3c
000000c0: d6b5 303d aad9 003c 3b62 8c3c cb27 d93c
000000d0: 14fe eb3c 728b e13d d610 4dbf 1c87 063d
000000e0: fc48 053d c72e 7bbe 7dfc e939 426d 35be
000000f0: 45dd 413e e7dd e23d bcbe 803c 121e 0fbe
00000100: 1720 d33d 3893 a1be f56d 0abe dcc7 533d
00000110: 8f24 cebd 8fca 65bd cc08 aa3b 63b9 f73d
00000120: e548 bf3e 5ff3 2f3f df2b db3e 1686 81bc
00000130: a3d6 1ebd fe38 4fbd 75d2 a13c df15 a23b
00000140: afac 90bd 4028 6a3f 9665 93be 9e51 50bd
00000150: 1d07 f9bc c218 fabc 85fe 323d 3ebb da3d
00000160: 4e73 1a3f 2ab0 7cbe 31cb f2bd 49de 45bd
00000170: 2be1 8cbc 8c3c ddbc dc5e 94bd 6ad4 8a3f
00000180: a726 a0bc 7717 983b b53f 0fbd 2be4 12bc
00000190: 1540 9abc 1f71 87bd 9dfa 1a3d c4ed 0abd
000001a0: c154 933b 2a1b 023d 529e 6fbc 316f 9b3d
000001b0: ad42 343d 7155 a03c 10b8 1f3d 22dc 013e
000001c0: e7f7 873c d4b2 433c 2f11 9f3c e069 c83d
000001d0: 2397 8fbf 36d9 8b3d a6b7 02be e268 7ebd
000001e0: 4d3e 49bd 0e26 d2bd 98c4 bcbd bac8 a4bc
000001f0: 6938 ec3d 88d3 cb3d 5b33 02be 6eae ee3e
00000200: 1399 a7bd d9d7 46bc 6731 1f3a ec02 efbc
00000210: eb4b 7ebd e3df 613f b3e2 50bd 8458 2b3f
00000220: 7599 c1bd a2ad 05bd 6ff7 dfbb 4d25 c23a
00000230: fa8e cabd a572 c4bd a5ad 313c 2132 1f3d
00000240: ade9 24bb 58c2 b13c d726 02bd 8cdb 823f
00000250: 948c bc3c 5ed7 0e3e 571f af3c 1cf9 68ba
00000260: 2e1c 89bd 2b50 8e3e 2a3f 95be 6553 ebbd
00000270: 43bc 3b3e 877f 0c3c 0a19 d8bd 301c 8b3d
00000280: 8194 51be 0b13 a33e b036 c23e 13be 7dbe
00000290: c130 91bd 7bd8 ea3d 9252 12bf 5806 463b
000002a0: f400 2f3e 2e68 5fbc ce83 21bd d60c 173e
000002b0: 8f0e 2b3d 6c3f 07bd d58d dbbd 89ac 03bd
000002c0: a999 9fbc 5728 003f 3d14 08bf d50c 1ebf
000002d0: b063 053d 02ea b3bd 1230 213d d89f d1bd
000002e0: 6288 b33d 8496 d83e 39ed 7ebd da3f 3d3c
000002f0: 5887 ab3d 3b7d 063d 398e 90bd 174e 5dbe
00000300: 0f7f 423f 1892 3cbf bb77 073f 21a3 b0bd
00000310: f45e 463d e7be 56bd 053e 2fbe 952d 55be
00000320: d1e0 653f bc66 d43c 6948 8bbc 7954 e73d
00000330: 0201 4d3d 7aa4 66bd 4709 6a3b f1a5 d5be
00000340: a29e c0be 15e7 bc3e 8b1e d63b 953b fb3b
00000350: 436e 0dbd 0897 af3c dcc7 1d3c 5ec0 ab3d
00000360: 800e 9e3d 8d2b 233d c11d 833c 7030 8e3d
00000370: fa92 d13d 74ab 7abf 2004 9cbd 15c0 3d3e
00000380: b17e b43d 6159 3dbd 091d c0bd 00a2 1bbe
00000390: 5287 6e3e 7c5b 8b3d 70ec 04be 4bac 9e3e
000003a0: d6fb 923e 8d87 32bd 3625 b9bd dd58 8abd
000003b0: 48dd 5a3a 176e cd3e bbb4 4e3e d9ee efbe
000003c0: 111f 693e c386 303d d4c1 2ebe 9145 64bd
000003d0: 58c4 33be d053 c63e 374b 0cbe b3c8 9bbe
000003e0: 53b9 873d 92d2 4abb cdce b6bd aa52 483c
000003f0: a023 333f 76b1 51bd 8042 053e 735d ad3d

total_net.0.net.0.fc.bias f4 [100]
-0.4328512 -0.42523125 0.66491145 0.26672286 -0.13244784 -0.18122333 0.6256756 0.6036127
-0.61840093 -0.7417292 -0.066609375 0.17658506 -0.70008403 -0.101081654 -0.50416577 -0.077807605
-0.025467094 -0.14859432 0.10147942 0.7458312 0.17173423 -0.07246562 -0.10371379 0.4297785
-0.1490909 -0.10916428 0.5353848 -0.40016618 -0.29990712 0.3383109 0.501803 0.4720397
-0.14063482 0.15114182 0.2980569 0.22864546 0.42075107 -0.54118556 0.1390319 0.15337478
0.062909395 -0.56201005 0.34476793 -0.5243927 0.18987782 0.22709256 0.3631198 0.07845608
-0.04111526 0.008974277 -0.45969895 -0.6248754 0.14168462 0.5049456 0.4956337 -0.25947747
0.19179878 -0.20943895 0.47458926 -0.06824524 0.33312848 -0.07513458 -0.3866109 0.3170368
-0.6024009 -0.38091135 0.17598712 0.49082813 0.13418214 -0.59004915 0.47589242 0.29225364
-0.24167004 0.04248017 -0.30308506 0.09432137 0.26518956 0.4323197 0.24075471 0.22597717
0.33374247 0.8707815 0.235123 -0.8844482 -0.07220214 0.015932642 0.40788677 -0.12713908
-0.06718361 -0.6215865 -0.120950006 0.494172 0.2799913 -0.17939204 -0.30803433 0.48751584
0.5363571 0.49811342 0.18490626 0.18715718
00000000: ac9e ddbe e9b7 d9be a337 2a3f e68f 883e
00000010: 68a0 07be 9c92 39be 472c 203f 5d86 1a3f
00000020: 864f 1ebf f7e1 3dbf 7f6a 88bd b7d2 343e
00000030: b538 33bf e603 cfbd 0211 01bf 9859 9fbd
00000040: 5ea0 d0bc 1c29 18be 71d4 cf3d cbee 3e3f
00000050: 19db 2f3e db68 94bd e567 d4bd ed0b dc3e
00000060: 49ab 18be 8691 dfbd fa0e 093f 95e2 ccbe
00000070: 6d8d 99be 1637 ad3e 2976 003f 30af f13e
00000080: 9302 10be ecc4 1a3e ea9a 983e 0922 6a3e
00000090: af6c d73e 238b 0abf 615e 0e3e 470e 1d3e
000000a0: a4d6 803d e4df 0fbf 6c85 b03e 9a3e 06bf
000000b0: 556f 423e f48a 683e d7ea b93e 95ad a03d
000000c0: 7a68 28bd d908 133c a95d ebbe d6f7 1fbf
000000d0: c615 113e 1d44 013f b3c3 fd3e 3bda 84be
000000e0: e666 443e 2a77 56be 5dfd f23e 29c4 8bbd
000000f0: d18f aa3e 29e0 99bd ddf1 c5be a652 a23e
00000100: f236 1abf d006 c3be f835 343e d34d fb3e
00000110: 0b67 093e 760d 17bf 2ca8 f33e 45a2 953e
00000120: 5a78 77be b0ff 2d3d f72d 9bbe 902b c13d
00000130: edc6 873e 0259 dd3e 6788 763e 8f66 673e
00000140: 4be0 aa3e 89eb 5e3f 15c4 703e 326b 62bf
00000150: b7de 93bd 2c85 823c 89d6 d03e bf30 02be
00000160: 8f97 89bd 4b20 1fbf a3b4 f7bd 1d04 fd3e
00000170: 055b 8f3e 8cb2 37be adb6 9dbe ad9b f93e
00000180: b34e 093f b908 ff3e 1158 3d3e 22a6 3f3e

total_net.1.net.0.fc.weight f4 [50, 100]
-0.26119927 -0.16021043 -0.062100094 -0.36871257 0.15343823 0.20359921 0.05213994 0.03170258
0.09972411 0.07850732 0.15490477 0.003546094 0.45845962 -0.11987137 -0.0071818447 0.11266409
0.16041176 0.063685514 -0.123110294 -0.0021909259 0.037345663 0.14503154 0.0075616864 -0.11988112
0.03630746 -0.25305066 -0.092266046 -0.27344054 -0.12618843 0.16446662 -0.07705567 0.109334156
0.22572228 0.13508834 -0.093096055 -0.20540038 -0.11142676 -0.16550034 0.46142054 0.040316153
0.010023025 0.36598662 -0.07857405 0.09778827 -0.21484776 0.28069067 0.01640264 -0.10406107
0.31625757 0.15981479 0.09544197 0.10124283 0.20778263 -0.051953226 -0.09730155 -0.050439704
0.14438288 0.08413703 0.15655293 0.05938987 -0.052860215 0.028006261 0.025145527 0.20054378
0.11278857 -0.2895837 -0.042516053 -0.25486353 0.34219077 0.057857607 -0.01570755 0.17591959
-0.08707724 -0.021385279 -0.15180168 0.19681701 -0.17145994 -0.10051024 -0.03321243 -0.22193938
-0.25745082 0.11666929 -0.15642984 0.54658705 -0.11265904 0.038635902 0.21977092 -0.36010113
0.045833327 0.3398179 -0.18072726 0.21567005 -0.054027855 0.0023304715 -0.12473835 -0.15086031
-0.19111916 -0.110302664 0.10116104 0.16823837 0.18981577 0.04990571 -0.09849723 -0.1288048
0.29058343 0.011561337 0.16928113 0.14278261 0.040915124 0.031151032 -0.044741508 -0.13458842
-0.038447246 -0.051789343 -0.3560884 -0.043720756 -0.20502016 0.023444291 0.07939457 0.275238
-0.008666327 0.29491776 -0.15440951 -0.12634932 0.0038657424 0.056858424 -0.22895503 0.14150202
-0.050583217 2.460419e-05 0.044081077 -0.040604398 -0.036755744 -0.07155245 0.011355953 0.012900282
-0.0153381135 -0.13108166 0.13066907 0.3619854 0.037466753 -0.08982324 0.16299246 0.06526936
0.07895603 -0.2463177 -0.13632424 -0.060575455 -0.12918569 0.053922094 -0.099446684 -0.21029219
0.059457906 0.19072685 0.3181075 0.041432135 0.011395699 0.067121305 0.04385776 -0.052423965
-0.1462334 0.04190993 -0.31751382 -0.15506525 0.43573073 -0.19369084 0.24752279 0.13921429
-0.6929362 -0.016327776 0.07465979 -0.2855621 0.09200485 0.076162 0.008463172 0.03872354
-0.07207144 0.0076592336 0.10620637 0.1214762 -0.03829795 -0.115722254 -0.048024926 -0.091270395
-0.10178971 -0.16022918 0.039278217 -0.24950427 0.17448603 0.1537864 0.17807874 0.017185416
-0.061738133 0.2531979 -0.16632494 -0.08857385 0.16280368 -0.1477874 0.05579691 0.15228231
-0.06558674 0.03546487 -0.31620234 0.21206918 -0.06282639 -0.16252194 -0.04739478 -0.08030051
0.28019604 -0.08276638 0.08226577 -0.009169455 -0.019952811 0.04784455 0.009051451 0.06907691
-0.22343846 -0.09625863 -0.16432467 -0.22147869 0.10331568 -0.012946543 -0.054789905 0.03769971
0.14481427 0.27371085 0.246456 -0.16805418 0.034769762 -0.17742202 -0.33472776 -0.021434307
-0.21497871 -0.0051576365 0.0138360895 -0.14846529 0.24949202 -0.32119352 -0.02347185 -0.054640103
0.03882429 -0.066974774 0.12909532 0.14096232 -0.071243204 -0.18028331 0.04833877 -0.04418295
0.066266425 -0.014138078 -0.03073172 0.42871264 -0.022001805 -0.31239226 -0.06558587 0.009756895
00000000: e9bb 85be 340e 24be ab5c 7ebd e5c7 bcbe
00000010: e91e 1d3e 507c 503e b190 553d 91da 013d
00000020: 273c cc3d 72c8 a03d 5b9f 1e3e 9665 683b
00000030: 38bb ea3e 1f7f f5bd ae55 ebbb 6ebc e63d
00000040: fb42 243e 8d6d 823d 4021 fcbd a395 0fbb
00000050: c4f7 183d 2683 143e 06c8 f73b 3c84 f5bd
00000060: 22b7 143d db8f 81be fbf5 bcbd 6600 8cbe
00000070: 8a37 01be f069 283e 5dcf 9dbd 96ea df3d
00000080: be23 673e 9954 0a3e 25a9 bebd 7a54 52be
00000090: b733 e4bd ec78 29be 503f ec3e 8d22 253d
000000a0: 9d37 243c 9962 bb3e 6eeb a0bd 3745 c83d
000000b0: 0d01 5cbe b0b6 8f3e d45e 863c f81d d5bd
000000c0: 83ec a13e 7da6 233e 1477 c33d 6758 cf3d
000000d0: f8c4 543e e8cc 54bd 0946 c7bd dd99 4ebd
000000e0: 1bd9 133e 0950 ac3d 694f 203e cb42 733d
000000f0: f483 58bd 636d e53c fefd cd3c 595b 4d3e
00000100: b2fd e63d 5144 94be 5025 2ebd 797d 82be
00000110: a133 af3e 19fc 6c3d 1fad 80bc 4424 343e
00000120: 8d55 b2bd 2e30 afbc e671 1bbe 668a 493e
00000130: 3293 2fbe 50d8 cdbd c209 08bd 1444 63be
00000140: 98d0 83be 4ff0 ee3d 252f 20be 21ed 0b3f
00000150: c8b9 e6bd ae40 1e3d a10b 613e 2d5f b8be
00000160: babb 3b3d 9dfc ad3e 9110 39be 9cd8 5c3e
00000170: 504c 5dbd d3ba 183b d276 ffbd 207b 1abe
00000180: beb4 43be 5de6 e1bd 852d cf3d ae46 2c3e
00000190: 115f 423e ee69 4c3d eab8 c9bd 68e5 03be
000001a0: 5ac7 943e c36b 3d3c 0858 2d3e 9b35 123e
000001b0: 9e96 273d 7330 ff3c df42 37bd 8cd1 09be
000001c0: dc7a 1dbd 1021 54bd 3851 b6be 8914 33bd
000001d0: cef0 51be 3e0e c03c 9f99 a23d ffeb 8c3e
000001e0: 36fd 0dbc 76ff 963e 871d 1ebe b761 01be
000001f0: 6558 7d3b 61e4 683d 3073 6abe e8e5 103e
00000200: 5930 4fbd 1865 ce37 5c8e 343d cc50 26bd
00000210: 318d 16bd 178a 92bd 520e 3a3c b45b 533c
00000220: b64c 7bbc 453a 06be 1dce 053e 2656 b93e
00000230: bd76 193d 3ff5 b7bd 7fe7 263e f1ab 853d
00000240: b3b3 a13d b53a 7cbe 9598 0bbe f81d 78bd
00000250: 4149 04be 6add 5c3d b4aa cbbd d656 57be
00000260: 228a 733d e64d 433e fcde a23e beb4 293d
00000270: 07b5 3a3c e576 893d 32a4 333d 83ba 56bd
00000280: 35be 15be bfa9 2b3d 2c91 a2be 6dc9 1ebe
00000290: 1918 df3e e456 46be 9d76 7d3e 318e 0e3e
000002a0: 4464 31bf d4c1 85bc 3be7 983d 3235 92be
000002b0: 0a6d bc3d d3fa 9b3d 1ea9 0a3c 939c 1e3d
000002c0: 319a 93bd 4ffa fa3b ba82 d93d 84c8 f83d
000002d0: 50de 1cbd caff ecbd c9b5 44bd f9eb babd
000002e0: 2077 d0bd 1e13 24be 32e2 203d 0c7e 7fbe
000002f0: 77ac 323e 2f7a 1d3e 465a 363e 6ec8 8c3c
00000300: 20e1 7cbd 28a3 813e 1651 2abe 3566 b5bd
00000310: 02b6 263e 9555 17be 4d8b 643d e5ef 1b3e
00000320: 5752 86bd 9d43 113d 46e5 a1be aa28 593e
00000330: 1fab 80bd 276c 26be 0721 42bd 9874 a4bd
00000340: db75 8f3e 6b81 a9bd f57a a83d 7b3b 16bc
00000350: 1474 a3bc a6f8 433d 8a4c 143c 3278 8d3d
00000360: 0dcd 64be 3f23 c5bd ba44 28be 4fcb 62be
00000370: 2c97 d33d bd1d 54bc 616b 60bd 036b 1a3d
00000380: 314a 143e d423 8c3e f65e 7c3e 6516 2cbe
00000390: bd6a 0e3d 1eae 35be 7061 abbe 0097 afbc
000003a0: 6123 5cbe 6401 a9bb c4b0 623c 4907 18be
000003b0: d67a 7f3e 7a73 a4be 0a48 c0bc 4dce 5fbd
000003c0: 3806 1f3d 122a 89bd 9031 043e 6d58 103e
000003d0: f5e7 91bd 309c 38be e0fe 453d 2ef9 34bd
000003e0: b1b6 873d 66a3 67bc 17c1 fbbc 3980 db3e
000003f0: 213d b4bc e1f1 9fbe e251 86bd 62db 1f3c

total_net.1.net.0.fc.bias f4 [50]
-0.38185784 -0.20015804 -0.27079296 -0.38784012 -0.22431104 -0.10646491 0.19336477 -0.30106905
-0.5952944 -0.2043928 -0.053262252 -0.3938438 -0.043195136 0.11121768 -0.32958865 0.042237855
-0.33888704 -0.4410236 0.1899515 -0.25884447 -0.1311016 0.081619255 -0.45703304 -0.3357757
-0.75257444 -0.0049215956 0.10484447 -0.22336844 -0.4655009 0.16464157 0.010339519 -0.025337322
-0.2377627 0.18831831 0.19230594 -0.3440397 0.0123104 0.27557182 -0.6037248 -0.11122408
0.29715794 0.12752919 -0.39645356 -0.7248171 -0.33531246 -0.19940667 -0.07402574 0.16039827
-0.53699255 0.27836648
00000000: df82 c3be 3bf6 4cbe 60a5 8abe fb92 c6be
00000010: cbb1 65be 460a dabd 6a01 463e b925 9abe
00000020: 3765 18bf 594c 51be 8529 5abd e5a5 c9be
00000030: 62ed 30bd 18c6 e33d d8bf a8be 9a01 2d3d
00000040: 9a82 adbe d8cd e1be a582 423e 4387 84be
00000050: 7f3f 06be ff27 a73d 3c00 eabe cbea abbe
00000060: b8a8 40bf 5645 a1bb b3b8 d63d b2ba 64be
00000070: 2256 eebe cd97 283e 1667 293c 3790 cfbc
00000080: 1178 73be 84d6 403e d9eb 443e f925 b0be
00000090: 8fb1 493c c017 8d3e b58d 1abf 73c9 e3bd
000000a0: 1625 983e 0397 023e f6fb cabe 9d8d 39bf
000000b0: 13ae abbe 4331 4cbe cf9a 97bd 723f 243e
000000c0: 5878 09bf 0d86 8e3e

total_net.2.net.0.fc.weight f4 [25, 50]
-0.001658196 0.06878074 0.35329264 0.020651586 -0.3942785 0.32780948 0.0072794557 -0.19114019
-0.0651244 -0.06364043 0.17637742 0.26777264 0.07042575 0.00040452115 0.015122177 -0.14466521
-0.029021256 -0.10524996 -0.022574672 0.17869003 0.034561444 -0.11206414 -0.05570617 0.079734355
0.14722003 0.05955267 0.13663797 0.030282838 0.070617646 -0.2056198 -0.1578769 0.10848728
0.1574461 -0.03278185 0.0006300724 -0.08092763 -0.21919197 -0.2761111 0.020421712 0.1053943
0.13045794 0.013983855 0.41793 0.061513644 0.13358012 -0.07389006 0.3676442 0.1308759
0.1107352 -0.08439942 -0.0149073955 0.14972444 0.08442953 -0.13981326 -0.09925613 0.14093035
0.060746957 -0.22658275 -0.2450564 -0.20068204 -0.43279067 -0.13515355 0.09301838 0.18653421
-0.056341223 -0.07365993 0.11711174 0.0026628375 -0.13285269 -0.08559789 -0.093713075 0.006680097
-0.11802577 0.20660849 0.29625276 0.0264652 0.1165191 -0.28388837 0.2965417 0.073445484
0.043497298 0.16949078 0.049730334 0.05014137 -0.10949404 0.08832607 -0.0013618803 0.17127195
-0.20238236 0.14256543 -0.08037712 -0.11049059 0.2889953 -0.0032065518 0.24023446 0.55772823
-0.0065682153 -0.10549358 -0.01815765 -0.023461897 -0.3203386 -0.19805479 -0.0040116343 -0.11107505
0.46651968 0.12723644 0.05735194 0.18455695 -0.2841297 0.030125907 -0.009537678 0.09284683
0.103024706 0.0813807 0.20261343 -0.28273058 0.11073158 -0.56632805 0.2961745 -0.08547452
0.115317956 0.1321966 -0.03794759 -0.0027445743 0.016730277 -0.022379389 -0.120338336 0.29550683
0.3825768 -0.208383 0.27765408 0.11794717 -0.54674244 -0.52910143 -0.048592977 0.24039795
0.42054775 0.050256476 -0.26138034 -0.06955488 0.07775049 -0.30167127 -0.08656825 -0.082170114
-0.032484267 -0.1807679 -0.097992405 -0.12000352 -0.5474143 -0.18801047 0.14898176 -0.19392945
0.1296976 -0.030939698 0.077044725 0.105016954 0.32148033 -0.16031668 -0.36121768 -0.029568814
0.0106094405 -0.14792234 -0.06779275 0.116491504 -0.027686087 0.16939873 0.23933306 -0.014055479
0.33481684 -0.0076050726 0.2509643 -0.07842154 -0.07047319 0.11119338 -0.25557348 0.09686766
0.027996186 -0.057603434 0.21574882 -0.07786321 0.048201203 -0.112544894 0.09439735 0.039923087
0.0974382 -0.0034969999 0.089498945 -0.05162993 0.15798116 -0.08386458 -0.014952354 -0.17986608
0.23813048 0.17980194 0.009206044 0.23380996 -0.26651585 0.16570345 -0.09983441 -0.08295653
-0.15098153 -0.08214217 0.09526106 0.09256494 0.14628893 -0.00527505 0.05600568 0.09501833
0.047857527 0.6152309 0.09326253 0.11439267 0.08111419 0.03639444 0.41542968 -0.014336048
0.009897518 0.26859665 -0.035336774 -0.07599411 0.19493736 -0.03185336 -0.027429154 0.37469968
0.038068034 -0.03042523 -0.22243367 0.0969553 -0.7249319 0.033990577 -0.09158661 0.0016423289
0.24547805 0.12168035 -0.13660422 0.108302 -0.061282564 0.036204696 0.005858218 0.029696187
-0.019517036 0.0064599374 -0.0077437754 0.040668845 0.2797524 0.12851779 0.0908959 -0.096639544
-0.2451522 -0.068157025 0.18459934 -0.12907016 0.277982 0.0011502819 0.24459073 -0.024305938
00000000: d357 d9ba ebdc 8c3d c6e2 b43e 842d a93c
00000010: dfde c9be a5d6 a73e 8088 ee3b 41ba 43be
00000020: f15f 85bd ea55 82bd 489c 343e 7f19 893e
00000030: 603b 903d e915 d439 02c3 773c 1e23 14be
00000040: fcbd edbc 4b8d d7bd 85ee b8bc 85fa 363e
00000050: 4d90 0d3d e281 e5bd 272c 64bd c44b a33d
00000060: d9c0 163e 80ed 733d d3ea 0b3e b713 f83c
00000070: fc9f 903d ff8d 52be 7baa 21be 942e de3d
00000080: 8d39 213e 4346 06bd 712b 253a 63bd a5bd
00000090: dc73 60be 6f5e 8dbe 6f4b a73c f7d8 d73d
000000a0: c496 053e 8a1c 653c ecfa d53e bbf5 7b3d
000000b0: 3ac9 083e ac53 97bd dc3b bc3e 5504 063e
000000c0: 23c9 e23d 9ad9 acbd 263e 74bc 5d51 193e
000000d0: 64e9 ac3d 352b 0fbe cc46 cbbd 0c50 103e
000000e0: cdd1 783d 4f05 68be 11f0 7abe 987f 4dbe
000000f0: bd96 ddbe b165 0abe 6c80 be3d d302 3f3e
00000100: 0ec6 66bd 04db 96bd 48d8 ef3d 0083 2e3b
00000110: 890a 08be f24d afbd a4ec bfbd b7e4 da3b
00000120: 7fb7 f1bd 2d91 533e 71ae 973e 8ccd d83c
00000130: 91a1 ee3d d159 91be 50d4 973e 966a 963d
00000140: 392a 323d fe8e 2d3e 09b2 4b3d 0a61 4d3d
00000150: 693e e0bd 4ce4 b43d 1f81 b2ba ea61 2f3e
00000160: 523d 4fbe acfc 113e c29c a4bd e448 e2bd
00000170: 31f7 933e 0325 52bb 0600 763e 47c7 0e3f
00000180: 2f3a d7bb 050d d8bd 5abf 94bc 2a33 c0bc
00000190: 6c03 a4be e0ce 4abe 0774 83bb 517b e3bd
000001a0: abdb ee3e 454a 023e dee9 6a3d 7ffc 3c3e
000001b0: 7379 91be 9bca f63c ec43 1cbc 7b26 be3d
000001c0: 9efe d23d edaa a63d e579 4f3e 10c2 90be
000001d0: 3dc7 e23d e0fa 10bf 2fa4 973e 440d afbd
000001e0: d22b ec3d 8c5e 073e ef6e 1bbd 51de 33bb
000001f0: ef0d 893c fb54 b7bc f273 f6bd ac4c 973e
00000200: 1be1 c33e 5a62 55be ad28 8e3e 498e f13d
00000210: 50f7 0bbf 3173 07bf 6e09 47bd e12a 763e
00000220: 0952 d73e bcd9 4d3d a5d3 85be ca72 8ebd
00000230: a63b 9f3d a874 9abe b24a b1bd ce48 a8bd
00000240: 390e 05bd 381b 39be 3eb0 c8bd 68c4 f5bd
00000250: 5823 0cbf d185 40be ad8e 183e 7195 46be
00000260: 73cf 043e 4075 fdbc a0c9 9d3d 2113 d73d
00000270: 1299 a43e 0e2a 24be 86f1 b8be 4c3a f2bc
00000280: 38d3 2d3c f478 17be edd6 8abd 1993 ee3d
00000290: efcd e2bc dc76 2d3e ba13 753e f448 66bc
000002a0: 1d6d ab3e f933 f9bb 657e 803e 799b a0bd
000002b0: 3f54 90bd 5bb9 e33d 87da 82be 8d62 c63d
000002c0: 4258 e53c 94f1 6bbd 42ed 5c3e bf76 9fbd
000002d0: a06e 453d f07d e6bd 6653 c13d 6486 233d
000002e0: ae8d c73d ec2d 65bb 394b b73d e879 53bd
000002f0: d0c5 213e 31c1 abbd b8fa 74bc d02e 38be
00000300: 7ad8 733e 001e 383e f2d4 163c e16b 6f3e
00000310: c474 88be 2aae 293e fc75 ccbd 1de5 a9bd
00000320: e79a 1abe 273a a8bd 3b18 c33d b092 bd3d
00000330: c4cc 153e 54da acbb 3666 653d f898 c23d
00000340: 4106 443d c67f 1d3f 6d00 bf3d b446 ea3d
00000350: 321f a63d 5612 153d 33b3 d43e bee1 6abc
00000360: 3329 223c 8085 893e 4bbd 10bd cda2 9bbd
00000370: a99d 473e ab78 02bd 1bb3 e0bc a3d8 bf3e
00000380: 3aed 1b3d 553e f9bc a7c5 63be 8090 c63d
00000390: 2395 39bf b439 0b3d c391 bbbd 6a43 d73a
000003a0: 995e 7b3e 8c33 f93d fae1 0bbe 70cd dd3d
000003b0: 6d03 7bbd 604b 143d 4bf6 bf3b 6b45 f33c
000003c0: 31e2 9fbc e2ad d33b 7fbf fdbb 6094 263d
000003d0: b53b 8f3e 2b9a 033e a127 ba3d f4ea c5bd
000003e0: 2e09 7bbe e995 8bbd 9c07 3d3e f82a 04be
000003f0: a853 8e3e 0ec5 963a fe75 7a3e 3f1d c7bc

total_net.2.net.0.fc.bias f4 [25]
-0.7742669 0.031255357 0.1555659 0.065047674 -0.6739882 0.055649653 -0.14347066 0.043823775
-0.46200144 -0.0552521 -0.6823794 -0.037500776 -0.4889984 0.076955244 -0.40126127 -0.021156866
-0.73207533 0.05716072 -0.43088967 0.12460581 -0.026617458 -0.63248694 0.078480594 0.0031045272
0.12627567
00000000: 5b36 46bf 9e05 003d ab4c 1f3e b737 853d
00000010: 7e8a 2cbf e4f0 633d f9e9 12be 8f80 333d
00000020: 748b ecbe 0750 62bd 6bb0 2ebf 6a9a 19bd
00000030: 005e fabe b69a 9d3d 1e72 cdbe 2a51 adbc
00000040: 4a69 3bbf 5c21 6a3d 929d dcbe 5531 ff3d
00000050: db0c dabc aaea 21bf 6fba a03d 5375 4b3b
00000060: 694e 013e

total_net.3.weight f4 [3, 25]
-0.027944652 -0.05841116 -0.017449552 0.001563137 0.085306026 0.09674744 -0.020049926 0.066172116
0.002978604 -0.10781294 -0.019284828 -0.047687214 -0.0052088946 0.012660118 -0.004762317 -0.10280521
0.05027298 -0.0553581 0.0074436334 -0.038695738 -0.12029675 -0.07080122 0.12853788 0.012391229
-0.02355754 0.074122764 0.08136257 -0.026559526 -0.08451355 0.015111514 -0.118156515 -0.04853692
0.13484983 0.066292346 -0.018101363 -0.06329756 0.07353343 0.0698382 -0.040118933 -0.083112605
-0.064778194 -0.013364432 0.10265955 -0.082055844 0.0058817267 -0.087610275 -0.00320506 -0.020515246
-0.037347678 0.048553333 -0.028918132 0.07558082 -0.029047063 0.13139449 0.049971823 -0.020259436
-0.041877188 -0.092357345 0.023569487 0.00073588855 -0.035176553 -0.14032811 0.06314563 0.007685325
0.047984935 -0.086973436 -0.042806394 0.13435765 -0.058148295 0.016791107 -0.05634429 0.053425163
-0.00079028454 -0.023084236 -0.038593423
00000000: 2fec e4bc 8a40 6fbd 5df2 8ebc 2de2 cc3a
00000010: edb4 ae3d 8623 c63d be3f a4bc 3f85 873d
00000020: af34 433b 08cd dcbd 37fb 9dbc ab53 43bd
00000030: 60af aabb 626c 4f3c 360d 9cbb 8a8b d2bd
00000040: 0aeb 4d3d 2dbf 62bd b9e9 f33b 6c7f 1ebd
00000050: 245e f6bd 3b00 91bd 6f9f 033e 9504 4b3c
00000060: befb c0bc adcd 973d 6ba1 a63d 5d93 d9bc
00000070: 7115 adbd 4996 773c 0bfc f1bd a6ce 46bd
00000080: 1316 0a3e 48c4 873d 4f49 94bc 27a2 81bd
00000090: b298 963d 5507 8f3d c053 24bd f136 aabd
000000a0: 6eaa 84bd 7ef6 5abc 2c3f d23d e50c a8bd
000000b0: 80bb c03b 046d b3bd fc0b 52bb 970f a8bc
000000c0: e1f9 18bd dcdf 463d b8e5 ecbc 1eca 9a3d
000000d0: 1bf4 edbc 478c 063e 41af 4c3d 1ef7 a5bc
000000e0: 6a87 2bbd d925 bdbd cc14 c13c a5e8 403a
000000f0: 4a15 10bd 2cb2 0fbe 7f52 813d 2ed5 fb3b
00000100: da8b 443d 211f b2bd c255 2fbd 0d95 093e
00000110: e82c 6ebd 818d 893c 45c9 66bd 58d4 5a3d
00000120: 192b 4fba 271b bdbc 2314 1ebd

total_net.3.bias f4 [3]
-0.08882154 0.028804382 -0.072497085
00000000: 11e8 b5bd 2bf7 eb3c 5a79 94bd

weight f4 [100, 15]
-0.36305252 -0.055725247 0.1497853 -0.091630824 0.10947923 -0.13651682 0.06801499 0.21651864
-0.06580676 -0.121506594 0.007739182 0.10546656 0.954994 0.04610224 0.12729704 0.019450698
0.047571197 -0.8524804 0.11097914 0.0519706 -0.020978853 0.020411167 0.045516122 0.062430657
0.015982477 0.053357497 -0.02740656 -0.086867854 0.58446985 0.40968877 0.09661209 0.11921012
0.10079902 0.10069276 0.01599729 0.076991305 -0.12985276 -0.1160573 -0.05237577 -0.13271874
-0.12799416 -0.19678198 0.046230488 0.03546482 0.7838199 0.03679998 0.009231746 0.01258552
0.043142162 0.007864395 0.017136684 0.026508233 0.028807677 0.11012925 -0.80103815 0.032843694
0.032540306 -0.24529563 0.00044629342 -0.1771746 0.18932064 0.11077481 0.01571595 -0.13976315
0.10308855 -0.31557631 -0.13518508 0.051704273 -0.10065567 -0.056101378 0.005189037 0.120959066
0.37360302 0.6873073 0.42806908 -0.015811007 -0.038778912 -0.05059146 0.019753674 0.004946455
-0.07064187 0.91467667 -0.2878844 -0.050859086 -0.0303989 -0.030529384 0.04369976 0.10680245
0.6033219 -0.24676576 -0.11855162 -0.04830769 -0.017197212 -0.02700641 -0.072446555 1.0846074
-0.01954968 0.004641469 -0.034972865 -0.008965532 -0.018829385 -0.06613373 0.03783666 -0.033918157
0.0044961874 0.031764187 -0.014625149 0.075895675 0.0440089 0.019571992 0.038993895 0.1268163
0.016597701 0.011944491 0.019417373 0.09785819 -1.1217998 0.06828539 -0.12765369 -0.062111743
-0.04913168 -0.102611646 -0.09217185 -0.020115245 0.11534197 0.09952456 -0.12714903 0.46617454
-0.081834935 -0.012136423 0.000607273 -0.029176198 -0.06208412 0.8823225 -0.050997447 0.6693194
-0.09453098 -0.032636292 -0.0068349163 0.0014812142 -0.09890552 -0.09592179 0.010844623 0.038866166
-0.0025163696 0.021699116 -0.03177532 1.022325 0.023016252 0.13949344 0.021377249 -0.0008887218
-0.06694828 0.27795538 -0.29149753 -0.114905156 0.18333535 0.008575327 -0.10551651 0.06792486
-0.20466806 0.31850466 0.37932348 -0.24779539 -0.07089377 0.114670716 -0.5715724 0.0030216184
0.17090207 -0.013635678 -0.03943234 0.1475099 0.04176193 -0.03301947 -0.10720412 -0.032146964
-0.01948245 0.50061554 -0.5315588 -0.6173833 0.032565773 -0.08784868 0.039352484 -0.10235566
0.08766247 0.42302334 -0.062237952 0.011550868 0.08375424 0.032834273 -0.07058377 -0.2161182
0.75975126 -0.7366042 0.5291707 -0.08624864 0.048430398 -0.052428152 -0.17113502 -0.2081817
0.8979617 0.025927894 -0.017002301 0.11295409 0.05004979 -0.0563092 0.0035711096 -0.41728166
-0.37621027 0.36895052 0.0065344027 0.007667015 -0.034528982 0.021434322 0.00963017 0.083863005
0.077176094 0.039836455 0.016005399 0.069428325 0.10233112 -0.97917867 -0.07617974 0.18530305
0.08813227 -0.046227816 -0.09380538 -0.15198517 0.23293808 0.06804559 -0.12980819 0.30990824
0.2870776 -0.043586303 -0.090403005 -0.067552306 0.00083490135 0.40123054 0.2018613 -0.46861914
0.22765757 0.04309727 -0.17066127 -0.055730406 -0.17555368 0.3873582 -0.13700567 -0.3042656
0.06627145 -0.0030948264 -0.08926163 0.01222674 0.69976234 -0.05119463 0.13013649 0.0846509
00000000: 05e2 b9be 2840 64bd 5161 193e f1a8 bbbd
00000010: a636 e03d 11cb 0bbe 714b 8b3d 10b7 5d3e
00000020: b2c5 86bd 73d8 f8bd f798 fd3b dafe d73d
00000030: 7d7a 743f b4d5 3c3d 285a 023e 1257 9f3c
00000040: 04da 423d 283c 5abf 0849 e33d 20df 543d
00000050: d8db abbc 5235 a73c 1d6f 3a3d 4ab7 7f3d
00000060: afed 823c 648d 5a3d b983 e0bc c6e7 b1bd
00000070: d19f 153f bac2 d13e 8fdc c53d 6f24 f43d
00000080: b76f ce3d 0138 ce3d c00c 833c 9ead 9d3d
00000090: 1ff8 04be 73af edbd fa87 56bd 6ce7 07be
000000a0: e710 03be 3781 49be 2e5c 3d3d 8f43 113d
000000b0: 6ca8 483f 93bb 163d c040 173c 7f33 4e3c
000000c0: d6b5 303d aad9 003c 3b62 8c3c cb27 d93c
000000d0: 14fe eb3c 728b e13d d610 4dbf 1c87 063d
000000e0: fc48 053d c72e 7bbe 7dfc e939 426d 35be
000000f0: 45dd 413e e7dd e23d bcbe 803c 121e 0fbe
00000100: 1720 d33d 3893 a1be f56d 0abe dcc7 533d
00000110: 8f24 cebd 8fca 65bd cc08 aa3b 63b9 f73d
00000120: e548 bf3e 5ff3 2f3f df2b db3e 1686 81bc
00000130: a3d6 1ebd fe38 4fbd 75d2 a13c df15 a23b
00000140: afac 90bd 4028 6a3f 9665 93be 9e51 50bd
00000150: 1d07 f9bc c218 fabc 85fe 323d 3ebb da3d
00000160: 4e73 1a3f 2ab0 7cbe 31cb f2bd 49de 45bd
00000170: 2be1 8cbc 8c3c ddbc dc5e 94bd 6ad4 8a3f
00000180: a726 a0bc 7717 983b b53f 0fbd 2be4 12bc
00000190: 1540 9abc 1f71 87bd 9dfa 1a3d c4ed 0abd
000001a0: c154 933b 2a1b 023d 529e 6fbc 316f 9b3d
000001b0: ad42 343d 7155 a03c 10b8 1f3d 22dc 013e
000001c0: e7f7 873c d4b2 433c 2f11 9f3c e069 c83d
000001d0: 2397 8fbf 36d9 8b3d a6b7 02be e268 7ebd
000001e0: 4d3e 49bd 0e26 d2bd 98c4 bcbd bac8 a4bc
000001f0: 6938 ec3d 88d3 cb3d 5b33 02be 6eae ee3e
00000200: 1399 a7bd d9d7 46bc 6731 1f3a ec02 efbc
00000210: eb4b 7ebd e3df 613f b3e2 50bd 8458 2b3f
00000220: 7599 c1bd a2ad 05bd 6ff7 dfbb 4d25 c23a
00000230: fa8e cabd a572 c4bd a5ad 313c 2132 1f3d
00000240: ade9 24bb 58c2 b13c d726 02bd 8cdb 823f
00000250: 948c bc3c 5ed7 0e3e 571f af3c 1cf9 68ba
00000260: 2e1c 89bd 2b50 8e3e 2a3f 95be 6553 ebbd
00000270: 43bc 3b3e 877f 0c3c 0a19 d8bd 301c 8b3d
00000280: 8194 51be 0b13 a33e b036 c23e 13be 7dbe
00000290: c130 91bd 7bd8 ea3d 9252 12bf 5806 463b
000002a0: f400 2f3e 2e68 5fbc ce83 21bd d60c 173e
000002b0: 8f0e 2b3d 6c3f 07bd d58d dbbd 89ac 03bd
000002c0: a999 9fbc 5728 003f 3d14 08bf d50c 1ebf
000002d0: b063 053d 02ea b3bd 1230 213d d89f d1bd
000002e0: 6288 b33d 8496 d83e 39ed 7ebd da3f 3d3c
000002f0: 5887 ab3d 3b7d 063d 398e 90bd 174e 5dbe
00000300: 0f7f 423f 1892 3cbf bb77 073f 21a3 b0bd
00000310: f45e 463d e7be 56bd 053e 2fbe 952d 55be
00000320: d1e0 653f bc66 d43c 6948 8bbc 7954 e73d
00000330: 0201 4d3d 7aa4 66bd 4709 6a3b f1a5 d5be
00000340: a29e c0be 15e7 bc3e 8b1e d63b 953b fb3b
00000350: 436e 0dbd 0897 af3c dcc7 1d3c 5ec0 ab3d
00000360: 800e 9e3d 8d2b 233d c11d 833c 7030 8e3d
00000370: fa92 d13d 74ab 7abf 2004 9cbd 15c0 3d3e
00000380: b17e b43d 6159 3dbd 091d c0bd 00a2 1bbe
00000390: 5287 6e3e 7c5b 8b3d 70ec 04be 4bac 9e3e
000003a0: d6fb 923e 8d87 32bd 3625 b9bd dd58 8abd
000003b0: 48dd 5a3a 176e cd3e bbb4 4e3e d9ee efbe
000003c0: 111f 693e c386 303d d4c1 2ebe 9145 64bd
000003d0: 58c4 33be d053 c63e 374b 0cbe b3c8 9bbe
000003e0: 53b9 873d 92d2 4abb cdce b6bd aa52 483c
000003f0: a023 333f 76b1 51bd 8042 053e 735d ad3d

bias f4 [100]
-0.4328512 -0.42523125 0.66491145 0.26672286 -0.13244784 -0.18122333 0.6256756 0.6036127
-0.61840093 -0.7417292 -0.066609375 0.17658506 -0.70008403 -0.101081654 -0.50416577 -0.077807605
-0.025467094 -0.14859432 0.10147942 0.7458312 0.17173423 -0.07246562 -0.10371379 0.4297785
-0.1490909 -0.10916428 0.5353848 -0.40016618 -0.29990712 0.3383109 0.501803 0.4720397
-0.14063482 0.15114182 0.2980569 0.22864546 0.42075107 -0.54118556 0.1390319 0.15337478
0.062909395 -0.56201005 0.34476793 -0.5243927 0.18987782 0.22709256 0.3631198 0.07845608
-0.04111526 0.008974277 -0.45969895 -0.6248754 0.14168462 0.5049456 0.4956337 -0.25947747
0.19179878 -0.20943895 0.47458926 -0.06824524 0.33312848 -0.07513458 -0.3866109 0.3170368
-0.6024009 -0.38091135 0.17598712 0.49082813 0.13418214 -0.59004915 0.47589242 0.29225364
-0.24167004 0.04248017 -0.30308506 0.09432137 0.26518956 0.4323197 0.24075471 0.22597717
0.33374247 0.8707815 0.235123 -0.8844482 -0.07220214 0.015932642 0.40788677 -0.12713908
-0.06718361 -0.6215865 -0.120950006 0.494172 0.2799913 -0.17939204 -0.30803433 0.48751584
0.5363571 0.49811342 0.18490626 0.18715718
00000000: ac9e ddbe e9b7 d9be a337 2a3f e68f 883e
00000010: 68a0 07be 9c92 39be 472c 203f 5d86 1a3f
00000020: 864f 1ebf f7e1 3dbf 7f6a 88bd b7d2 343e
00000030: b538 33bf e603 cfbd 0211 01bf 9859 9fbd
00000040: 5ea0 d0bc 1c29 18be 71d4 cf3d cbee 3e3f
00000050: 19db 2f3e db68 94bd e567 d4bd ed0b dc3e
00000060: 49ab 18be 8691 dfbd fa0e 093f 95e2 ccbe
00000070: 6d8d 99be 1637 ad3e 2976 003f 30af f13e
00000080: 9302 10be ecc4 1a3e ea9a 983e 0922 6a3e
00000090: af6c d73e 238b 0abf 615e 0e3e 470e 1d3e
000000a0: a4d6 803d e4df 0fbf 6c85 b03e 9a3e 06bf
000000b0: 556f 423e f48a 683e d7ea b93e 95ad a03d
000000c0: 7a68 28bd d908 133c a95d ebbe d6f7 1fbf
000000d0: c615 113e 1d44 013f b3c3 fd3e 3bda 84be
000000e0: e666 443e 2a77 56be 5dfd f23e 29c4 8bbd
000000f0: d18f aa3e 29e0 99bd ddf1 c5be a652 a23e
00000100: f236 1abf d006 c3be f835 343e d34d fb3e
00000110: 0b67 093e 760d 17bf 2ca8 f33e 45a2 953e
00000120: 5a78 77be b0ff 2d3d f72d 9bbe 902b c13d
00000130: edc6 873e 0259 dd3e 6788 763e 8f66 673e
00000140: 4be0 aa3e 89eb 5e3f 15c4 703e 326b 62bf
00000150: b7de 93bd 2c85 823c 89d6 d03e bf30 02be
00000160: 8f97 89bd 4b20 1fbf a3b4 f7bd 1d04 fd3e
00000170: 055b 8f3e 8cb2 37be adb6 9dbe ad9b f93e
00000180: b34e 093f b908 ff3e 1158 3d3e 22a6 3f3e

weight f4 [50, 100]
-0.26119927 -0.16021043 -0.062100094 -0.36871257 0.15343823 0.20359921 0.05213994 0.03170258
0.09972411 0.07850732 0.15490477 0.003546094 0.45845962 -0.11987137 -0.0071818447 0.11266409
0.16041176 0.063685514 -0.123110294 -0.0021909259 0.037345663 0.14503154 0.0075616864 -0.11988112
0.03630746 -0.25305066 -0.092266046 -0.27344054 -0.12618843 0.16446662 -0.07705567 0.109334156
0.22572228 0.13508834 -0.093096055 -0.20540038 -0.11142676 -0.16550034 0.46142054 0.040316153
0.010023025 0.36598662 -0.07857405 0.09778827 -0.21484776 0.28069067 0.01640264 -0.10406107
0.31625757 0.15981479 0.09544197 0.10124283 0.20778263 -0.051953226 -0.09730155 -0.050439704
0.14438288 0.08413703 0.15655293 0.05938987 -0.052860215 0.028006261 0.025145527 0.20054378
0.11278857 -0.2895837 -0.042516053 -0.25486353 0.34219077 0.057857607 -0.01570755 0.17591959
-0.08707724 -0.021385279 -0.15180168 0.19681701 -0.17145994 -0.10051024 -0.03321243 -0.22193938
-0.25745082 0.11666929 -0.15642984 0.54658705 -0.11265904 0.038635902 0.21977092 -0.36010113
0.045833327 0.3398179 -0.18072726 0.21567005 -0.054027855 0.0023304715 -0.12473835 -0.15086031
-0.19111916 -0.110302664 0.10116104 0.16823837 0.18981577 0.04990571 -0.09849723 -0.1288048
0.29058343 0.011561337 0.16928113 0.14278261 0.040915124 0.031151032 -0.044741508 -0.13458842
-0.038447246 -0.051789343 -0.3560884 -0.043720756 -0.20502016 0.023444291 0.07939457 0.275238
-0.008666327 0.29491776 -0.15440951 -0.12634932 0.0038657424 0.056858424 -0.22895503 0.14150202
-0.050583217 2.460419e-05 0.044081077 -0.040604398 -0.036755744 -0.07155245 0.011355953 0.012900282
-0.0153381135 -0.13108166 0.13066907 0.3619854 0.037466753 -0.08982324 0.16299246 0.06526936
0.07895603 -0.2463177 -0.13632424 -0.060575455 -0.12918569 0.053922094 -0.099446684 -0.21029219
0.059457906 0.19072685 0.3181075 0.041432135 0.011395699 0.067121305 0.04385776 -0.052423965
-0.1462334 0.04190993 -0.31751382 -0.15506525 0.43573073 -0.19369084 0.24752279 0.13921429
-0.6929362 -0.016327776 0.07465979 -0.2855621 0.09200485 0.076162 0.008463172 0.03872354
-0.07207144 0.0076592336 0.10620637 0.1214762 -0.03829795 -0.115722254 -0.048024926 -0.091270395
-0.10178971 -0.16022918 0.039278217 -0.24950427 0.17448603 0.1537864 0.17807874 0.017185416
-0.061738133 0.2531979 -0.16632494 -0.08857385 0.16280368 -0.1477874 0.05579691 0.15228231
-0.06558674 0.03546487 -0.31620234 0.21206918 -0.06282639 -0.16252194 -0.04739478 -0.08030051
0.28019604 -0.08276638 0.08226577 -0.009169455 -0.019952811 0.04784455 0.009051451 0.06907691
-0.22343846 -0.09625863 -0.16432467 -0.22147869 0.10331568 -0.012946543 -0.054789905 0.03769971
0.14481427 0.27371085 0.246456 -0.16805418 0.034769762 -0.17742202 -0.33472776 -0.021434307
-0.21497871 -0.0051576365 0.0138360895 -0.14846529 0.24949202 -0.32119352 -0.02347185 -0.054640103
0.03882429 -0.066974774 0.12909532 0.14096232 -0.071243204 -0.18028331 0.04833877 -0.04418295
0.066266425 -0.014138078 -0.03073172 0.42871264 -0.022001805 -0.31239226 -0.06558587 0.009756895
00000000: e9bb 85be 340e 24be ab5c 7ebd e5c7 bcbe
00000010: e91e 1d3e 507c 503e b190 553d 91da 013d
00000020: 273c cc3d 72c8 a03d 5b9f 1e3e 9665 683b
00000030: 38bb ea3e 1f7f f5bd ae55 ebbb 6ebc e63d
00000040: fb42 243e 8d6d 823d 4021 fcbd a395 0fbb
00000050: c4f7 183d 2683 143e 06c8 f73b 3c84 f5bd
00000060: 22b7 143d db8f 81be fbf5 bcbd 6600 8cbe
00000070: 8a37 01be f069 283e 5dcf 9dbd 96ea df3d
00000080: be23 673e 9954 0a3e 25a9 bebd 7a54 52be
00000090: b733 e4bd ec78 29be 503f ec3e 8d22 253d
000000a0: 9d37 243c 9962 bb3e 6eeb a0bd 3745 c83d
000000b0: 0d01 5cbe b0b6 8f3e d45e 863c f81d d5bd
000000c0: 83ec a13e 7da6 233e 1477 c33d 6758 cf3d
000000d0: f8c4 543e e8cc 54bd 0946 c7bd dd99 4ebd
000000e0: 1bd9 133e 0950 ac3d 694f 203e cb42 733d
000000f0: f483 58bd 636d e53c fefd cd3c 595b 4d3e
00000100: b2fd e63d 5144 94be 5025 2ebd 797d 82be
00000110: a133 af3e 19fc 6c3d 1fad 80bc 4424 343e
00000120: 8d55 b2bd 2e30 afbc e671 1bbe 668a 493e
00000130: 3293 2fbe 50d8 cdbd c209 08bd 1444 63be
00000140: 98d0 83be 4ff0 ee3d 252f 20be 21ed 0b3f
00000150: c8b9 e6bd ae40 1e3d a10b 613e 2d5f b8be
00000160: babb 3b3d 9dfc ad3e 9110 39be 9cd8 5c3e
00000170: 504c 5dbd d3ba 183b d276 ffbd 207b 1abe
00000180: beb4 43be 5de6 e1bd 852d cf3d ae46 2c3e
00000190: 115f 423e ee69 4c3d eab8 c9bd 68e5 03be
000001a0: 5ac7 943e c36b 3d3c 0858 2d3e 9b35 123e
000001b0: 9e96 273d 7330 ff3c df42 37bd 8cd1 09be
000001c0: dc7a 1dbd 1021 54bd 3851 b6be 8914 33bd
000001d0: cef0 51be 3e0e c03c 9f99 a23d ffeb 8c3e
000001e0: 36fd 0dbc 76ff 963e 871d 1ebe b761 01be
000001f0: 6558 7d3b 61e4 683d 3073 6abe e8e5 103e
00000200: 5930 4fbd 1865 ce37 5c8e 343d cc50 26bd
00000210: 318d 16bd 178a 92bd 520e 3a3c b45b 533c
00000220: b64c 7bbc 453a 06be 1dce 053e 2656 b93e
00000230: bd76 193d 3ff5 b7bd 7fe7 263e f1ab 853d
00000240: b3b3 a13d b53a 7cbe 9598 0bbe f81d 78bd
00000250: 4149 04be 6add 5c3d b4aa cbbd d656 57be
00000260: 228a 733d e64d 433e fcde a23e beb4 293d
00000270: 07b5 3a3c e576 893d 32a4 333d 83ba 56bd
00000280: 35be 15be bfa9 2b3d 2c91 a2be 6dc9 1ebe
00000290: 1918 df3e e456 46be 9d76 7d3e 318e 0e3e
000002a0: 4464 31bf d4c1 85bc 3be7 983d 3235 92be
000002b0: 0a6d bc3d d3fa 9b3d 1ea9 0a3c 939c 1e3d
000002c0: 319a 93bd 4ffa fa3b ba82 d93d 84c8 f83d
000002d0: 50de 1cbd caff ecbd c9b5 44bd f9eb babd
000002e0: 2077 d0bd 1e13 24be 32e2 203d 0c7e 7fbe
000002f0: 77ac 323e 2f7a 1d3e 465a 363e 6ec8 8c3c
00000300: 20e1 7cbd 28a3 813e 1651 2abe 3566 b5bd
00000310: 02b6 263e 9555 17be 4d8b 643d e5ef 1b3e
00000320: 5752 86bd 9d43 113d 46e5 a1be aa28 593e
00000330: 1fab 80bd 276c 26be 0721 42bd 9874 a4bd
00000340: db75 8f3e 6b81 a9bd f57a a83d 7b3b 16bc
00000350: 1474 a3bc a6f8 433d 8a4c 143c 3278 8d3d
00000360: 0dcd 64be 3f23 c5bd ba44 28be 4fcb 62be
00000370: 2c97 d33d bd1d 54bc 616b 60bd 036b 1a3d
00000380: 314a 143e d423 8c3e f65e 7c3e 6516 2cbe
00000390: bd6a 0e3d 1eae 35be 7061 abbe 0097 afbc
000003a0: 6123 5cbe 6401 a9bb c4b0 623c 4907 18be
000003b0: d67a 7f3e 7a73 a4be 0a48 c0bc 4dce 5fbd
000003c0: 3806 1f3d 122a 89bd 9031 043e 6d58 103e
000003d0: f5e7 91bd 309c 38be e0fe 453d 2ef9 34bd
000003e0: b1b6 873d 66a3 67bc 17c1 fbbc 3980 db3e
000003f0: 213d b4bc e1f1 9fbe e251 86bd 62db 1f3c

bias f4 [50]
-0.38185784 -0.20015804 -0.27079296 -0.38784012 -0.22431104 -0.10646491 0.19336477 -0.30106905
-0.5952944 -0.2043928 -0.053262252 -0.3938438 -0.043195136 0.11121768 -0.32958865 0.042237855
-0.33888704 -0.4410236 0.1899515 -0.25884447 -0.1311016 0.081619255 -0.45703304 -0.3357757
-0.75257444 -0.0049215956 0.10484447 -0.22336844 -0.4655009 0.16464157 0.010339519 -0.025337322
-0.2377627 0.18831831 0.19230594 -0.3440397 0.0123104 0.27557182 -0.6037248 -0.11122408
0.29715794 0.12752919 -0.39645356 -0.7248171 -0.33531246 -0.19940667 -0.07402574 0.16039827
-0.53699255 0.27836648
00000000: df82 c3be 3bf6 4cbe 60a5 8abe fb92 c6be
00000010: cbb1 65be 460a dabd 6a01 463e b925 9abe
00000020: 3765 18bf 594c 51be 8529 5abd e5a5 c9be
00000030: 62ed 30bd 18c6 e33d d8bf a8be 9a01 2d3d
00000040: 9a82 adbe d8cd e1be a582 423e 4387 84be
00000050: 7f3f 06be ff27 a73d 3c00 eabe cbea abbe
00000060: b8a8 40bf 5645 a1bb b3b8 d63d b2ba 64be
00000070: 2256 eebe cd97 283e 1667 293c 3790 cfbc
00000080: 1178 73be 84d6 403e d9eb 443e f925 b0be
00000090: 8fb1 493c c017 8d3e b58d 1abf 73c9 e3bd
000000a0: 1625 983e 0397 023e f6fb cabe 9d8d 39bf
000000b0: 13ae abbe 4331 4cbe cf9a 97bd 723f 243e
000000c0: 5878 09bf 0d86 8e3e

weight f4 [25, 50]
-0.001658196 0.06878074 0.35329264 0.020651586 -0.3942785 0.32780948 0.0072794557 -0.19114019
-0.0651244 -0.06364043 0.17637742 0.26777264 0.07042575 0.00040452115 0.015122177 -0.14466521
-0.029021256 -0.10524996 -0.022574672 0.17869003 0.034561444 -0.11206414 -0.05570617 0.079734355
0.14722003 0.05955267 0.13663797 0.030282838 0.070617646 -0.2056198 -0.1578769 0.10848728
0.1574461 -0.03278185 0.0006300724 -0.08092763 -0.21919197 -0.2761111 0.020421712 0.1053943
0.13045794 0.013983855 0.41793 0.061513644 0.13358012 -0.07389006 0.3676442 0.1308759
0.1107352 -0.08439942 -0.0149073955 0.14972444 0.08442953 -0.13981326 -0.09925613 0.14093035
0.060746957 -0.22658275 -0.2450564 -0.20068204 -0.43279067 -0.13515355 0.09301838 0.18653421
-0.056341223 -0.07365993 0.11711174 0.0026628375 -0.13285269 -0.08559789 -0.093713075 0.006680097
-0.11802577 0.20660849 0.29625276 0.0264652 0.1165191 -0.28388837 0.2965417 0.073445484
0.043497298 0.16949078 0.049730334 0.05014137 -0.10949404 0.08832607 -0.0013618803 0.17127195
-0.20238236 0.14256543 -0.08037712 -0.11049059 0.2889953 -0.0032065518 0.24023446 0.55772823
-0.0065682153 -0.10549358 -0.01815765 -0.023461897 -0.3203386 -0.19805479 -0.0040116343 -0.11107505
0.46651968 0.12723644 0.05735194 0.18455695 -0.2841297 0.030125907 -0.009537678 0.09284683
0.103024706 0.0813807 0.20261343 -0.28273058 0.11073158 -0.56632805 0.2961745 -0.08547452
0.115317956 0.1321966 -0.03794759 -0.0027445743 0.016730277 -0.022379389 -0.120338336 0.29550683
0.3825768 -0.208383 0.27765408 0.11794717 -0.54674244 -0.52910143 -0.048592977 0.24039795
0.42054775 0.050256476 -0.26138034 -0.06955488 0.07775049 -0.30167127 -0.08656825 -0.082170114
-0.032484267 -0.1807679 -0.097992405 -0.12000352 -0.5474143 -0.18801047 0.14898176 -0.19392945
0.1296976 -0.030939698 0.077044725 0.105016954 0.32148033 -0.16031668 -0.36121768 -0.029568814
0.0106094405 -0.14792234 -0.06779275 0.116491504 -0.027686087 0.16939873 0.23933306 -0.014055479
0.33481684 -0.0076050726 0.2509643 -0.07842154 -0.07047319 0.11119338 -0.25557348 0.09686766
0.027996186 -0.057603434 0.21574882 -0.07786321 0.048201203 -0.112544894 0.09439735 0.039923087
0.0974382 -0.0034969999 0.089498945 -0.05162993 0.15798116 -0.08386458 -0.014952354 -0.17986608
0.23813048 0.17980194 0.009206044 0.23380996 -0.26651585 0.16570345 -0.09983441 -0.08295653
-0.15098153 -0.08214217 0.09526106 0.09256494 0.14628893 -0.00527505 0.05600568 0.09501833
0.047857527 0.6152309 0.09326253 0.11439267 0.08111419 0.03639444 0.41542968 -0.014336048
0.009897518 0.26859665 -0.035336774 -0.07599411 0.19493736 -0.03185336 -0.027429154 0.37469968
0.038068034 -0.03042523 -0.22243367 0.0969553 -0.7249319 0.033990577 -0.09158661 0.0016423289
0.24547805 0.12168035 -0.13660422 0.108302 -0.061282564 0.036204696 0.005858218 0.029696187
-0.019517036 0.0064599374 -0.0077437754 0.040668845 0.2797524 0.12851779 0.0908959 -0.096639544
-0.2451522 -0.068157025 0.18459934 -0.12907016 0.277982 0.0011502819 0.24459073 -0.024305938
00000000: d357 d9ba ebdc 8c3d c6e2 b43e 842d a93c
00000010: dfde c9be a5d6 a73e 8088 ee3b 41ba 43be
00000020: f15f 85bd ea55 82bd 489c 343e 7f19 893e
00000030: 603b 903d e915 d439 02c3 773c 1e23 14be
00000040: fcbd edbc 4b8d d7bd 85ee b8bc 85fa 363e
00000050: 4d90 0d3d e281 e5bd 272c 64bd c44b a33d
00000060: d9c0 163e 80ed 733d d3ea 0b3e b713 f83c
00000070: fc9f 903d ff8d 52be 7baa 21be 942e de3d
00000080: 8d39 213e 4346 06bd 712b 253a 63bd a5bd
00000090: dc73 60be 6f5e 8dbe 6f4b a73c f7d8 d73d
000000a0: c496 053e 8a1c 653c ecfa d53e bbf5 7b3d
000000b0: 3ac9 083e ac53 97bd dc3b bc3e 5504 063e
000000c0: 23c9 e23d 9ad9 acbd 263e 74bc 5d51 193e
000000d0: 64e9 ac3d 352b 0fbe cc46 cbbd 0c50 103e
000000e0: cdd1 783d 4f05 68be 11f0 7abe 987f 4dbe
000000f0: bd96 ddbe b165 0abe 6c80 be3d d302 3f3e
00000100: 0ec6 66bd 04db 96bd 48d8 ef3d 0083 2e3b
00000110: 890a 08be f24d afbd a4ec bfbd b7e4 da3b
00000120: 7fb7 f1bd 2d91 533e 71ae 973e 8ccd d83c
00000130: 91a1 ee3d d159 91be 50d4 973e 966a 963d
00000140: 392a 323d fe8e 2d3e 09b2 4b3d 0a61 4d3d
00000150: 693e e0bd 4ce4 b43d 1f81 b2ba ea61 2f3e
00000160: 523d 4fbe acfc 113e c29c a4bd e448 e2bd
00000170: 31f7 933e 0325 52bb 0600 763e 47c7 0e3f
00000180: 2f3a d7bb 050d d8bd 5abf 94bc 2a33 c0bc
00000190: 6c03 a4be e0ce 4abe 0774 83bb 517b e3bd
000001a0: abdb ee3e 454a 023e dee9 6a3d 7ffc 3c3e
000001b0: 7379 91be 9bca f63c ec43 1cbc 7b26 be3d
000001c0: 9efe d23d edaa a63d e579 4f3e 10c2 90be
000001d0: 3dc7 e23d e0fa 10bf 2fa4 973e 440d afbd
000001e0: d22b ec3d 8c5e 073e ef6e 1bbd 51de 33bb
000001f0: ef0d 893c fb54 b7bc f273 f6bd ac4c 973e
00000200: 1be1 c33e 5a62 55be ad28 8e3e 498e f13d
00000210: 50f7 0bbf 3173 07bf 6e09 47bd e12a 763e
00000220: 0952 d73e bcd9 4d3d a5d3 85be ca72 8ebd
00000230: a63b 9f3d a874 9abe b24a b1bd ce48 a8bd
00000240: 390e 05bd 381b 39be 3eb0 c8bd 68c4 f5bd
00000250: 5823 0cbf d185 40be ad8e 183e 7195 46be
00000260: 73cf 043e 4075 fdbc a0c9 9d3d 2113 d73d
00000270: 1299 a43e 0e2a 24be 86f1 b8be 4c3a f2bc
00000280: 38d3 2d3c f478 17be edd6 8abd 1993 ee3d
00000290: efcd e2bc dc76 2d3e ba13 753e f448 66bc
000002a0: 1d6d ab3e f933 f9bb 657e 803e 799b a0bd
000002b0: 3f54 90bd 5bb9 e33d 87da 82be 8d62 c63d
000002c0: 4258 e53c 94f1 6bbd 42ed 5c3e bf76 9fbd
000002d0: a06e 453d f07d e6bd 6653 c13d 6486 233d
000002e0: ae8d c73d ec2d 65bb 394b b73d e879 53bd
000002f0: d0c5 213e 31c1 abbd b8fa 74bc d02e 38be
00000300: 7ad8 733e 001e 383e f2d4 163c e16b 6f3e
00000310: c474 88be 2aae 293e fc75 ccbd 1de5 a9bd
00000320: e79a 1abe 273a a8bd 3b18 c33d b092 bd3d
00000330: c4cc 153e 54da acbb 3666 653d f898 c23d
00000340: 4106 443d c67f 1d3f 6d00 bf3d b446 ea3d
00000350: 321f a63d 5612 153d 33b3 d43e bee1 6abc
00000360: 3329 223c 8085 893e 4bbd 10bd cda2 9bbd
00000370: a99d 473e ab78 02bd 1bb3 e0bc a3d8 bf3e
00000380: 3aed 1b3d 553e f9bc a7c5 63be 8090 c63d
00000390: 2395 39bf b439 0b3d c391 bbbd 6a43 d73a
000003a0: 995e 7b3e 8c33 f93d fae1 0bbe 70cd dd3d
000003b0: 6d03 7bbd 604b 143d 4bf6 bf3b 6b45 f33c
000003c0: 31e2 9fbc e2ad d33b 7fbf fdbb 6094 263d
000003d0: b53b 8f3e 2b9a 033e a127 ba3d f4ea c5bd
000003e0: 2e09 7bbe e995 8bbd 9c07 3d3e f82a 04be
000003f0: a853 8e3e 0ec5 963a fe75 7a3e 3f1d c7bc

bias f4 [25]
-0.7742669 0.031255357 0.1555659 0.065047674 -0.6739882 0.055649653 -0.14347066 0.043823775
-0.46200144 -0.0552521 -0.6823794 -0.037500776 -0.4889984 0.076955244 -0.40126127 -0.021156866
-0.73207533 0.05716072 -0.43088967 0.12460581 -0.026617458 -0.63248694 0.078480594 0.0031045272
0.12627567
00000000: 5b36 46bf 9e05 003d ab4c 1f3e b737 853d
00000010: 7e8a 2cbf e4f0 633d f9e9 12be 8f80 333d
00000020: 748b ecbe 0750 62bd 6bb0 2ebf 6a9a 19bd
00000030: 005e fabe b69a 9d3d 1e72 cdbe 2a51 adbc
00000040: 4a69 3bbf 5c21 6a3d 929d dcbe 5531 ff3d
00000050: db0c dabc aaea 21bf 6fba a03d 5375 4b3b
00000060: 694e 013e

weight f4 [3, 25]
-0.027944652 -0.05841116 -0.017449552 0.001563137 0.085306026 0.09674744 -0.020049926 0.066172116
0.002978604 -0.10781294 -0.019284828 -0.047687214 -0.0052088946 0.012660118 -0.004762317 -0.10280521
0.05027298 -0.0553581 0.0074436334 -0.038695738 -0.12029675 -0.07080122 0.12853788 0.012391229
-0.02355754 0.074122764 0.08136257 -0.026559526 -0.08451355 0.015111514 -0.118156515 -0.04853692
0.13484983 0.066292346 -0.018101363 -0.06329756 0.07353343 0.0698382 -0.040118933 -0.083112605
-0.064778194 -0.013364432 0.10265955 -0.082055844 0.0058817267 -0.087610275 -0.00320506 -0.020515246
-0.037347678 0.048553333 -0.028918132 0.07558082 -0.029047063 0.13139449 0.049971823 -0.020259436
-0.041877188 -0.092357345 0.023569487 0.00073588855 -0.035176553 -0.14032811 0.06314563 0.007685325
0.047984935 -0.086973436 -0.042806394 0.13435765 -0.058148295 0.016791107 -0.05634429 0.053425163
-0.00079028454 -0.023084236 -0.038593423
00000000: 2fec e4bc 8a40 6fbd 5df2 8ebc 2de2 cc3a
00000010: edb4 ae3d 8623 c63d be3f a4bc 3f85 873d
00000020: af34 433b 08cd dcbd 37fb 9dbc ab53 43bd
00000030: 60af aabb 626c 4f3c 360d 9cbb 8a8b d2bd
00000040: 0aeb 4d3d 2dbf 62bd b9e9 f33b 6c7f 1ebd
00000050: 245e f6bd 3b00 91bd 6f9f 033e 9504 4b3c
00000060: befb c0bc adcd 973d 6ba1 a63d 5d93 d9bc
00000070: 7115 adbd 4996 773c 0bfc f1bd a6ce 46bd
00000080: 1316 0a3e 48c4 873d 4f49 94bc 27a2 81bd
00000090: b298 963d 5507 8f3d c053 24bd f136 aabd
000000a0: 6eaa 84bd 7ef6 5abc 2c3f d23d e50c a8bd
000000b0: 80bb c03b 046d b3bd fc0b 52bb 970f a8bc
000000c0: e1f9 18bd dcdf 463d b8e5 ecbc 1eca 9a3d
000000d0: 1bf4 edbc 478c 063e 41af 4c3d 1ef7 a5bc
000000e0: 6a87 2bbd d925 bdbd cc14 c13c a5e8 403a
000000f0: 4a15 10bd 2cb2 0fbe 7f52 813d 2ed5 fb3b
00000100: da8b 443d 211f b2bd c255 2fbd 0d95 093e
00000110: e82c 6ebd 818d 893c 45c9 66bd 58d4 5a3d
00000120: 192b 4fba 271b bdbc 2314 1ebd

bias f4 [3]
-0.08882154 0.028804382 -0.072497085
00000000: 11e8 b5bd 2bf7 eb3c 5a79 94bd
